kingfisher_neuralparc/config/policy.pth (torch, 236727 bytes, 30 tensors)

value_mean_std.running_mean f8 [1]
0	0x3fe2ff8bb483490d	0.5936945462838438

value_mean_std.running_var f8 [1]
0	0x3f8e57b2ab0c3d4f	0.014815708012547417

value_mean_std.count f8 []
0	0x41b3880001000000	327680001.0

running_mean_std.running_mean_std.state.running_mean f8 [11]
0	0x3faa2ba36e67aa57	0.05111418459621991
1	0xbef2f5c8be258143	-1.8081755010058693e-05
2	0x3f7f85036c222b06	0.007695210808502001
3	0x3fd9d9b469564014	0.4039126423531354
4	0x3fbc05780b3a4199	0.10945844911680637
5	0x3fab3e3a3ae3ca6d	0.05320913285131188
6	0x400dd102e0255ff3	3.7270562659650692
7	0xbf46b3e8af1256b3	-0.0006928335334516949
8	0xbf534b4ff1218df6	-0.001177623813895743
9	0x3fdffb44b5b4b586	0.4997112059089307
10	0xbf4c56da7df34437	-0.0008648459296641879

running_mean_std.running_mean_std.state.running_var f8 [11]
0	0x3fa2df07e66c4225	0.036857840421479694
1	0x3f430fddb6edf499	0.0005817253676096034
2	0x3f96d59077ebd597	0.022299058265124207
3	0x3fefff8f5e56982b	0.9999462931198243
4	0x3fe2d91780db2c4f	0.5890004650804118
5	0x3fd95d04bddc726d	0.39630240002751443
6	0x40035d1108501156	2.42044264311168
7	0x3fe00027a96a9375	0.5000189122116426
8	0x3fe000d3f803f6c7	0.5001010746052196
9	0x3f9ec68aaa82a4cf	0.030054251343845814
10	0x3fab55c8ed19ae2d	0.053388861601743144

running_mean_std.running_mean_std.state.count f8 []
0	0x41a3880002000000	163840001.0

a2c_network.sigma f4 [2]
0	0xbfd9d985	-1.7019507
1	0xbfccf9ef	-1.6013774

a2c_network.actor_mlp.0.weight f4 [128, 11]
0	0x3fb86e31	1.4408628
1	0xbf6ccf37	-0.92503685
2	0xbebc806b	-0.36816725
3	0x405d4e23	3.457894
4	0x404e1681	3.2201235
5	0xbea98043	-0.33105668
6	0x3e464140	0.19360828
7	0x40002067	2.0019777
8	0xbf404307	-0.75102276
9	0xbf84ed04	-1.0384831
10	0x3ee40d8d	0.44541588
11	0x3f1b7bae	0.60735595
12	0xbd4c3909	-0.04985908
13	0x3fea655c	1.8312182
14	0xbfa716f1	-1.3053876
15	0xc071d035	-3.778333
16	0x402d08a7	2.703653
17	0xbf2cdd1b	-0.6752488
18	0x3dd4e64c	0.10395488
19	0xbba64f04	-0.0050753374
20	0xbf45f0e6	-0.77320707
21	0xbf321c8f	-0.69574827
22	0x405c7e48	3.4452076
23	0x3fc4bc10	1.5369892
24	0x40072a08	2.1119404
25	0x402dc674	2.7152376
26	0xbfe6d145	-1.8032614
27	0x3fc6e5be	1.5538862
28	0xbf8f22b0	-1.1182461
29	0x3d64f3c2	0.055896528
30	0x3d6584d3	0.056034874
31	0x3f9a0bcd	1.2034851
32	0x3ff9c6d2	1.95138
33	0x3e0019e4	0.12509876
34	0x3f9517c5	1.1647879
35	0x3eca7145	0.39539543
36	0xbf415381	-0.7551804
37	0x4090794b	4.5148063
38	0x3f56f30f	0.8396463
39	0xbdb737a7	-0.08946162
40	0x3f8df9ed	1.1091896
41	0x3f97cfd4	1.1860299
42	0x3f7ea44d	0.99469453
43	0x3f41acd7	0.7565436
44	0xbeefa449	-0.46805027
45	0x3e7645d9	0.24050082
46	0x3eda8f6d	0.4268755
47	0x402948e3	2.6450737
48	0x3fd45edb	1.6591448
49	0xbffc5c7b	-1.9715723
50	0x3fed47cf	1.8537539
51	0x3f7e961a	0.99447787
52	0x3f17dfb0	0.59325695
53	0x3d257f76	0.04040476
54	0xbf55d5c6	-0.8352932
55	0xbedc8384	-0.43069088
56	0x403bf4f5	2.936826
57	0x3e996340	0.29958534
58	0xbfcaac28	-1.5833788
59	0xc04320f4	-3.0488863
60	0xbfd77236	-1.683173
61	0xbf9335b5	-1.1500765
62	0x3f39f735	0.72642833
63	0x3f96169e	1.1725652
64	0xbfb7972d	-1.434301
65	0xc020899c	-2.508399
66	0x3f4b102f	0.7932157
67	0xbfb95b2a	-1.4480946
68	0xbef8e1cc	-0.4860977
69	0xbf872fba	-1.056144
70	0x3f3b9b9f	0.73284334
71	0xc077aa16	-3.8697562
72	0x3fb5d7bb	1.4206461
73	0xbec98d84	-0.3936578
74	0x3f68d224	0.9094565
75	0xbf4973b3	-0.7869217
76	0x3fef2105	1.8681952
77	0x40032db7	2.0496652
78	0xbee8c580	-0.4546318
79	0x3e44c894	0.1921714
80	0xc0e0c19f	-7.0236354
81	0xbf700fc6	-0.9377407
82	0x3e037713	0.12838392
83	0x3e9d3f4e	0.3071236
84	0xbe312f0e	-0.17303106
85	0xbd274a43	-0.040842306
86	0x3f137f14	0.5761578
87	0xbe3aaad9	-0.18229236
88	0xc017dd80	-2.3728943
89	0x3fa9d541	1.3268205
90	0xbf4dba1f	-0.80362123
91	0x4076f8a9	3.858927
92	0x404e1e22	3.2205892
93	0x3d91594f	0.070971124
94	0x3f3bed91	0.7340937
95	0x3f8c7ef4	1.0976243
96	0xbfc52062	-1.5400507
97	0x3f59d2c0	0.85087204
98	0xc01011a2	-2.2510762
99	0xbfafd2a9	-1.3736163
100	0xbec59c74	-0.38595927
101	0xc07627fb	-3.8461902
102	0x3f355278	0.7082896
103	0xc0263beb	-2.597407
104	0x3fe1418d	1.759813
105	0xbf0a5425	-0.54034644
106	0x3f1f73b6	0.62285936
107	0x3fd5223d	1.6651074
108	0xbfa7b6c0	-1.3102646
109	0x3fba8a51	1.4573461
110	0x40e493a1	7.143021
111	0xbf2e054c	-0.6797683
112	0xbf37f6c7	-0.7186093
113	0x40271e31	2.6112177
114	0xc0207671	-2.507229
115	0xbdef0490	-0.11670792
116	0xbe33011d	-0.17480893
117	0x3f54e6b1	0.8316451
118	0xbf05f590	-0.52327824
119	0xbf70e801	-0.9410401
120	0x3f839ad5	1.0281626
121	0xbf859d42	-1.0438616
122	0x3f818d16	1.0121181
123	0x4007130f	2.1105382
124	0xc042c7f7	-3.043455
125	0x3fffbd0b	1.9979566
126	0x3f9fab45	1.2474142
127	0x3fc7f9bd	1.5623089
128	0xbf818be7	-1.012082
129	0x3ebddc3f	0.37082097
130	0x3f88f708	1.0700388
131	0xc03ead1e	-2.9793162
132	0xbe5e52b2	-0.21711233
133	0xbfed4625	-1.8537031
134	0x40acfb88	5.4057045
135	0xbe9b2186	-0.30299014
136	0xbfde92e6	-1.738858
137	0xbf9df22a	-1.2339528
138	0xbfa3cc8f	-1.2796801
139	0x3fc960eb	1.5732702
140	0xbe62008b	-0.2207052
141	0xbd9539bf	-0.07286405
142	0x3f3e983f	0.7445106
143	0xc0a26086	-5.0742826
144	0x3f0e8e7d	0.5568617
145	0x403c0d1d	2.9383004
146	0x3fef782f	1.8708552
147	0xbff67d95	-1.9257075
148	0x3f9441f9	1.1582633
149	0x3fd13afa	1.6346123
150	0x3eb306a9	0.3496602
151	0xbec1f861	-0.3788481
152	0xbbc7db66	-0.0060991524
153	0x3e99fdeb	0.30076537
154	0xbdc7a96e	-0.09749113
155	0x3d0a5f65	0.03378238
156	0xbc03c463	-0.008042428
157	0xbecc903a	-0.39953786
158	0x3f4249dc	0.7589395
159	0xba998488	-0.0011712471
160	0xbfa17f94	-1.2617059
161	0xbd0b00b6	-0.033936225
162	0x3df6bcdb	0.1204774
163	0xbdaa6cbc	-0.08321521
164	0xbc5db8f7	-0.013532869
165	0x3f80a58c	1.0050521
166	0x3ee79de2	0.45237643
167	0xbf6bcec7	-0.9211239
168	0xbe2941c6	-0.16528997
169	0x3ea2e662	0.31816393
170	0xc00d51d2	-2.208119
171	0x4009d140	2.1533966
172	0x401e6585	2.4749463
173	0xbf2749c8	-0.65346956
174	0xc0758044	-3.8359537
175	0x3e6f807c	0.23388857
176	0x4048d6dc	3.138114
177	0x3fce21f4	1.6104112
178	0x3e2ed0c6	0.17071828
179	0xc015c793	-2.340306
180	0xbf622699	-0.88340145
181	0x3f5fa77e	0.8736495
182	0x3fc0c842	1.5061114
183	0xc0519b44	-3.2751017
184	0x3f04731d	0.5173815
185	0x40211dd7	2.5174463
186	0xbfbb027a	-1.4610131
187	0x3f63ce4a	0.8898665
188	0xbfda6a45	-1.7063681
189	0x3fa6a486	1.3018959
190	0xbfab3b91	-1.3377553
191	0xbf3a4e91	-0.7277613
192	0xbf5a99aa	-0.8539072
193	0x3ebe404a	0.37158424
194	0x3fa12537	1.2589482
195	0x3e08487b	0.13308899
196	0x3f09b0f1	0.53785616
197	0x3f691f98	0.91063833
198	0x3f4b96dc	0.7952707
199	0x3fca4e04	1.5805058
200	0xbfb2d324	-1.3970685
201	0x402fa314	2.7443285
202	0x4095e774	4.6845036
203	0x3e1aaa27	0.1510397
204	0xbff744b3	-1.931784
205	0xbf830057	-1.0234479
206	0xbf5da7a7	-0.8658394
207	0x3ee039d5	0.43794122
208	0x3f386667	0.72031254
209	0x405e04d7	3.4690454
210	0xbf3b7d8e	-0.73238456
211	0x3f2fe27b	0.68704957
212	0xc08a8503	-4.328737
213	0xbf83618e	-1.0264146
214	0xbf7f2880	-0.99671173
215	0xbe868b0a	-0.26277953
216	0xbdd4be34	-0.10387841
217	0xbeb57c9d	-0.35446635
218	0x3e811a8e	0.25215572
219	0xbe6a49fc	-0.22879785
220	0xc017e93c	-2.3736105
221	0x3fe010fb	1.7505182
222	0xbdd0774c	-0.10179004
223	0xc03ad702	-2.919373
224	0xbff36a4d	-1.9016815
225	0xbe5cff16	-0.21581683
226	0xbdcf8e0e	-0.10134517
227	0xc00421af	-2.064556
228	0xbfdf7986	-1.7458961
229	0x3f0ae0d8	0.54249334
230	0x40563bbe	3.3473964
231	0x40ac0b6a	5.3763933
232	0xbdbfde3b	-0.09368559
233	0xbf3aff27	-0.7304558
234	0x4070092d	3.75056
235	0xbe39231e	-0.18079802
236	0x3daab039	0.08334393
237	0xbcef6cd6	-0.029226702
238	0xbe852b77	-0.26009724
239	0x3df6b85d	0.12046883
240	0xbebb3b4d	-0.3656868
241	0x3f6c878d	0.92394334
242	0xbfc1af74	-1.5131669
243	0xbee7a317	-0.45241615
244	0x3e22b863	0.1589065
245	0xc067c1cb	-3.6212032
246	0xbf5e63b5	-0.8687089
247	0x3d176098	0.036957353
248	0x3d81a9ee	0.0633124
249	0x3de26e43	0.11056187
250	0xbdae699f	-0.085162394
251	0xbdab43de	-0.08362554
252	0xbe1fb79f	-0.1559739
253	0xc08c7727	-4.389545
254	0x40046f2e	2.0692859
255	0xbf311e1f	-0.69186586

a2c_network.actor_mlp.0.bias f4 [128]
0	0xbe59d290	-0.2127173
1	0xc00b1718	-2.1732845
2	0x40263ed4	2.5975847
3	0xc008d06d	-2.1377213
4	0xc049baab	-3.1520183
5	0xbfbbd13f	-1.4673232
6	0x4063f998	3.562109
7	0xbf431650	-0.7620592
8	0x3fa2b1df	1.2710532
9	0x3ec7ef00	0.3904953
10	0xbf548d5e	-0.8302821
11	0xbf292620	-0.660738
12	0x3f7c9237	0.98660606
13	0xbfd9ddc9	-1.7020808
14	0x40a96b93	5.2943816
15	0x3deba139	0.1150536
16	0x3e890a3e	0.26765627
17	0xc0b1ee1e	-5.560317
18	0x3fbb525c	1.4634509
19	0x3e8fc2a3	0.28078184
20	0x3fa98ebb	1.3246683
21	0x4011baf9	2.277037
22	0xbff64252	-1.9238989
23	0xbfc3dcf9	-1.530181
24	0x402d0844	2.7036295
25	0xc02f691c	-2.7407904
26	0xbf01d239	-0.507114
27	0xbfac1528	-1.3443956
28	0x3fafbc7a	1.3729393
29	0x3c86f1ee	0.016472783
30	0x3f25c987	0.6476063
31	0x3fab2525	1.3370711
32	0xbfd380bd	-1.6523663
33	0xc0047c0b	-2.070071
34	0x3fb92146	1.4463279
35	0xc0014716	-2.0199637
36	0x40269445	2.6027997
37	0xbf264454	-0.6494801
38	0x3fd9c8ae	1.7014368
39	0x404d5fed	3.2089798
40	0x3f11b8b3	0.56922454
41	0x3fcbccd5	1.5921885
42	0x3ed357e4	0.41277993
43	0xc063f1e2	-3.5616384
44	0xc06940b4	-3.6445742
45	0xc0033eeb	-2.0507152
46	0x3f0eea23	0.55826014
47	0x3f7214f0	0.945632
48	0x4087f87d	4.249083
49	0xbf420ea8	-0.75803614
50	0x3fe3b853	1.7790626
51	0x3f023294	0.50858426
52	0xbf93cb78	-1.1546469
53	0x3e231699	0.15926589
54	0xc02cce5e	-2.7000957
55	0xbff692c3	-1.9263538
56	0x3d5c71c5	0.053819437
57	0xbfd6da29	-1.6785327
58	0x4045b5be	3.0892177
59	0xbff13420	-1.8844032
60	0xbfc35bb2	-1.5262358
61	0x40169494	2.3528185
62	0xc053b996	-3.3082023
63	0x3f93b3f6	1.1539295
64	0xc00474c4	-2.0696268
65	0x3f34e91b	0.7066819
66	0x3f58be02	0.8466493
67	0x3f90e1dd	1.1318928
68	0x400a2a23	2.1588218
69	0x4094ff91	4.656197
70	0xbf99a45a	-1.2003281
71	0x3fbd44cc	1.478662
72	0xbeef3ba5	-0.46725193
73	0x3fd51532	1.6647093
74	0xc027f288	-2.624178
75	0x401d3559	2.456381
76	0x40300590	2.7503395
77	0x3f90b4b5	1.1305147
78	0xbff2c9f0	-1.8967876
79	0xbe5ae15c	-0.2137503
80	0xbfa2d431	-1.2721006
81	0xbdc36ea6	-0.09542589
82	0xc0852fdb	-4.1620917
83	0x403dd3df	2.9660566
84	0xbf95c089	-1.1699382
85	0x3e1e0b22	0.15433934
86	0x3fe704d1	1.8048345
87	0x4006020b	2.0938747
88	0x3f897df8	1.0741568
89	0x3f90a6a2	1.1300852
90	0xc04c45e7	-3.1917665
91	0x3ec29240	0.38002205
92	0xbf7ad01c	-0.979738
93	0xc00b0b2b	-2.1725566
94	0xc07f6c70	-3.9909935
95	0xc02f6bb2	-2.7409482
96	0x3f1c3b49	0.6102796
97	0xbdf77237	-0.12082332
98	0xbe09de07	-0.13463603
99	0xbe22a434	-0.15882951
100	0xbfb85a1c	-1.4402499
101	0x3fce521e	1.611881
102	0xc00c10b8	-2.1885204
103	0xbfe9b9e2	-1.8259852
104	0x3f913066	1.1342895
105	0x3e82b21a	0.25526506
106	0xc03a9b7c	-2.91574
107	0xbfa172e2	-1.2613184
108	0x3fd9f816	1.7028835
109	0xbe307dff	-0.17235564
110	0xc029c5e0	-2.6527023
111	0xbf21f86c	-0.63269687
112	0xc020bcf0	-2.5115318
113	0xc054f47a	-3.3274217
114	0xbf0089af	-0.5021009
115	0xbfd0bb44	-1.6307149
116	0xc02ce1cf	-2.7012823
117	0xbbce4a01	-0.006295443
118	0xbe8578c9	-0.26068714
119	0x401a81f0	2.4141808
120	0x4024a1e8	2.572382
121	0x3e57dc51	0.21080138
122	0xc0342af3	-2.8151214
123	0xbf2ab0f5	-0.66676265
124	0xbf9947c2	-1.1975024
125	0xbeded958	-0.43525195
126	0x3f4c3808	0.79772997
127	0x4024162c	2.5638533

a2c_network.actor_mlp.2.weight f4 [128, 128]
0	0x3fb89c69	1.4422733
1	0x4008816c	2.1328993
2	0x3ff88900	1.9416809
3	0x3f907761	1.1286432
4	0xbf995d64	-1.1981626
5	0xbfcec409	-1.6153575
6	0x3eefdc86	0.46847934
7	0x3dbba14a	0.09161623
8	0xbff4b3f2	-1.9117415
9	0x3fb3bc08	1.4041758
10	0xbfb15e70	-1.3856945
11	0xc017eb90	-2.3737526
12	0xbfbfba82	-1.4978793
13	0x3f97c4c4	1.1856923
14	0xbe321f1e	-0.17394683
15	0x4025f8e1	2.5933154
16	0xc0371e15	-2.861211
17	0x3ec2b297	0.38026878
18	0x3f11f334	0.57011724
19	0xbf22ac30	-0.6354399
20	0xbf7c91fa	-0.9866024
21	0xbf5c3c56	-0.86029565
22	0x3fcdf695	1.6090876
23	0xc02f524e	-2.7393985
24	0xc0430608	-3.047243
25	0x3f37bf57	0.71776336
26	0x3fb5e773	1.4211258
27	0xbf9d0e01	-1.2269899
28	0xbfe84daa	-1.8148701
29	0x3fa89394	1.3170037
30	0xc0039541	-2.0559847
31	0xbe79447e	-0.24342534
32	0x40698cac	3.649211
33	0xbfaabfb1	-1.333975
34	0x3f3f6895	0.74768955
35	0xbfe9be97	-1.8261288
36	0x3eb06afe	0.3445663
37	0x3fe170ae	1.7612512
38	0x3fcce190	1.6006336
39	0xc04aa504	-3.1663218
40	0xc0543019	-3.3154356
41	0x3fbf6310	1.4952106
42	0xc0cfb5aa	-6.490926
43	0x4019e4ea	2.4045968
44	0x3dbe9430	0.09305608
45	0x3f1352a1	0.57547957
46	0xbfbb5320	-1.4634743
47	0x3fb1bca1	1.388569
48	0x3dde38d5	0.108506836
49	0x40137209	2.3038352
50	0x3fbaba3d	1.4588085
51	0xc00ac6b1	-2.1683772
52	0x3f71a685	0.94394714
53	0xc009cefb	-2.153258
54	0x3e85bb8e	0.26119655
55	0x3f4a0b8d	0.78923875
56	0xbf02deb7	-0.51121086
57	0x3f483659	0.7820793
58	0xbf2f6213	-0.68509024
59	0x40f0cc3c	7.524931
60	0xbfdf797e	-1.7458951
61	0xbf533799	-0.8250671
62	0x4048501d	3.1298897
63	0xbfaf6ce3	-1.3705105
64	0x3f9dab33	1.2317871
65	0xc06dea12	-3.7174115
66	0xbffea11b	-1.9892915
67	0x3f319e72	0.69382393
68	0xc05b25e0	-3.4241867
69	0xbea22253	-0.31666812
70	0xc030b997	-2.7613275
71	0x3db36fc1	0.0876155
72	0xc0097564	-2.14779
73	0x3ff2f872	1.898207
74	0x4032e054	2.794942
75	0x3f51fd69	0.820273
76	0xbfc1eb9c	-1.5150027
77	0xbf956feb	-1.167478
78	0x3f513ca3	0.8173315
79	0x3febbcca	1.8416989
80	0x3f603750	0.875844
81	0x3fd7826c	1.6836677
82	0x3fc986d0	1.5744267
83	0x3f29c98d	0.6632317
84	0xc0139468	-2.305933
85	0x3e18a80f	0.1490786
86	0xc047af0e	-3.1200595
87	0xbf946c23	-1.1595501
88	0x4079410e	3.8945956
89	0xbf90ddd6	-1.1317699
90	0x3dca8a3d	0.09889648
91	0xc0008185	-2.0079052
92	0x3fd4748c	1.6598067
93	0x3ff92303	1.946381
94	0xbe311722	-0.1729398
95	0x3f6d23f0	0.9263296
96	0xbff9caab	-1.9514974
97	0x400d9919	2.2124693
98	0x3f406ded	0.75167733
99	0xbef62345	-0.48073784
100	0x402142e0	2.5197067
101	0xbedc7004	-0.4305421
102	0x3f058254	0.5215199
103	0xbfed18a0	-1.852314
104	0x3fafb078	1.3725729
105	0x4008618a	2.1309533
106	0xbf835c9e	-1.026264
107	0xc0507a41	-3.2574618
108	0x3fbf922d	1.4966484
109	0xc042a4ef	-3.0413167
110	0xc0078746	-2.1176314
111	0x3fce90c1	1.6137925
112	0x3f685a39	0.9076267
113	0x3e1cc743	0.15310387
114	0xc0298a49	-2.6490653
115	0xbe99bcb8	-0.30026793
116	0xbe0c7ce7	-0.13719521
117	0x402770ca	2.616259
118	0xbfa9f338	-1.327735
119	0x3ef46c57	0.47738907
120	0x3f5c7c70	0.86127377
121	0x3dc96b6c	0.09834942
122	0x3f241022	0.64087117
123	0xbf02a430	-0.5103178
124	0x3fdf5bd1	1.7449895
125	0xbeda08e3	-0.42584905
126	0xbf41fedf	-0.7577953
127	0xbfdbdf2c	-1.7177482
128	0x3e93b1a1	0.28846458
129	0xbe4108c3	-0.18850999
130	0xbe09e0b1	-0.13464619
131	0xbf2e47a3	-0.6807806
132	0x3ffc5455	1.9713236
133	0xbefe8ce1	-0.49716857
134	0xbf8edefc	-1.11618
135	0x4012f92f	2.296459
136	0xbfdc97a6	-1.723378
137	0xbe384c33	-0.17997818
138	0xbf964eb0	-1.1742764
139	0x3d3c6515	0.045994837
140	0x3fed4993	1.8538078
141	0x3f9b2eb1	1.2123624
142	0xbfc3afd5	-1.5288035
143	0xbdc569a8	-0.09639293
144	0x3ecc96d6	0.3995883
145	0x3fa37d79	1.2772666
146	0xc04e3de1	-3.2225268
147	0x3f84e5a5	1.0382582
148	0x3d5854f9	0.05281541
149	0xc033e616	-2.8109183
150	0x40f28172	7.5783014
151	0xbf10829e	-0.56449306
152	0xc0519613	-3.2747848
153	0x3ffc7ff5	1.9726549
154	0x3ea3f26c	0.3202089
155	0x3f38ddc3	0.7221338
156	0xbf04fe29	-0.5195032
157	0xbeb8e7e8	-0.3611443
158	0xbf0deff7	-0.5544428
159	0xbf19f704	-0.6014254
160	0xbf23f5e1	-0.64047056
161	0x3fc122e8	1.5088778
162	0xbfc75c7c	-1.5575099
163	0x3f943b80	1.1580658
164	0xbd99d73e	-0.07511757
165	0x3e0db456	0.13838324
166	0xbfb26f2a	-1.3940175
167	0xc0001c01	-2.0017092
168	0xc00b8436	-2.1799445
169	0xc0095ed9	-2.146414
170	0xbf4499e6	-0.7679733
171	0x40412ef6	3.0184913
172	0x3fc1a745	1.5129172
173	0xbe3471ff	-0.17621611
174	0x3edeb0ba	0.43494207
175	0x3f83111b	1.0239595
176	0xbfb9875a	-1.4494431
177	0x4027ca51	2.6217234
178	0x3eb3e96b	0.3513902
179	0x3fac4535	1.345862
180	0x3fe44a00	1.7835083
181	0xc00d62ba	-2.2091508
182	0x3e83e53f	0.25760838
183	0xbfc4c972	-1.5373976
184	0xbdd3ceda	-0.10342188
185	0xbf52d346	-0.8235363
186	0xbf26f97e	-0.65224445
187	0x401365a9	2.3030798
188	0xbdf2768c	-0.11839017
189	0x3f88e031	1.0693418
190	0x4073b2bf	3.8077848
191	0x3eae2968	0.34015965
192	0x3f9424f7	1.1573781
193	0xbd48c48b	-0.049015563
194	0x3d696f4c	0.056990907
195	0xbf8bbd60	-1.0917168
196	0xbfd16f5e	-1.6362112
197	0x3ddefeb3	0.10888424
198	0x3fb4b873	1.411879
199	0x3e2c6d9c	0.16838688
200	0x3f255ad7	0.64591736
201	0xbf12b230	-0.5730314
202	0x3ee4400b	0.4458011
203	0x3ea04723	0.31304273
204	0x3debe1c6	0.11517672
205	0xbe8e5b51	-0.27804044
206	0x3ebc6aee	0.3680033
207	0x3e2834a6	0.16426334
208	0x3e44497b	0.19168656
209	0xbdb42e11	-0.08797849
210	0x3f21e98e	0.63247
211	0x3e668cec	0.22514695
212	0xbf444f34	-0.76683354
213	0xbfa23f38	-1.2675543
214	0xc017acfc	-2.3699331
215	0xbe2e79cd	-0.17038651
216	0x3f6efb98	0.9335265
217	0xbf958826	-1.1682174
218	0x3f58d4d2	0.8469974
219	0xbe9c5694	-0.30534804
220	0x404ac5b8	3.1683178
221	0x4098da5f	4.7766566
222	0x3fc12c61	1.5091668
223	0x3f7882fa	0.97074854
224	0x3f599924	0.849993
225	0xbf737eb5	-0.95115215
226	0xbe414bcb	-0.18876569
227	0x3f85e06c	1.0459113
228	0x3d88be7a	0.066769555
229	0x3e8b0469	0.27151802
230	0x3fe9571e	1.8229711
231	0x3e9a7888	0.30170083
232	0xbf02a137	-0.51027244
233	0xbf80dd9f	-1.0067633
234	0x3fd104f9	1.6329643
235	0x40351d64	2.8299189
236	0xc037a80c	-2.8696318
237	0xbe653d91	-0.22386767
238	0xbdcfa9b1	-0.10139788
239	0x3cb1ae2c	0.021689497
240	0x40c9e52e	6.309226
241	0xbe435da1	-0.19078685
242	0x3c969f38	0.018386468
243	0xbf3fd905	-0.7494052
244	0x3ed4e90d	0.41584054
245	0x3f02fd04	0.5116732
246	0xbf89f698	-1.077838
247	0xbf4fbc3d	-0.81146604
248	0x3fd7f204	1.6870732
249	0xbe9a8b50	-0.30184412
250	0x3fd08745	1.6291281
251	0x3f7f1370	0.99639034
252	0xbf859f09	-1.0439159
253	0xbf858cfc	-1.043365
254	0x3f23254e	0.637288
255	0x3d4cb5df	0.049978133

a2c_network.actor_mlp.2.bias f4 [128]
0	0x3cd548aa	0.026035625
1	0xbfc97d1b	-1.5741304
2	0x3fb7d5a7	1.4362077
3	0x4014e319	2.326361
4	0x40129355	2.2902424
5	0x3f2f0263	0.68363017
6	0xbe9a16a0	-0.30095387
7	0x407988ac	3.8989668
8	0x3fb22270	1.391676
9	0xbf987e10	-1.1913471
10	0x3f6f3e31	0.9345427
11	0xc00881e0	-2.132927
12	0x3f81eeb3	1.015097
13	0xbeb94014	-0.361817
14	0xbf816907	-1.0110177
15	0xbecd04f2	-0.40042835
16	0xc03b6fac	-2.928691
17	0xc02230f4	-2.5342379
18	0x3f659532	0.8968078
19	0xbf4dbd74	-0.8036721
20	0x3ea4fabf	0.32222554
21	0x3df90044	0.12158254
22	0xbe698805	-0.22805794
23	0xc05ef81f	-3.483894
24	0x40191607	2.3919694
25	0xbf344a54	-0.70425916
26	0xc04ad8a9	-3.169474
27	0xbf4fcd11	-0.8117228
28	0x3fe7949c	1.8092227
29	0xbf5263bb	-0.82183427
30	0x3e9489e8	0.29011464
31	0x4029f231	2.6554072
32	0x3f1a3f9b	0.60253304
33	0x3f5225da	0.82089007
34	0x3e7b5069	0.24542393
35	0x3fad8e22	1.3559
36	0x4028766a	2.6322274
37	0xbecbc271	-0.39796785
38	0xbc75365a	-0.014966572
39	0x3e696211	0.22791316
40	0x4020f20d	2.5147736
41	0xbe30f2f0	-0.17280173
42	0xc014d1fd	-2.3253167
43	0x3fa28d94	1.2699456
44	0x3fe83c9d	1.8143498
45	0xbf70d5d7	-0.94076294
46	0xbf387894	-0.7205899
47	0x403add36	2.9197516
48	0xbf91b69b	-1.1383852
49	0xbfb45658	-1.408885
50	0xc03387ca	-2.805163
51	0x3f4ed5b3	0.8079483
52	0xbf424d7b	-0.75899476
53	0x3ed59e8f	0.41722533
54	0x3f71436c	0.942435
55	0xbf51efce	-0.8200654
56	0xbf8db726	-1.1071517
57	0xbd92784a	-0.071518496
58	0x3ffaefe2	1.9604456
59	0x3fd3aa25	1.6536299
60	0x4020caa6	2.5123687
61	0xc00b12c7	-2.173021
62	0x3f03c693	0.51474875
63	0x3f028691	0.5098658
64	0x405e9d94	3.4783678
65	0x3d8f0416	0.06983201
66	0xbf5b4e35	-0.8566621
67	0x3e2762ae	0.16346237
68	0x3fa67dc0	1.3007126
69	0x3e40c830	0.18826365
70	0x3fab06e3	1.3361477
71	0xbf75c398	-0.9600158
72	0x3efb5dae	0.4909491
73	0xc0399407	-2.8996599
74	0xc05fa810	-3.4946327
75	0x3def6334	0.11688843
76	0x3ea8ec02	0.3299256
77	0x4009e117	2.1543634
78	0xc019bc35	-2.4021122
79	0x3fb6e499	1.4288512
80	0xbf743dc4	-0.95406747
81	0x3e76c973	0.24100284
82	0xbf3c4e93	-0.73557395
83	0x3f88463b	1.0646433
84	0xc00657f0	-2.0991173
85	0x3fb90087	1.4453286
86	0x3fb1c380	1.3887787
87	0x3fbec356	1.4903362
88	0x3f267709	0.65025383
89	0x3e2779cb	0.16355054
90	0x3f6a5542	0.91536343
91	0x3e4480a6	0.191897
92	0xbfbb7c82	-1.4647372
93	0x3f58e0fb	0.8471829
94	0x3f16de31	0.5893279
95	0xbf899a06	-1.0750129
96	0xbfc3bf02	-1.5292666
97	0x40054788	2.082491
98	0x3e2fcc2f	0.17167734
99	0xbf829103	-1.0200504
100	0x3fda4398	1.7051878
101	0xbf5fe099	-0.87452084
102	0xbf0f18f1	-0.5589743
103	0xbe0117e0	-0.12606764
104	0x3f992cb9	1.1966773
105	0x3f29886a	0.66223776
106	0xc0011776	-2.017057
107	0xc0390432	-2.890881
108	0xbfb6fafa	-1.4295342
109	0x401f7fb9	2.4921706
110	0xc040554b	-3.0052059
111	0xbeb8eb58	-0.36117053
112	0x402033e8	2.503168
113	0x3f852059	1.0400497
114	0x40288af2	2.6334805
115	0x3f2172d2	0.63065827
116	0xbf5600f7	-0.8359522
117	0x3f0c9bc3	0.54925174
118	0x3ef77e47	0.4833853
119	0xbf85a19f	-1.0439948
120	0x40483b29	3.1286108
121	0x3fbdea7b	1.4837183
122	0xbe7b09f8	-0.24515522
123	0xc07c280f	-3.939945
124	0x3f286dc5	0.65792495
125	0x3ecb200b	0.39672884
126	0xc02c9ece	-2.6971927
127	0x3fb5e23f	1.420967

a2c_network.value.weight f4 [1, 128]
0	0x3c323858	0.010877691
1	0x3c485e0e	0.012229456
2	0x3c20b1cb	0.009808014
3	0x3c5aabb4	0.013346601
4	0xbee1616a	-0.44019634
5	0x3bc32d34	0.0059563164
6	0x3baebe6c	0.0053327587
7	0x3d89a5c0	0.067210674
8	0x3b165c6f	0.0022943278
9	0xbc5a7663	-0.01333389
10	0xbcb5ab69	-0.022176461
11	0x3b0c7b09	0.002143564
12	0x3bca79e9	0.0061790836
13	0x3cc07e7f	0.023497818
14	0x3c94bbce	0.018155959
15	0xbc4dc11a	-0.012558246
16	0xbc3cbebc	-0.011520084
17	0x3ecd3ea9	0.40086868
18	0x3caa3d85	0.020781288
19	0x3c7de306	0.015496021
20	0x3f8bfb5a	1.0936081
21	0xbcc5bc81	-0.024137737
22	0x3adb0da9	0.0016712445
23	0x3c093c86	0.008376246
24	0xbea68512	-0.325234
25	0x3bc65fb3	0.0060538887
26	0x3b0a236a	0.0021078237
27	0x3cb0c49e	0.02157813
28	0x3c909ad6	0.017651957
29	0x3acb70cd	0.0015521288
30	0xbc0a6ca1	-0.008448751
31	0x3bc332db	0.00595699
32	0x3c12f8d5	0.008970459
33	0xbc826544	-0.015917428
34	0xbc155d5e	-0.009116499
35	0x3a381c0c	0.0007023222
36	0x3d60bcf5	0.054867703
37	0xbc3c7e93	-0.011504787
38	0xbc4c015a	-0.012451494
39	0xbc58a534	-0.013222981
40	0xbbd4265b	-0.006474299
41	0x3c0d5e29	0.008628407
42	0x3b1ddb67	0.0024087073
43	0x3b34e70e	0.002760354
44	0xbc9e163d	-0.019297713
45	0xbb3b093c	-0.002853944
46	0x3c9ebd0d	0.019377256
47	0xbc23c4c8	-0.009995647
48	0x3bee45d0	0.007271506
49	0x3c60b834	0.013715792
50	0x3bd2a38c	0.0064281877
51	0xba5d517c	-0.0008442623
52	0xbacee309	-0.0015784214
53	0xbc586fc3	-0.01321024
54	0xbc86f6db	-0.016475132
55	0x3c889243	0.016671306
56	0xbba08eed	-0.0048998506
57	0xbba6a04e	-0.005085028
58	0x3972f55c	0.00023170322
59	0xbc30dc95	-0.010794778
60	0xbc07c278	-0.008286111
61	0xbce9e2ee	-0.028550591
62	0xbcc88cf2	-0.02448127
63	0xbbf123f1	-0.007359021
64	0x3d79191e	0.06081497
65	0xbb979565	-0.0046259635
66	0x3be10721	0.006867305
67	0x3c91dbea	0.017805059
68	0x3c8a9cd6	0.016920488
69	0x39cd3c59	0.0003914561
70	0xbc88d820	-0.016704619
71	0x3c5a9ef2	0.01334356
72	0x3b1121be	0.0022145356
73	0xbc75b745	-0.014997308
74	0x3b807f43	0.003921421
75	0x3af90d1e	0.0019001102
76	0xbc8b80e2	-0.01702923
77	0x3c82642a	0.015916903
78	0x3c4acbf3	0.012377727
79	0xbc6ca28e	-0.014443053
80	0x3b6dced7	0.0036286616
81	0x3cda5235	0.026650527
82	0xbc06c082	-0.008224608
83	0x3cbeebb8	0.023305759
84	0x3c69344f	0.014233663
85	0xbaea95ad	-0.001789739
86	0x3c0ff75e	0.008787004
87	0xbc586bb6	-0.013209274
88	0xbaa2b2db	-0.0012412922
89	0x3ac2637a	0.0014830672
90	0x3b4beda1	0.003111698
91	0xbc449f39	-0.012000852
92	0x3c97d1d3	0.01853267
93	0x3bf349c1	0.0074245636
94	0x3c184dcf	0.009295895
95	0xbb571eb4	-0.0032824697
96	0xbaa4a78d	-0.0012562141
97	0xbc9febfc	-0.019521706
98	0x3c91fb79	0.017820107
99	0xbc0bbd55	-0.008529027
100	0x3f4dbf4d	0.80370027
101	0x3caf9324	0.021432467
102	0xbc535bf3	-0.01290034
103	0x3af7e5b0	0.0018913057
104	0x3b096791	0.0020966271
105	0xbc27270d	-0.0102021815
106	0x3bd01f9a	0.0063514234
107	0x3be9e388	0.0071377195
108	0xbc3be7d7	-0.011468849
109	0xbc480717	-0.012208722
110	0x3bd50a7e	0.006501495
111	0xbc2a64b3	-0.010399985
112	0xbc3fd6e8	-0.0117089525
113	0xbb455498	-0.0030110236
114	0x3d85b5d9	0.06528825
115	0xbb25c4f8	-0.0025294404
116	0xbc87efa9	-0.016593771
117	0x3a032dd6	0.00050040835
118	0x3c950b11	0.018193753
119	0xbc098b4e	-0.008395029
120	0xba53f2a1	-0.0008085166
121	0xbd043034	-0.032272533
122	0xbc6c9aa2	-0.014441164
123	0xbcba5541	-0.02274573
124	0xbc4c59e5	-0.012472604
125	0xbc284778	-0.010270946
126	0x3b61c76d	0.0034451142
127	0x3b466c86	0.0030277087

a2c_network.mu.weight f4 [2, 128]
0	0x3cb1ad36	0.021689039
1	0x3d86f577	0.065897875
2	0xbd03fcf3	-0.032223653
3	0xbd2607ff	-0.04053497
4	0x3d421f58	0.047393173
5	0xbcd6e2a3	-0.026231116
6	0xbb20dbc7	-0.002454506
7	0x3cf6809e	0.030090626
8	0xbc591a34	-0.013250876
9	0x3d38c051	0.045105282
10	0x3d64ad84	0.05582954
11	0x3c857d53	0.01629511
12	0x3d3717e6	0.044700526
13	0x3cf0272f	0.02931556
14	0x3dac761b	0.08420964
15	0xbc962bac	-0.018331371
16	0xbc212404	-0.009835247
17	0xbc26f3d2	-0.010189967
18	0x3bed4ca1	0.007241801
19	0x3c284318	0.010269903
20	0x3d907a59	0.07054586
21	0x3b0038a0	0.0019565
22	0x3c6e5882	0.014547469
23	0xbdcdd46b	-0.10050281
24	0x3b629a5a	0.0034576864
25	0xbcbea4bd	-0.023271913
26	0x3d569806	0.052391075
27	0xbc840f80	-0.016120672
28	0xbca53fb5	-0.02017198
29	0xbd1fa4e0	-0.038975596
30	0x3d95e1bd	0.07318447
31	0x3cfe6251	0.03105274
32	0x3ce4b986	0.027920496
33	0xbd0a0fc3	-0.033706438
34	0x3dc58e0e	0.096462354
35	0xbd45bb17	-0.048274126
36	0x3d460cc1	0.048352007
37	0x3d142476	0.036167584
38	0x3c1fc423	0.0097513525
39	0xbaba8aee	-0.0014232078
40	0x3d6ed8ba	0.058312155
41	0xbd807e01	-0.06274033
42	0x3d599885	0.05312397
43	0x3ba8f2dc	0.005155904
44	0xbd4f45da	-0.050603725
45	0x3d1d23dc	0.038364276
46	0xbca73f71	-0.020415993
47	0xbcd7584e	-0.026287224
48	0xbd21dec1	-0.039519075
49	0xbbf58cab	-0.0074935756
50	0x3ea5a5ae	0.32352966
51	0x3dbda75c	0.09260437
52	0xbbba79e8	-0.005690802
53	0x3bb6ea2d	0.005582115
54	0xbd182b29	-0.037150536
55	0xbbeeb788	-0.007285062
56	0xbd8c9c9e	-0.0686581
57	0xbcaddccc	-0.021223448
58	0x3dc18970	0.09450042
59	0xbd209962	-0.039208777
60	0xbca8ae22	-0.020590845
61	0xbd3a4705	-0.045477886
62	0x3d2d61a2	0.042329438
63	0x3d71c04f	0.05902129
64	0xbcbb3154	-0.02285067
65	0x3dc451bb	0.09585901
66	0x3b514813	0.0031933829
67	0xbc89f25b	-0.016839197
68	0x3b801559	0.003908795
69	0xbd04cbb6	-0.032420836
70	0xbc790d59	-0.015200936
71	0x3d37a5f0	0.044835985
72	0x3cb5f812	0.022213016
73	0x3d36e0d1	0.044647995
74	0xbc89c20a	-0.016816158
75	0xbc574fff	-0.013141631
76	0xbcf223ae	-0.029558029
77	0xbd551a40	-0.052026987
78	0x3ba0db9f	0.0049089934
79	0xbcfa2e5b	-0.030539682
80	0xbd0328bb	-0.032021265
81	0x3d33af47	0.04386833
82	0x3b5442cf	0.0032388454
83	0x3ceb67c2	0.028735999
84	0xbdf4533a	-0.11929937
85	0xbd5adb7e	-0.05343198
86	0x3d960a0f	0.07326137
87	0x3c763e15	0.01502945
88	0x3da7500d	0.08169565
89	0xbd8bc42c	-0.06824526
90	0xbcb31d1a	-0.021864463
91	0x3cb835cd	0.022486592
92	0x3da68dcb	0.081325136
93	0x3d1dfc13	0.038570475
94	0x3d3e2074	0.04641767
95	0x3d857ac2	0.06517555
96	0x3bf50a2e	0.00747802
97	0xbc22cc79	-0.009936445
98	0x3b01a6fc	0.0019783368
99	0x3d654acf	0.055979546
100	0x3c024dd2	0.007953124
101	0x3d863f3b	0.06555029
102	0x3c7006f7	0.014650098
103	0xbd417fda	-0.04724107
104	0x3df28cb0	0.1184324
105	0xbd11da8c	-0.035608813
106	0x3d8121ee	0.063053
107	0x3e47c817	0.19509922
108	0xbcdb4363	-0.02676553
109	0xbcf90837	-0.030399425
110	0x3ddab2ab	0.106786095
111	0xbd8b72f4	-0.06809035
112	0xbd756faf	-0.059920963
113	0x3c84cafe	0.016210075
114	0x3ba24abe	0.0049527576
115	0x3cab3aa2	0.020901982
116	0x3c6c8ff6	0.01443862
117	0x3d3e82b6	0.046511374
118	0x3c26e7fa	0.010187143
119	0xbc16130f	-0.009159817
120	0x3dd03a11	0.10167325
121	0xbde49042	-0.111603275
122	0x3b338928	0.0027394984
123	0x3d00c6b4	0.031439498
124	0x3d1b84d9	0.03796849
125	0x3d80e6fd	0.062940575
126	0xbd462f1d	-0.048384774
127	0xbd3e13d7	-0.04640564
128	0x3d055ac6	0.03255727
129	0x3d5622b2	0.05227918
130	0x3da7f2d8	0.08200616
131	0x3d1951a5	0.037431378
132	0x3b168976	0.0022970117
133	0xbc2ee039	-0.010673576
134	0xbd1134a8	-0.035450608
135	0x3d4c7b33	0.04992218
136	0x3c46f450	0.01214321
137	0xbd60a20a	-0.054842032
138	0x3d6e164a	0.058126725
139	0xbd24aaaf	-0.04020184
140	0x3d585f81	0.052825455
141	0x3cd1774a	0.025569577
142	0xbca517de	-0.020152982
143	0xbcb38b05	-0.021916876
144	0x3e3b0662	0.18264154
145	0xbcfa1983	-0.030529743
146	0x3cd5467e	0.02603459
147	0xbbcfcae8	-0.006341327
148	0x3d441786	0.047873996
149	0x3d80b182	0.06283857
150	0xbd273937	-0.04082605
151	0x3d8279d6	0.063708946
152	0xbb1268e1	-0.0022340345
153	0x3d7d0587	0.06177285
154	0x3df4739b	0.119361125
155	0x3d89577c	0.067061394
156	0xbd0624ff	-0.032750126
157	0x3d2036f6	0.039114915
158	0xbd92a407	-0.07160192
159	0xbda10894	-0.07862964
160	0x3c890d50	0.01672998
161	0x3d8ecec7	0.069730334
162	0x3c9da936	0.019245725
163	0xbc9244ca	-0.017855067
164	0x3d176c7b	0.03696869
165	0xbcd7eabe	-0.026357051
166	0x3c7af9cf	0.015318348
167	0x3cf320e7	0.029678775
168	0xbeb7d20f	-0.3590245
169	0xbc8ea83d	-0.017414207
170	0x3d222ad7	0.039591637
171	0x3dd1c07c	0.102417916
172	0x3cbc8ccf	0.023016362
173	0xbd5e5d90	-0.054288447
174	0x3b11dea5	0.002225795
175	0x3bcb568d	0.006205386
176	0x3cb2e547	0.021837844
177	0x3d53c262	0.05169905
178	0xbd4174ab	-0.047230404
179	0xbdb070c2	-0.08615257
180	0xbbc2b410	-0.0059418753
181	0x3cfb48de	0.030674394
182	0xbd0bea99	-0.034159277
183	0x3c886a76	0.016652327
184	0x3bd9eb0a	0.0066503333
185	0xbd98a84c	-0.07453975
186	0x3936b659	0.00017424802
187	0x3cdc2a40	0.026875615
188	0x3d305843	0.043052923
189	0xbcc1a90d	-0.02364018
190	0xbd0157a6	-0.03157773
191	0xbd281018	-0.041030973
192	0xbcdff7e2	-0.02733988
193	0x3cd7f267	0.026360704
194	0x3d269d4b	0.04067735
195	0x3ccd18e7	0.025036288
196	0x3d37f843	0.044914495
197	0x3c9f98a3	0.019481963
198	0xbcec7fb7	-0.028869493
199	0x3ca9b19a	0.02071457
200	0xbc907a93	-0.017636573
201	0xbd5d19c4	-0.05397965
202	0xbd1e2f39	-0.038619254
203	0x3d522125	0.05130114
204	0xbc1f3a16	-0.009718439
205	0xbcb6f63c	-0.02233421
206	0x3d3bf86c	0.04589121
207	0xbc4d152e	-0.012517257
208	0x3c76c0d8	0.015060626
209	0xbd8242ec	-0.063604206
210	0xbd8dffec	-0.06933579
211	0x3d46b793	0.048514914
212	0x3cc3c08c	0.023895524
213	0xbdeb730b	-0.11496552
214	0xbd9286fd	-0.07154653
215	0x3d7f989b	0.062401395
216	0xbdd3ac2a	-0.10335572
217	0xbc9ffcb8	-0.019529685
218	0xbc47caea	-0.012194375
219	0x3d3b8ef9	0.045790646
220	0xbd57d0bd	-0.052689303
221	0x3cca6abf	0.024709104
222	0xbd934c48	-0.07192284
223	0xbcb3e405	-0.021959314
224	0x3c65af83	0.014018896
225	0x3d5829e3	0.05277432
226	0xba45ce54	-0.0007545699
227	0x3d23e523	0.040013444
228	0x3cec093e	0.028813
229	0xbcbf67dc	-0.023364954
230	0x3c844058	0.016143963
231	0x3dae2d28	0.085047066
232	0x3d1e6f36	0.038680278
233	0x3b7c8d13	0.0038536235
234	0xbd3c9764	-0.046042815
235	0xbc2a6b76	-0.010401597
236	0xbc9a45d7	-0.01883213
237	0xbd7b5e91	-0.061369482
238	0xbd25ab86	-0.04044678
239	0x3cbadcbd	0.022810334
240	0xbd4a11b5	-0.049333293
241	0xbc601f74	-0.013679374
242	0x3c134cb7	0.008990458
243	0x3b2ed65f	0.0026678068
244	0xbd88b7b3	-0.06675663
245	0x3b815957	0.0039474177
246	0x3d3287ce	0.043586545
247	0xbd4029fb	-0.046915036
248	0xbc682a24	-0.014170203
249	0x3cae7ca4	0.021299668
250	0xbd441ef5	-0.047881085
251	0x3c1a281c	0.009408977
252	0xbc34cb75	-0.011034836
253	0xbd3836d0	-0.04497415
254	0xbd643175	-0.05571123
255	0x3b8bebee	0.0042700684

a2c_network.mu.bias f4 [2]
0	0x3e111ea4	0.14171845
1	0x3e1487ee	0.14504978

exp_avg f4 [2]
0	0xba93ef52	-0.0011286533
1	0xba6c0781	-0.0009003804

exp_avg_sq f4 [2]
0	0x3893c612	7.0464e-05
1	0x38930089	7.009606e-05

exp_avg f4 [128, 11]
0	0xb8b36b55	-8.555377e-05
1	0x388d0904	6.725083e-05
2	0xb8a6b979	-7.950044e-05
3	0xb8a407c3	-7.821575e-05
4	0x38c8d39e	9.57616e-05
5	0xb9876922	-0.00025827537
6	0xb89cd12f	-7.477623e-05
7	0x38f0e657	0.00011486996
8	0xb8ec3c79	-0.00011264621
9	0x39063eab	0.00012802581
10	0xb843937d	-4.6628982e-05
11	0x38d75157	0.000102671496
12	0xb9020ef3	-0.00012403335
13	0x399ddc4d	0.0003010951
14	0x398b444f	0.0002656304
15	0x3924a24b	0.00015700718
16	0x399326bd	0.00028066887
17	0xb79d5bb9	-1.875857e-05
18	0x38c36388	9.316864e-05
19	0x396c271a	0.0002252128
20	0x395724eb	0.00020517751
21	0x39012dbd	0.00012319438
22	0x37034491	7.824173e-06
23	0x37bdd404	2.2629283e-05
24	0xb880a1dd	-6.133665e-05
25	0x3900a23d	0.0001226747
26	0x3944818b	0.00018740275
27	0x38c86291	9.5551026e-05
28	0xb8feeabe	-0.00012155388
29	0xb9730d0d	-0.00023179148
30	0xb8600202	-5.340763e-05
31	0x38832d78	6.255036e-05
32	0xb8604d5f	-5.347782e-05
33	0xb808d1d5	-3.2620348e-05
34	0x38588d4b	5.1630002e-05
35	0xb902c172	-0.0001246983
36	0x38a3c5d5	7.809295e-05
37	0x36aea0a3	5.2043047e-06
38	0xb9575409	-0.00020535303
39	0x38a20f3e	7.727601e-05
40	0xb8c1e656	-9.2458606e-05
41	0xb8f5100b	-0.000116854986
42	0xb9108bb1	-0.00013784949
43	0x39b9612d	0.0003535835
44	0xb8d9d2c7	-0.00010386627
45	0x384d57b3	4.8957485e-05
46	0x397fb68f	0.00024386703
47	0xb8c560f3	-9.41175e-05
48	0x397c3607	0.0002405272
49	0x39ac4b66	0.00032862573
50	0xb9283b3b	-0.00016043794
51	0x392a461f	0.00016238586
52	0xb8b2a210	-8.517888e-05
53	0xb9bcc64f	-0.00036005906
54	0x3755b97c	1.2738976e-05
55	0xb756a2fc	-1.2793342e-05
56	0xb8b258d1	-8.504245e-05
57	0x3979f31a	0.00023837053
58	0x38b56ded	8.651228e-05
59	0x38527072	5.0172624e-05
60	0x397acf4f	0.00023919086
61	0xb987ce60	-0.00025902968
62	0x3a145cf9	0.0005659606
63	0x3983db86	0.00025149825
64	0x38ca8b97	9.658111e-05
65	0xb7b4edd9	-2.1568429e-05
66	0x392ea0db	0.00016653856
67	0xb8680e98	-5.5326702e-05
68	0xb701dad7	-7.739952e-06
69	0xb86d2586	-5.654015e-05
70	0x39744d8c	0.00023298542
71	0x38d35744	0.000100775185
72	0xb94ae600	-0.00019349903
73	0x38f752b9	0.00011793286
74	0xb932c367	-0.00017048196
75	0xba1dc25f	-0.0006018038
76	0xb800a722	-3.0673233e-05
77	0x39a11e67	0.00030730964
78	0x38ba696a	8.888806e-05
79	0xb8c69205	-9.468574e-05
80	0x397df200	0.00024218112
81	0xb9aaff85	-0.00032615304
82	0x3a5b0768	0.00083552906
83	0xb9d42423	-0.00040462715
84	0x3a06e611	0.0005145977
85	0xba6a08f8	-0.0008927728
86	0x39b1f2f2	0.0003394108
87	0xb96f051c	-0.0002279472
88	0xb9285f34	-0.00016057194
89	0xb802c0b0	-3.117387e-05
90	0xb92c4d76	-0.00016432055
91	0xb8a72462	-7.9699574e-05
92	0xb942d7a9	-0.00018581621
93	0x38b32cc2	8.543722e-05
94	0x38f6c14b	0.00011766198
95	0x38e3f9b2	0.00010870713
96	0xb915ff2e	-0.00014304809
97	0xb8b1dbee	-8.480983e-05
98	0x38cdd043	9.8139535e-05
99	0x38a6b152	7.948525e-05
100	0xb7ab24b1	-2.0401874e-05
101	0x395aafbb	0.00020855565
102	0xb9282899	-0.00016036852
103	0xb9c8c2c5	-0.00038292087
104	0x3a0ff82e	0.0005491999
105	0x396cafb4	0.00022572168
106	0x3976c6d1	0.00023534453
107	0x39657c60	0.00021885475
108	0x39e279ee	0.00043196924
109	0xb9fcb4c9	-0.0004819988
110	0x38939d8e	7.038853e-05
111	0xb795b27d	-1.78453e-05
112	0x3996b617	0.00028745897
113	0x391653cb	0.0001433633
114	0x3997fe77	0.00028990555
115	0x39ecff43	0.00045203613
116	0x3a26b80f	0.00063598243
117	0x37a49532	1.9619798e-05
118	0x38aad2bc	8.145484e-05
119	0x38fc7871	0.0001203873
120	0x3838456b	4.393367e-05
121	0x38e4d18a	0.00010910917
122	0x389839ee	7.258715e-05
123	0x38251a59	3.9363604e-05
124	0x38277481	3.9924405e-05
125	0x398a8048	0.00026416988
126	0x39171ff3	0.00014412384
127	0xb7ca97a4	-2.415089e-05
128	0xb92e99cd	-0.00016651228
129	0xb952e369	-0.00020111878
130	0xb9c9dead	-0.00038503614
131	0x38c847f6	9.550147e-05
132	0x38d27806	0.000100359364
133	0x3871d9f1	5.766185e-05
134	0xb8684021	-5.5372835e-05
135	0x395fdefc	0.00021350005
136	0xb9a43f06	-0.00031327474
137	0x39d0929b	0.0003978208
138	0x3955e416	0.00020398232
139	0x39d71ffb	0.00041031823
140	0xb9aa344e	-0.00032463897
141	0xb9a5ad1f	-0.00031600238
142	0x3991b890	0.00027794065
143	0x379eb7e1	1.8920693e-05
144	0xb854ee8b	-5.07669e-05
145	0x37f9c515	2.9774887e-05
146	0xb5cc2874	-1.5210958e-06
147	0xb86fcf64	-5.7175188e-05
148	0x39217194	0.00015396468
149	0xb9a05991	-0.0003058431
150	0xb9655a00	-0.0002187267
151	0xb9fc29ed	-0.00048096423
152	0xb8f6cd8b	-0.000117684795
153	0x39089734	0.00013026298
154	0x3843d3f2	4.6689012e-05
155	0xb8e3cb14	-0.0001086203
156	0x39155052	0.00014239669
157	0x39f15d46	0.00046036596
158	0xb8b2d648	-8.5276144e-05
159	0x390a9f96	0.00013220156
160	0x38dc6a5c	0.000105102285
161	0x38bc8882	8.989965e-05
162	0x388e9abf	6.799911e-05
163	0x37d3aaca	2.523269e-05
164	0x38860c70	6.3919346e-05
165	0xb8c47ecc	-9.369626e-05
166	0xb908de94	-0.00013052888
167	0x39386682	0.00017585795
168	0x3855367e	5.0833907e-05
169	0xb900542b	-0.00012238386
170	0x3929083e	0.00016120166
171	0xb9b7d76a	-0.00035064976
172	0x398d84fe	0.00026992703
173	0x38610380	5.364744e-05
174	0xb98692c4	-0.0002566782
175	0xb923197c	-0.00015554385
176	0xb8b48a33	-8.6088105e-05
177	0xb945f394	-0.00018878124
178	0xb84c3482	-4.8686292e-05
179	0xb913c756	-0.00014093271
180	0x390b19d1	0.0001326569
181	0x3983b7b9	0.0002512315
182	0xb8447fbb	-4.6849e-05
183	0xb9262100	-0.00015843287
184	0x396dff98	0.00022697297
185	0xb8ec646c	-0.00011272062
186	0x3818af96	3.640315e-05
187	0x38de70fd	0.000106068306
188	0xb8ea697b	-0.00011177637
189	0x39038b05	0.00012544922
190	0x391098ab	0.00013789783
191	0x37764cd3	1.468063e-05
192	0xb604a755	-1.9766933e-06
193	0xb6e96062	-6.9551616e-06
194	0x381ce86e	3.7409765e-05
195	0x38284574	4.0119005e-05
196	0x3886b694	6.423626e-05
197	0x380b8951	3.326807e-05
198	0xb81d6268	-3.7523365e-05
199	0xb7ad25e6	-2.0640855e-05
200	0xb8720d1d	-5.770951e-05
201	0xb81731b7	-3.6047506e-05
202	0x38232e73	3.8905488e-05
203	0xb9984c8c	-0.0002904873
204	0x36934442	4.3888876e-06
205	0x38c3a710	9.3294424e-05
206	0x395c06de	0.00020983393
207	0x36dda283	6.605232e-06
208	0x39301910	0.00016794004
209	0xb6eb416a	-7.011161e-06
210	0xb95ad750	-0.0002087031
211	0xb88ef775	-6.81718e-05
212	0x37482663	1.1929867e-05
213	0x38688d0b	5.5444467e-05
214	0x39f7c3e1	0.00047257452
215	0xb90da708	-0.00013509032
216	0xb88d5425	-6.739077e-05
217	0xba1d86fb	-0.00060091884
218	0x3a05a561	0.0005098191
219	0xba27cfb1	-0.0006401493
220	0x38743e37	5.8232075e-05
221	0xb8a022c8	-7.635873e-05
222	0xb8cc2246	-9.733862e-05
223	0x389ab68c	7.377294e-05
224	0xb90801f9	-0.00012970706
225	0x381502fa	3.552714e-05
226	0xb99826c2	-0.00029020576
227	0xb905c927	-0.00012758803
228	0x36c65f0b	5.9119243e-06
229	0xb9a645de	-0.00031714042
230	0xb80fceba	-3.4286386e-05
231	0x387a32e7	5.965205e-05
232	0x390ca0e0	0.00013411371
233	0x398aded1	0.00026487422
234	0x385c8fbf	5.258596e-05
235	0x3a5ee839	0.0008503232
236	0x39d3d7e0	0.00040405896
237	0x3a15f02c	0.00057196873
238	0xba14d1ae	-0.00056769967
239	0x39ff5613	0.0004870152
240	0xb8300cca	-4.197358e-05
241	0xb907c641	-0.00012948459
242	0xb9740417	-0.00023271177
243	0x37fcb49e	3.0124847e-05
244	0x39b2272e	0.00033979997
245	0xb905c199	-0.00012755989
246	0xb99b1825	-0.00029581893
247	0x3ad5cc14	0.001631143
248	0xba30a0a8	-0.0006737807
249	0x38a8c756	8.0479935e-05
250	0xba2380ef	-0.0006237169
251	0x3a13bfb7	0.0005636173
252	0x39c95a18	0.00038404833
253	0xb7bfe8d7	-2.2877399e-05
254	0xb57b7d4e	-9.368713e-07
255	0xb9199af1	-0.00014648937

exp_avg_sq f4 [128, 11]
0	0x3405f587	1.2475913e-07
1	0x33d86642	1.00768844e-07
2	0x34d30494	3.9305144e-07
3	0x33e31ed8	1.0576122e-07
4	0x3500e878	4.8022e-07
5	0x357ad6b4	9.344469e-07
6	0x35229d93	6.0579004e-07
7	0x35212449	6.0029976e-07
8	0x3550a3fb	7.772466e-07
9	0x354ebd13	7.701612e-07
10	0x35545c87	7.91108e-07
11	0x3484203b	2.4610367e-07
12	0x3454066c	1.9746375e-07
13	0x3516297b	5.5939717e-07
14	0x359182c4	1.08414e-06
15	0x34f1ae4f	4.5016574e-07
16	0x356083a6	8.3638076e-07
17	0x3512e5f3	5.472386e-07
18	0x351f6a7a	5.938706e-07
19	0x352b4c68	6.381365e-07
20	0x351dd4d9	5.879679e-07
21	0x354146f9	7.200138e-07
22	0x34154103	1.3900357e-07
23	0x341cd8db	1.4607524e-07
24	0x35034cc7	4.891303e-07
25	0x3408df4f	1.2747226e-07
26	0x356f4d2c	8.914674e-07
27	0x358abad2	1.0336173e-06
28	0x35758a27	9.147065e-07
29	0x3568760c	8.6598516e-07
30	0x357c48be	9.398317e-07
31	0x3577b7e3	9.228226e-07
32	0x35843d3a	9.852586e-07
33	0x34aa7306	3.1748658e-07
34	0x348a6bcc	2.5782936e-07
35	0x353a9076	6.950062e-07
36	0x34666781	2.1458074e-07
37	0x35254dde	6.15806e-07
38	0x359f412d	1.1865392e-06
39	0x354de6f2	7.670452e-07
40	0x356f8998	8.9234663e-07
41	0x3568ca9f	8.672159e-07
42	0x3578a32b	9.262464e-07
43	0x3573a53d	9.076501e-07
44	0x34810611	2.4032536e-07
45	0x344f6669	1.9315634e-07
46	0x35440c55	7.3033635e-07
47	0x343cc661	1.7581034e-07
48	0x356d57c1	8.841708e-07
49	0x35af7ad2	1.3074261e-06
50	0x35443764	7.3096294e-07
51	0x35887a92	1.0168462e-06
52	0x3570a53b	8.964741e-07
53	0x3591aae6	1.085308e-06
54	0x357fd9b7	9.531172e-07
55	0x342107fb	1.4997197e-07
56	0x33ed5ce9	1.1053073e-07
57	0x34da4cb7	4.0661482e-07
58	0x34152718	1.3890929e-07
59	0x35204acb	5.9713483e-07
60	0x35608b4c	8.3649206e-07
61	0x350b584b	5.191002e-07
62	0x3516d9a0	5.619604e-07
63	0x3553f82a	7.896475e-07
64	0x352b9653	6.3921215e-07
65	0x35434f64	7.275869e-07
66	0x341f6829	1.4845922e-07
67	0x342357a5	1.5212443e-07
68	0x34c452be	3.6568048e-07
69	0x34401565	1.7889177e-07
70	0x3507728b	5.04581e-07
71	0x3520d4e7	5.991446e-07
72	0x34f6b837	4.5955105e-07
73	0x351cf580	5.847178e-07
74	0x350a2a52	5.147059e-07
75	0x351097a4	5.3864846e-07
76	0x35024c4c	4.85398e-07
77	0x35bef262	1.4226646e-06
78	0x357d7b76	9.4429504e-07
79	0x36777144	3.6871797e-06
80	0x35763efc	9.1733796e-07
81	0x36eec913	7.116361e-06
82	0x36c92e8d	5.995686e-06
83	0x36ca5c78	6.030834e-06
84	0x36e3d787	6.790218e-06
85	0x36c34f99	5.8207193e-06
86	0x36ca8fd6	6.036814e-06
87	0x36d01b44	6.202057e-06
88	0x342e7743	1.62484e-07
89	0x3408b2b0	1.2730993e-07
90	0x34f52a00	4.5665365e-07
91	0x33f44875	1.1375315e-07
92	0x3518cb2a	5.6920055e-07
93	0x3586a8b4	1.0032877e-06
94	0x353895d0	6.876335e-07
95	0x3550364d	7.7565056e-07
96	0x352e1a26	6.48581e-07
97	0x35511dba	7.7901825e-07
98	0x350f9848	5.349325e-07
99	0x34dc5f47	4.1047517e-07
100	0x348bd7ee	2.6047877e-07
101	0x350dab94	5.277627e-07
102	0x34ec2e37	4.399205e-07
103	0x3561af94	8.407453e-07
104	0x35a8d124	1.2577843e-06
105	0x3562476d	8.42955e-07
106	0x35813813	9.627569e-07
107	0x35705402	8.9529215e-07
108	0x35795960	9.2889786e-07
109	0x35845956	9.860767e-07
110	0x33eec286	1.1118122e-07
111	0x341e22f5	1.4727614e-07
112	0x352fc247	6.547529e-07
113	0x3440c3ce	1.7952627e-07
114	0x35bc6fb4	1.4039601e-06
115	0x35a5bc64	1.2348287e-06
116	0x359014bc	1.073487e-06
117	0x3593a426	1.1000127e-06
118	0x35948e4c	1.1068273e-06
119	0x3569c9e7	8.709307e-07
120	0x3587e0c2	1.0123697e-06
121	0x3428174d	1.5654696e-07
122	0x340609ac	1.2483241e-07
123	0x34bf7729	3.5663223e-07
124	0x33fd0616	1.17823376e-07
125	0x35221fcd	6.039598e-07
126	0x357611c1	9.1667977e-07
127	0x352c401e	6.4168296e-07
128	0x35420bf3	7.228802e-07
129	0x35543db8	7.9065967e-07
130	0x355b1d9a	8.1626933e-07
131	0x353d5303	7.0528785e-07
132	0x346f57b5	2.2290517e-07
133	0x3421aa27	1.5056195e-07
134	0x3471488d	2.2471268e-07
135	0x347d4c93	2.3590319e-07
136	0x354fa418	7.7352297e-07
137	0x359022bd	1.0738946e-06
138	0x3556c02a	8.000085e-07
139	0x355e90dd	8.291225e-07
140	0x356e77aa	8.8836043e-07
141	0x3571cf86	9.008148e-07
142	0x35857585	9.943475e-07
143	0x3473a8de	2.2692572e-07
144	0x346a9ebd	2.1850697e-07
145	0x35358be7	6.763134e-07
146	0x34816709	2.410309e-07
147	0x35a19222	1.2037965e-06
148	0x35ca8bfb	1.5090912e-06
149	0x35a6ec1e	1.2436683e-06
150	0x35c5bc51	1.4732451e-06
151	0x35bd308a	1.4095724e-06
152	0x35b060e5	1.3141222e-06
153	0x35cb4e8c	1.5147539e-06
154	0x34067e1a	1.2525598e-07
155	0x33a98b02	7.894961e-08
156	0x33ccb6d3	9.532746e-08
157	0x359c0b7e	1.162625e-06
158	0x337c0743	5.8679927e-08
159	0x332fd2b8	4.093701e-08
160	0x33a7e207	7.8176576e-08
161	0x3312bbee	3.4164195e-08
162	0x334dfeff	4.79622e-08
163	0x3325b0c1	3.8577813e-08
164	0x3345e9b8	4.6080203e-08
165	0x340f106d	1.3323888e-07
166	0x33f0d570	1.1214695e-07
167	0x34c6d1f1	3.7033126e-07
168	0x341b0197	1.4436078e-07
169	0x3521b66f	6.024265e-07
170	0x352a172c	6.3363655e-07
171	0x34e01605	4.1739273e-07
172	0x350a7f55	5.15943e-07
173	0x351eea27	5.9200323e-07
174	0x34e5db1c	4.2813997e-07
175	0x35150896	5.551932e-07
176	0x343cb4b1	1.75746e-07
177	0x34351e4c	1.686796e-07
178	0x351eb7ee	5.912724e-07
179	0x343cfaa6	1.760005e-07
180	0x35599137	8.1050115e-07
181	0x3594f7b9	1.1098956e-06
182	0x3564741b	8.5105574e-07
183	0x353a7485	6.945996e-07
184	0x35928a35	1.0918071e-06
185	0x35683ac5	8.6512256e-07
186	0x35696ea6	8.696028e-07
187	0x33d4833b	9.89589e-08
188	0x33ea82da	1.0920276e-07
189	0x341cf580	1.4617945e-07
190	0x33905107	6.720261e-08
191	0x33a6ae9a	7.761737e-08
192	0x3380d460	5.999095e-08
193	0x339a897c	7.196192e-08
194	0x33b0f598	8.240312e-08
195	0x3353f5ea	4.9350923e-08
196	0x33c1ac66	9.018622e-08
197	0x33bb543d	8.723189e-08
198	0x33f3f402	1.1359954e-07
199	0x33e6e146	1.07511866e-07
200	0x34b6e74c	3.4068432e-07
201	0x33b78e65	8.547503e-08
202	0x347b28b1	2.3391e-07
203	0x358c42ba	1.0450233e-06
204	0x34fd3a44	4.7167316e-07
205	0x351e9a76	5.9084357e-07
206	0x351add73	5.769172e-07
207	0x35096e7e	5.1197264e-07
208	0x351199a5	5.424029e-07
209	0x35c188ff	1.4419492e-06
210	0x3580cdba	9.596617e-07
211	0x36467779	2.9573841e-06
212	0x3588bb19	1.0187242e-06
213	0x36c53022	5.876661e-06
214	0x3696d56a	4.495193e-06
215	0x36a0a58a	4.787643e-06
216	0x36b822d5	5.4876823e-06
217	0x36b085be	5.2607784e-06
218	0x36ca58ad	6.0303923e-06
219	0x36b440fb	5.3719828e-06
220	0x33caf48e	9.450842e-08
221	0x33c582e3	9.1973355e-08
222	0x34d27edc	3.920785e-07
223	0x33bc75e5	8.775877e-08
224	0x35114724	5.412023e-07
225	0x35219adb	6.020252e-07
226	0x35132b4e	5.4824784e-07
227	0x352b37ef	6.378386e-07
228	0x352c5a08	6.4206006e-07
229	0x35160979	5.589314e-07
230	0x34fdb5b8	4.725714e-07
231	0x34bb3c18	3.4875188e-07
232	0x3506b99b	5.018898e-07
233	0x3613c496	2.2019135e-06
234	0x3516fc29	5.6246296e-07
235	0x3699d7a8	4.584861e-06
236	0x369d479c	4.687301e-06
237	0x366df7c8	3.545998e-06
238	0x3683fa7a	3.9332635e-06
239	0x3684390d	3.940548e-06
240	0x36713fcf	3.594894e-06
241	0x3687c3a2	4.046088e-06
242	0x36234aae	2.4332362e-06
243	0x35da7466	1.6276142e-06
244	0x36dc08c2	6.5575305e-06
245	0x360a9b82	2.065412e-06
246	0x374b90dd	1.21334715e-05
247	0x37a7e995	2.0016721e-05
248	0x372fc769	1.0477242e-05
249	0x374101a0	1.1504075e-05
250	0x37465885	1.182233e-05
251	0x372f2f64	1.0441847e-05
252	0x3745ef8f	1.1797892e-05
253	0x34089daa	1.2723345e-07
254	0x340eec77	1.3310806e-07
255	0x34f16ec0	4.497033e-07

exp_avg f4 [128]
0	0x3991f4c8	0.0002783893
1	0x38d2f6e1	0.00010059565
2	0xb89fac69	-7.613825e-05
3	0xb8d0ef02	-9.9627316e-05
4	0xb91dadc4	-0.0001503742
5	0x38f23144	0.00011548636
6	0x37808f61	1.5325555e-05
7	0xba4852b1	-0.00076417165
8	0x3918fc16	0.00014589759
9	0xb9b9a031	-0.00035405302
10	0xb9d76668	-0.00041084294
11	0x394a2125	0.00019276568
12	0xb962007b	-0.00021553219
13	0xb8dd1187	-0.00010541366
14	0x38ba9ff4	8.898965e-05
15	0x393d3c36	0.00018046875
16	0x39446bec	0.0001873222
17	0x389765a4	7.219173e-05
18	0x38912cc6	6.9224785e-05
19	0xba20683a	-0.00061190466
20	0x3825485e	3.9406463e-05
21	0xb8df0e8b	-0.000106361775
22	0x39dbc321	0.00041916317
23	0x398eba4c	0.00027223153
24	0x38eeb391	0.00011382171
25	0xba657ad6	-0.0008753961
26	0xb967d4b3	-0.00022109113
27	0xb8eaee83	-0.00011202416
28	0x3950410c	0.00019860658
29	0x3a8f63ca	0.0010939774
30	0xb9c11947	-0.00036830662
31	0x396e10e5	0.00022703742
32	0xb8c1b9ea	-9.237586e-05
33	0x38114604	3.46359e-05
34	0xb9ceea83	-0.00039466107
35	0xb81c5d48	-3.7280173e-05
36	0xba8ec6b2	-0.0010892956
37	0x37a26067	1.9356796e-05
38	0x375128a0	1.24668295e-05
39	0x391ec972	0.00015143098
40	0xba274870	-0.00063813385
41	0xb959b7e2	-0.00020763234
42	0xb87c9607	-6.0221206e-05
43	0xb9fda6c2	-0.00048380165
44	0x39a5917c	0.00031579647
45	0xb998dbb4	-0.0002915539
46	0xb96df334	-0.00022692682
47	0x396b4f92	0.00022440989
48	0x39408e85	0.0001836364
49	0x3921b241	0.00015420561
50	0xb8914e89	-6.928767e-05
51	0x3880740f	6.125133e-05
52	0xb7ce6fdc	-2.4609202e-05
53	0xb8efede2	-0.00011440717
54	0x37331965	1.0675144e-05
55	0xb983c176	-0.00025130407
56	0xb899ae50	-7.328077e-05
57	0xb9e6e233	-0.0004403755
58	0xb91e2d7f	-0.00015085003
59	0x39c67102	0.000378497
60	0xb9af9b8a	-0.00033494487
61	0xb9aa94b9	-0.00032535734
62	0x399139b7	0.00027699556
63	0x3839db7d	4.431185e-05
64	0xb989c777	-0.0002627929
65	0x39e93052	0.00044477225
66	0x38cfc920	9.9079916e-05
67	0xb8d093e1	-9.9457575e-05
68	0x39455c53	0.00018821777
69	0xb93e5107	-0.00018149997
70	0xb98f0c45	-0.00027284227
71	0x39c1e62c	0.0003698332
72	0xb9126b7c	-0.00013963686
73	0xb9856714	-0.00025444536
74	0x3980a00c	0.00024533307
75	0x36821c42	3.8775916e-06
76	0xb8e1699d	-0.00010748508
77	0x389d9a23	7.5150536e-05
78	0xb9c481ac	-0.00037480646
79	0x38df2f11	0.000106422354
80	0xb8947523	-7.079008e-05
81	0x394d5157	0.00019580625
82	0x36b79758	5.4714437e-06
83	0xb8b0910f	-8.419353e-05
84	0x397658a5	0.00023493411
85	0x36b1e120	5.301219e-06
86	0xb963b234	-0.00021714793
87	0xb9d0b0d0	-0.00039804587
88	0x39151443	0.00014217295
89	0x38b7b18a	8.759189e-05
90	0xb8a63363	-7.925068e-05
91	0xb92b9d4f	-0.00016366433
92	0xb90ff7b5	-0.00013729821
93	0x36fbd87b	7.5055846e-06
94	0xb9cb1dd3	-0.00038741398
95	0x39f2e286	0.0004632661
96	0xb9654fc2	-0.00021868854
97	0x3a5b6e18	0.0008370592
98	0xb8c71142	-9.492274e-05
99	0x3989af1d	0.00026261146
100	0x391c34ca	0.00014896985
101	0xb91b61cb	-0.00014818383
102	0xb91088d8	-0.00013783888
103	0x39256183	0.00015771952
104	0xb7e63df2	-2.7446982e-05
105	0xb8c5e7af	-9.4368464e-05
106	0xb915b777	-0.00014278093
107	0xb96f0417	-0.0002279434
108	0x393f5387	0.00018246296
109	0x38f2701c	0.00011560341
110	0x3988b36b	0.00026073618
111	0xb6735049	-3.6256554e-06
112	0x392e92b9	0.00016648592
113	0xb93bd47f	-0.0001791287
114	0xb851d793	-5.0030252e-05
115	0xb868a781	-5.546911e-05
116	0x398c93e7	0.00026813077
117	0x3966a456	0.00021995729
118	0xb983e580	-0.00025157258
119	0xb8cf76e9	-9.892678e-05
120	0xb8556eef	-5.0886472e-05
121	0x38b1116f	8.443265e-05
122	0xb81c3efb	-3.7251953e-05
123	0x38fff926	0.00012205755
124	0x39df4784	0.00042587158
125	0x39816ffa	0.00024688226
126	0xba7879c5	-0.00094785943
127	0x38de084f	0.000105873325
