kingfisher_rl/config/ASV_GoThroughPosition.pth (torch, 227343 bytes, 30 tensors)

value_mean_std.running_mean f8 [1]
000000 e3 c2 19 40 30 fe be bf
       -0.12106610836941516

value_mean_std.running_var f8 [1]
000000 6e 0c e3 4b 76 8e a8 3f
       0.04796189953187811

value_mean_std.count f8 []
000000 00 00 00 20 00 20 66 41
       11599873.0

running_mean_std.running_mean_std.state.running_mean f8 [6]
000000 39 e3 18 72 65 1e d2 3f 4e 2f a5 27 a5 e6 6e 3f
       0.2831052412253033 0.0037720895462935227
000010 7f 85 5e db 52 54 82 bf 02 5e 39 02 5b a7 ea 3f
       -0.008949897117249915 0.8329291385115882
000020 4b b1 0c b6 bc cf 71 bf b9 c3 8d d8 fd ac 0c 40
       -0.004348504212242264 3.5844685476554017

running_mean_std.running_mean_std.state.running_var f8 [6]
000000 dc e5 c9 b1 4f 19 ad 3f 9f f2 0e cd 86 2a 91 3f
       0.05683373494407437 0.016763788476725435
000010 c5 09 89 3a f9 52 a7 3f 1d 52 55 5d 78 c7 c8 3f
       0.04555491294424344 0.19358734662331836
000020 d1 78 bc 47 f5 d6 bc 3f 87 9c 4b fc 7c 8b 17 40
       0.1126550006997349 5.886218969454723

running_mean_std.running_mean_std.state.count f8 []
000000 00 00 00 40 00 20 56 41
       5799937.0

a2c_network.sigma f4 [2]
000000 32 b4 2f c0 f6 b7 25 c0
       -2.7453732 -2.589353

a2c_network.actor_mlp.0.weight f4 [128, 6]
000000 74 aa 60 3e 6c 19 51 3e a3 69 d6 3c 82 48 1f 3f
       0.21940023 0.20419854 0.026173418 0.62220013
000010 d4 f7 1b be c3 5d db bc ab b9 c1 bd 74 90 6b 3e
       -0.15231258 -0.026778108 -0.094592415 0.23004323
000020 81 ff da 3e dd a3 07 bf 05 ea 8c 3e 36 70 41 bd
       0.4277306 -0.5298441 0.27522293 -0.047226153
000030 c0 86 6c 3d 7f 35 f4 3d 05 44 9f be a0 f9 bd bc
       0.057745695 0.11924266 -0.31106582 -0.02319032
000040 51 b4 54 3f 69 a9 2b 3e 79 55 81 bd 5a 21 c2 3a
       0.8308764 0.16763844 -0.06315131 0.0014810965
000050 35 f1 6a be b7 a1 4c be 09 02 3c bf 9d ba 51 3e
       -0.22943576 -0.19983564 -0.73440605 0.20481344
000060 4b 3f b1 be 4a 3e 13 be cb 7b a8 be e6 62 2e be
       -0.346186 -0.1437923 -0.32906947 -0.17029914
000070 03 db 81 3e 2d d6 c3 be e7 7f a2 3e d6 3f 9d be
       0.25362405 -0.3824934 0.31738207 -0.30712765
000080 bf 11 c1 3e 1f a7 83 3e 35 11 1d bf 33 b5 36 3e
       0.37708852 0.2571344 -0.6135438 0.1784256
000090 de 24 3d bd b2 88 ae 3e d0 e7 e7 bd da 53 6b 3d
       -0.046177737 0.34088665 -0.113235116 0.057453014
0000a0 89 38 a2 3e cb a1 35 3e 54 f2 17 3e 2d d4 a7 3e
       0.31683758 0.177375 0.14838535 0.32779065
0000b0 ef a6 8d 3e ae 78 53 be 77 0b 8b bc 97 10 3b be
       0.27666423 -0.20651504 -0.01697324 -0.18268047
0000c0 3d 15 4b 3e 1d d5 77 be 98 f4 d6 be 5c 3a 4c be
       0.1983232 -0.2420239 -0.41983485 -0.19944137
0000d0 16 0f 80 bf 1f d0 5b 3e f2 58 e9 bc 0a 35 5c 3e
       -1.0004604 0.2146611 -0.028484795 0.21504608
0000e0 38 e0 34 bd ef 75 43 3e 14 73 f6 3e 4a 67 f4 bd
       -0.044159144 0.19087957 0.48134673 -0.11933763
0000f0 4e b0 17 be 68 3b ed bc a9 c4 de 3d 04 a1 e3 bd
       -0.14813349 -0.028958991 0.10877354 -0.11114696
000100 01 eb b3 3e 5e d1 2c 3e 9b 93 0e 3f 12 97 e8 bd
       0.3514023 0.16876742 0.5569398 -0.113569394
000110 36 f0 d2 be a0 e8 b0 be 2a 7a bb 3e 98 fc a2 be
       -0.4119889 -0.3455248 0.3661664 -0.3183334
000120 7a e5 ce 3e d2 b8 87 be 35 ac 89 be 33 89 c8 be
       0.40409452 -0.26508194 -0.26889196 -0.39167175
000130 59 e2 b1 be 08 c1 d5 3d 8d 11 22 3e 39 0b 07 3f
       -0.34743002 0.104372084 0.15827008 0.527515
000140 9c 4b cb be 33 b6 70 be 9e c4 26 3f 6f fb a5 bc
       -0.39706123 -0.23507003 0.65143764 -0.020261494
000150 47 da e1 bc 36 36 b4 3c 2f b2 db 3d e6 6c 63 be
       -0.027569903 0.021998506 0.10727345 -0.2220951
000160 c5 20 da bd e5 fc 00 3f 3b 6d 08 3e c5 3f cd 3c
       -0.106507815 0.50385886 0.13322918 0.025054822
000170 90 21 d5 3e 58 68 d7 3e c0 a5 85 bf db d3 02 be
       0.4162717 0.42071795 -1.0441208 -0.12776129
000180 6c ae 43 3e fc 8b 12 be ad 47 fa bd bc 15 15 be
       0.19109505 -0.14311212 -0.12220702 -0.14559072
000190 50 e9 0f be fe 9d a4 3e 14 c9 00 bd fa 2c 47 be
       -0.14053845 0.32151788 -0.031441763 -0.19450751
0001a0 11 3e 27 3e 09 c3 77 be 11 3a e6 be c2 5e 74 be
       0.1633227 -0.24195494 -0.44966176 -0.23864272
0001b0 bd ed e3 be 0d ab 6e bf ca 03 1e 3f 92 0c c3 3d
       -0.44517317 -0.9322975 0.6172453 0.09523882
0001c0 17 e7 b4 3d 5e 7b af be 2d 1a 43 bf 02 8f d4 bc
       0.088331394 -0.3427381 -0.76211816 -0.025947098
0001d0 83 a6 92 3e d6 49 ff be 48 10 cb bd 55 56 33 3e
       0.28642663 -0.4986102 -0.09915215 0.17513402
0001e0 ef eb 03 be 54 ca 45 be ab 5c 3b bd 52 b8 6e be
       -0.1288297 -0.19315463 -0.045742672 -0.233125
0001f0 89 b6 10 be 2a 33 42 bd b8 f9 15 3e da 0d dd be
       -0.14132132 -0.047412075 0.14646041 -0.4317463
000200 5f b7 fa 3e b2 4c d4 be 54 d6 2b 3f d9 0e 7a 3b
       0.48968026 -0.41464764 0.67123914 0.0038155823
000210 07 f2 05 bf 7a 77 2b 3f d8 17 89 be a6 a5 3f be
       -0.5232243 0.6697918 -0.26776004 -0.18715534
000220 9c 35 c2 be 8a cd 4d be 27 4e 8e 3c c0 d0 e6 bc
       -0.37931526 -0.20097938 0.01737125 -0.028175712
000230 b3 fa b0 3e 01 e1 3c be bd 62 69 3f d5 47 65 be
       0.34566268 -0.18445207 0.9116629 -0.22390683
000240 fb e2 5f bd 8b a5 ab 3d cc 33 39 3e 4b 82 ca 3e
       -0.054659825 0.08381184 0.18086165 0.3955253
000250 2a 78 9b 3f 9c 34 0d be 7d d4 dc 3b 29 8a 82 be
       1.2146046 -0.137896 0.0067391978 -0.25496033
000260 29 09 b6 be 6a 5c 90 bd 40 f0 75 3f a8 9e 9e bd
       -0.35553864 -0.070488766 0.9606972 -0.07745105
000270 30 5b 62 3e 77 89 8a bd f4 0d bc 3d a1 17 c0 be
       0.22105098 -0.067645006 0.09182349 -0.37518027
000280 ac e2 a7 3d 88 53 3f be 50 de a5 3d 9c 4e 87 be
       0.08197531 -0.18684208 0.08099043 -0.26427162
000290 44 39 d8 3e 58 58 1b be e9 bf 2d bf 58 86 35 3e
       0.4223119 -0.15170419 -0.67870957 0.1772703
0002a0 01 92 0d 3e 28 df b6 be 9e a2 c0 be 8b 88 e0 3d
       0.13825227 -0.3571713 -0.37624067 0.109635435
0002b0 44 aa ea 3e 22 57 b2 bd 44 21 60 be bc 62 31 be
       0.45833027 -0.087080255 -0.2188769 -0.1732282
0002c0 b4 10 28 bf 1e 0a a6 3e 4d 00 8e 3f b0 52 4e 3c
       -0.65650487 0.32429594 1.1093842 0.012592956
0002d0 19 36 8e 3e f1 e6 16 3e f7 83 38 3e f7 3c 93 be
       0.27775648 0.14736535 0.1801909 -0.2875745
0002e0 25 fa 1e be 6c 64 1a be 45 73 5c 3d 16 e2 c9 bb
       -0.1552511 -0.1507737 0.053820867 -0.0061609847
0002f0 08 8e a6 bd 0e 8c 7f 3e 67 ea da bc 3c a0 03 be
       -0.08132559 0.2495577 -0.0267231 -0.12854093
000300 d3 d5 82 3d 4f 67 c2 3e 78 94 f9 bd ff d5 ca 3d
       0.0638844 0.37969443 -0.12186521 0.09904098
000310 71 32 ba 3e 06 d8 91 3e 22 cb a2 3e 48 e6 64 3d
       0.3636661 0.28485125 0.31795603 0.055883676
000320 ed e2 bd be 21 58 91 be be 05 d5 3e ec e1 1a bd
       -0.37087193 -0.2838755 0.41605943 -0.037813112
000330 c1 98 2b 3d 3e b5 79 be fc 04 06 be cd 05 00 bf
       0.041893724 -0.24385545 -0.13087839 -0.5000885
000340 21 19 76 be d5 b1 6a 3d 28 f9 af 3e c3 c5 da 3e
       -0.24033023 0.0572985 0.3436978 0.42729005
000350 50 35 90 be 5f 99 97 be 8f bd 03 bf 6e 5a 12 3d
       -0.28165674 -0.296092 -0.5146112 0.03573077
000360 d0 eb b2 3d 99 9b 47 bd a2 02 d2 3e 80 d3 90 be
       0.08736384 -0.048732374 0.41017634 -0.28286362
000370 f2 de f5 be 3b 2a 21 3e a8 d1 ff bd 01 74 63 be
       -0.48021656 0.15738766 -0.12491161 -0.2221222
000380 19 62 17 bf 20 2a 43 3e 54 e8 5d 3f 39 9e 99 3c
       -0.5913406 0.19059038 0.8668263 0.018752204
000390 4d ce 14 be 33 d6 e8 be 55 16 c2 be 1e ea 82 3e
       -0.14531823 -0.4547592 -0.37907663 0.25569242
0003a0 a8 8e 8f 3e 2c bd 6c 3e d3 39 84 3d 18 59 e5 3e
       0.28038526 0.23119038 0.064563416 0.44794536
0003b0 e0 a8 f6 bd 80 7f 80 be d7 91 3c bf 4b 3d a2 be
       -0.12043929 -0.25097275 -0.73660034 -0.31687388
0003c0 bc 0a 41 3e 67 50 a0 bd 85 83 8b bd 86 f7 cb bd
       0.18851751 -0.078278355 -0.06812195 -0.09959321
0003d0 11 43 f0 3c 5b 4a b5 be 43 ae bc be 5e 0c 51 3e
       0.029328855 -0.3540829 -0.368517 0.20414874
0003e0 71 4e d1 be fc 84 b0 3e 70 69 ad 3c de 43 cf 3c
       -0.4088016 0.3447646 0.02116844 0.025300916
0003f0 8b aa 56 be 5f 2d 3d be ac 19 dc be ad 6d 03 be
       -0.20963494 -0.18474339 -0.42988336 -0.12834807

a2c_network.actor_mlp.0.bias f4 [128]
000000 ae 40 5f be 42 f7 bc 3e b4 39 a1 3d bc b7 9c 3e
       -0.21802017 0.36907393 0.07872334 0.30608928
000010 88 91 05 bf 85 fc 9f 3d 85 7c 45 3c 34 da f1 3c
       -0.5217519 0.07811836 0.012053614 0.029522993
000020 39 80 cd 3e e8 aa 8e be b1 e8 d1 be 94 d5 d1 bd
       0.4013689 -0.27864766 -0.40997842 -0.10245815
000030 f4 fb 3c be ae 7b 3e bd 46 08 07 3e bf f2 38 bd
       -0.18455487 -0.04650467 0.1318675 -0.045153376
000040 3e 15 8a 3c 2e c3 54 be b3 23 0e bd 2d ac 25 be
       0.016855832 -0.2077758 -0.034702014 -0.16178961
000050 d2 69 ac be a6 76 38 3e e0 3c 28 be a2 45 ac be
       -0.33674484 0.18014011 -0.16429472 -0.33646876
000060 1a 8e 9a be f4 3e 11 bc f9 8b ad 3e 36 f5 41 3d
       -0.3018654 -0.008865107 0.33895853 0.047352992
000070 4d bd 32 be 30 3a f5 3c 31 b0 03 3d c0 2d ca be
       -0.17455025 0.029934973 0.03215045 -0.3948803
000080 4d e9 8a bd b1 01 d6 3d 66 a3 d9 3e 6c 35 97 3c
       -0.0678278 0.10449541 0.42507476 0.01845809
000090 10 8e 55 3e 1c e5 0a bd a6 ad 7b 3e 0a 91 70 be
       0.20854974 -0.033909902 0.2457796 -0.23492828
0000a0 d5 d2 ee be b3 51 81 3e 54 c0 50 be 5e 5c c0 be
       -0.46645227 0.25257644 -0.20385867 -0.3757047
0000b0 65 f7 ba be c3 26 90 be 9e 0d 91 be 06 2d 2d 3e
       -0.36516872 -0.28154573 -0.28330702 0.16911706
0000c0 bf 6c 13 be 57 31 ba be 95 a7 17 3e f9 73 75 3e
       -0.14396952 -0.36365768 0.14810021 0.23970021
0000d0 a3 e0 d0 3e e2 42 e1 3d e6 8a ad bd 0c 57 15 be
       0.40796384 0.10999085 -0.084737584 -0.14583987
0000e0 2d 2f f9 3d 51 88 aa bd d1 81 b0 3d a9 02 94 3e
       0.12167201 -0.083267815 0.086185105 0.2890828
0000f0 70 f3 81 3e 88 f6 5a 3e 10 c5 d7 3d c7 d3 97 3e
       0.2538104 0.21383107 0.105356336 0.2965376
000100 a0 74 6a 3b 2e 5e d7 3d 46 cd 4a 3e ea d6 fa be
       0.003577508 0.1051601 0.19804868 -0.4899209
000110 da 2f da 3d e5 2d 60 bd ee 79 4e bb 2f 86 85 bb
       0.10653658 -0.05473127 -0.0031505781 -0.004074834
000120 13 32 f1 3e 9e 17 08 3f c9 f6 bd bd fa 54 6f 3e
       0.47108516 0.53161037 -0.09275586 0.2337226
000130 51 b7 49 3e 5c 82 27 be bc 63 55 bd e0 0d a3 3e
       0.19698836 -0.16358322 -0.052097067 0.31846523
000140 84 54 da be 71 f4 33 be 20 5f f2 3e 76 92 8f 3c
       -0.42642605 -0.17573716 0.473382 0.017525893
000150 d6 c7 1d be 1b 4a a4 bc f1 6c 15 3e 1b dd b7 3e
       -0.15408263 -0.020054867 0.14592339 0.35910878
000160 92 bd 0b 3f 54 c3 eb 3e 01 03 23 3e 75 b2 f8 bd
       0.54586136 0.4604746 0.15919115 -0.12143413
000170 b0 87 a8 3e 4e 4d a7 bd ac 5e 81 be a0 af 03 be
       0.3291602 -0.081690416 -0.2526754 -0.12859964
000180 d2 8d 9c be 5b d9 9c bd 55 d7 dd bd 20 23 08 3d
       -0.3057695 -0.07658645 -0.10832087 0.033236623
000190 68 7b 98 be 6d 39 29 be 0e 1a a9 be 34 71 64 be
       -0.29781651 -0.16525812 -0.3302769 -0.22308809
0001a0 41 06 b0 3d fd 03 36 be 8e 6b 14 bf 51 b4 04 be
       0.08594943 -0.17774959 -0.57976615 -0.1295941
0001b0 99 4f ec bd 10 c9 a9 3e ae 30 41 3e fc 4f 80 3e
       -0.115386195 0.3316121 0.18866226 0.25061023
0001c0 b4 cb 95 bd 6d 62 14 3e 57 14 35 be 72 89 68 bd
       -0.07314244 0.14490671 -0.1768354 -0.056771703
0001d0 12 a9 0c bd 07 58 14 3e d2 b7 e9 3c 68 ba d3 bd
       -0.034340926 0.14486705 0.028530035 -0.103382885
0001e0 9c 67 d7 3e dd a1 73 be ec 57 92 be fb 85 c6 3e
       0.42071235 -0.23792215 -0.28582704 0.38774094
0001f0 9d 6f b8 bc 24 07 a4 3d 7e 5c 9e be 86 81 10 bd
       -0.022514159 0.080091745 -0.3092994 -0.035279773

a2c_network.actor_mlp.2.weight f4 [128, 128]
000000 d0 80 a9 bd d0 d3 13 3e 13 16 c2 be 19 5b f6 3d
       -0.08276522 0.14436269 -0.37907466 0.12029094
000010 a2 2d a5 bc 5d 96 71 3b 5d 1f cb bd 1f da cb 3d
       -0.020163361 0.0036863305 -0.099180914 0.09953713
000020 34 da 6d 3e c6 96 21 be d5 23 bb be e8 f3 10 3e
       0.23227769 -0.15780172 -0.36550775 0.14155543
000030 12 88 27 3c f3 22 33 be ec 9c 2c be 3c 03 ae 3e
       0.010225313 -0.17493801 -0.16856736 0.33986843
000040 a7 7a 4b bd fa 4e 15 3e 0d e2 e6 3d 8c b8 09 be
       -0.049677517 0.14580908 0.112735845 -0.13449305
000050 40 4f 0d be a4 7b a5 3d 20 b2 2a 3d 21 eb 17 be
       -0.13799763 0.08080223 0.04167378 -0.14835788
000060 90 c2 8a be 45 10 38 be d2 e7 cb 3d e0 a9 26 3d
       -0.27101564 -0.17974956 0.099563256 0.04068935
000070 83 36 e8 bd 3c 5c 71 be 11 78 11 3e 02 76 a3 bd
       -0.11338522 -0.23570341 0.14205958 -0.079814926
000080 33 d0 82 be 83 00 be bc d3 31 ab 3e 44 17 ed bc
       -0.25549468 -0.023193603 0.3343645 -0.028941758
000090 13 2d 54 3d 6d 43 a1 be ed c6 61 bd af 04 41 3d
       0.0518008 -0.31496754 -0.05512135 0.047123607
0000a0 da 2d cd bd 0e 56 3f 3d ce 6c 62 be ed dd 50 be
       -0.10018511 0.046712928 -0.22111818 -0.20397158
0000b0 93 4d f7 3c d5 b0 2b be 48 50 e4 bd 06 02 04 3e
       0.030188357 -0.16766675 -0.11148125 0.12891397
0000c0 88 91 5e 3e b3 98 2b be a6 7f be 3d b1 fa 88 3d
       0.21735203 -0.16757469 0.09301691 0.066884406
0000d0 f9 3a 28 be 07 69 20 be f7 78 24 3e 9d 0b cf bd
       -0.16428746 -0.15665065 0.1606177 -0.10109637
0000e0 c4 0e 24 3e 37 94 2d bd 24 ab 90 bc f3 1b b3 bc
       0.16021258 -0.042377677 -0.017659731 -0.021863913
0000f0 e4 84 c1 3d fd b3 95 be d7 e4 aa 3c ea 30 d8 bd
       0.09449175 -0.29238883 0.020861072 -0.105562046
000100 6a 80 41 be 2f 4c ab 3c 99 b7 ee 3c f8 21 1e be
       -0.18896642 0.02091035 0.02914028 -0.15442646
000110 63 2b b7 be 65 ce 9f 3e 86 33 21 3d d7 f0 97 be
       -0.3577529 0.31212154 0.039355777 -0.29675934
000120 ca 7c 90 3e 2e 35 92 3d 5d ab 17 be 68 f3 70 3e
       0.28220206 0.071390495 -0.14811464 0.23530352
000130 26 32 96 3e 62 82 de bb 2b 17 76 be 5e 25 4c 3e
       0.29335135 -0.006790445 -0.24032275 0.1993613
000140 68 76 8c bc 12 bf 11 be 83 9f 27 3d 99 63 34 3d
       -0.017146304 -0.14233044 0.040923607 0.044040296
000150 6f 13 36 bd 0b de f1 3d 61 33 21 be c7 88 74 3e
       -0.044452127 0.118099295 -0.15742256 0.23880301
000160 ce 15 09 bd ae a9 8d 3e 14 b0 81 bd be 4d a7 3e
       -0.03346806 0.27668518 -0.06332412 0.326765
000170 11 92 5c 3e 15 9e e3 3c 42 6d 1f 3d 7f b7 89 3c
       0.21540095 0.02778534 0.038922556 0.01681113
000180 5b 27 a5 bd 50 e7 90 be 0d 54 71 3e 8d bd 06 bc
       -0.08064147 -0.28301477 0.23567219 -0.008223903
000190 43 be 86 3d 55 68 03 be 9f df 8a bd 68 1a ca 3d
       0.06579258 -0.12832768 -0.067809336 0.09868318
0001a0 41 04 e0 3e 6e 25 35 be 4c b9 b2 bd 4f 4a 7b be
       0.43753245 -0.1769006 -0.08726749 -0.24540065
0001b0 12 f5 27 be 4a 3d 8b 3d 0e d4 ea 3c 8e 50 64 3e
       -0.1640208 0.06798799 0.028665569 0.22296354
0001c0 ec 2e 06 be 23 7c a1 3e ac ee 4c 3e bc 28 02 3c
       -0.13103837 0.3154002 0.20012921 0.007944282
0001d0 c3 61 16 be 79 7d 2b bd 0a 47 90 bc 3d 55 02 3d
       -0.1468573 -0.041867707 -0.017611999 0.03181957
0001e0 c0 2e 13 3e f4 a7 b9 bc 2d 5e f9 3d b8 3f 0f 3e
       0.14373302 -0.022663094 0.12176166 0.1398915
0001f0 3a df fd bc 82 19 a2 be de c2 9e bd 93 52 4a be
       -0.030990232 -0.31660086 -0.07752012 -0.19758062
000200 8f b5 d8 3d 80 0f f5 3c 30 d8 b8 3c fc cc a6 bd
       0.105815046 0.029914618 0.022564024 -0.081445664
000210 84 c4 6c be a7 43 64 bc 4f 5c 8c 3d 25 43 1d bc
       -0.2312184 -0.013932145 0.06853544 -0.009598528
000220 e5 e8 4b bd 73 ea fc bd a6 7f 57 bd 59 f4 ac bd
       -0.049782652 -0.12349405 -0.05261197 -0.08445043
000230 6f 01 e4 3c db 66 97 bd 11 31 ea 3d 82 6b 4c bd
       0.027832715 -0.07392665 0.1143514 -0.049907215
000240 72 5c f0 bc 71 69 04 3d 37 29 e1 3c af 21 33 bd
       -0.029340956 0.03232712 0.027485473 -0.043733295
000250 14 2e 0d be c1 88 a3 3d 34 d9 46 bd c4 d4 a5 bb
       -0.13787109 0.07985068 -0.048546985 -0.005060764
000260 c9 51 70 3c 13 3f 62 bd c0 58 40 3e 9a 6a 33 3d
       0.014667937 -0.055235934 0.18783855 0.043802835
000270 0e 5c 9c bd d0 cd 92 bd bd f3 96 3d b9 b5 3c bd
       -0.076347455 -0.07168162 0.07370708 -0.04607174
000280 58 29 55 3d 7c 6e 5e 3d 41 32 ca 3b 95 f1 c9 bd
       0.05204138 0.054304585 0.0061705415 -0.09860531
000290 ac a4 bf 3d 20 51 7e 3a 50 f7 42 3e c9 df 58 3c
       0.093575805 0.00097014196 0.19039655 0.013236948
0002a0 fa 5e a0 be 74 07 e3 3d b0 56 ee bd b3 b0 0a 3c
       -0.3132246 0.11085406 -0.11637628 0.00846498
0002b0 87 bc 44 ba 63 76 1e 3e c1 58 0a be 28 e3 85 3d
       -0.00075048994 0.15474848 -0.1351042 0.06537467
0002c0 4c c1 e3 bd df b0 c3 3c 48 9f c5 3c 1b c6 07 3e
       -0.11120853 0.02388805 0.024123803 0.13259165
0002d0 5a f8 f8 3c 37 f9 10 3e 28 e4 65 bd 0c 9e 44 bd
       0.03039186 0.14157568 -0.05612579 -0.048002288
0002e0 68 3e 63 bc 33 3d 32 bd 26 3e 9d bd ca c7 d5 3b
       -0.013869859 -0.043515395 -0.076778695 0.006524061
0002f0 2f 09 e1 3d dd 17 04 3e 08 50 d6 3d e0 18 9c 3d
       0.1098808 0.12899728 0.104644835 0.07621932
000300 f2 62 26 bd 55 a5 a7 3b 6a fb de 3c f6 bd 1d 3d
       -0.040621705 0.0051161447 0.027219493 0.03851124
000310 99 1b e1 bc 9f 69 16 bd 09 c2 04 3e 36 72 e5 bb
       -0.02747898 -0.036721822 0.12964644 -0.0070021404
000320 0f 11 27 bd f1 98 a8 3e d5 93 8e 3c 9d 22 b6 3d
       -0.040787753 0.32929185 0.017404476 0.08893321
000330 10 81 d5 bd c2 96 45 bd 0c 5a e3 bd e4 f4 a1 3d
       -0.10425007 -0.048239477 -0.111011595 0.07908037
000340 4d bd f2 bd cb cf 17 3e 18 2a 63 3e f2 d5 bc 3a
       -0.118525125 0.1482536 0.22184026 0.0014407022
000350 45 b2 4e bd df 6d 01 3d db b0 85 3d 4d 34 20 bd
       -0.05046298 0.031598922 0.06527873 -0.039112378
000360 4b 1e 62 3e dc 3b c6 3d 3b 77 a0 3d f6 5c 74 bd
       0.22081868 0.09679386 0.078352414 -0.059658967
000370 ac d8 08 3c b0 cd 3a 3d 22 6d 28 bd 8c e5 87 3d
       0.00835244 0.045606315 -0.041119702 0.066355795
000380 0c 39 45 be 2f 61 2f 3b 18 e6 01 be ba e3 a9 bd
       -0.19260043 0.0026760807 -0.1268543 -0.082953885
000390 88 c1 65 bc ee 46 00 be 07 6b 1a be 1e a2 31 3d
       -0.014023192 -0.12527058 -0.1507989 0.043367498
0003a0 03 71 80 bc ef 6c db ba de e8 9e be 51 c0 2a 3e
       -0.015678888 -0.0016740839 -0.3103704 0.16674925
0003b0 ee 66 b1 bc e7 55 61 bd 5a f6 db 3d d9 16 07 3e
       -0.021655526 -0.055013563 0.10740347 0.1319231
0003c0 c5 99 78 3d 03 0f 1d 3d e4 d3 ec bd 80 18 a1 bd
       0.06069352 0.038344394 -0.115638524 -0.07866001
0003d0 04 13 a7 3b 36 7b bd bc 06 4a ea 3c 8e 0d b7 bd
       0.0050987024 -0.02313004 0.02859975 -0.08938132
0003e0 38 9c f3 3d 2a 51 d2 bd f7 a2 bd bd a7 c7 19 3d
       0.11895031 -0.10269387 -0.09259599 0.03754392
0003f0 54 e7 af 3c eb 46 b3 3d f9 bf 6d bd c9 38 40 3d
       0.02147261 0.08753761 -0.058044408 0.046929155

a2c_network.actor_mlp.2.bias f4 [128]
000000 ce 7f 89 3e fd 31 97 bd ba 59 3c bd f7 6d 2e be
       0.2685532 -0.073825814 -0.045984007 -0.17034136
000010 ce 98 2e 3e 96 df 7e 3d e0 27 e8 3d bd db 22 be
       0.17050478 0.062224947 0.113357306 -0.15904136
000020 a4 1e e3 bd f7 9e 18 be 8a d7 28 3e e6 e7 15 3e
       -0.110898286 -0.1490439 0.16488472 0.14639243
000030 a2 31 59 3e 8c 4f 5d bd 72 43 76 3e 43 a2 13 be
       0.2121034 -0.05403094 0.24049166 -0.14417367
000040 13 3d e7 3d b8 61 2f ba 9a 05 a9 bd 64 dd 42 bd
       0.11290946 -0.00066902814 -0.082530215 -0.047574416
000050 c3 75 48 3d cc f0 83 3d 72 f1 67 3e 77 ab 14 be
       0.04894043 0.06442413 0.22650698 -0.14518534
000060 69 6d 2b 3e 52 86 79 3d 62 f4 6b 3e f5 b3 5c be
       0.16740955 0.060919113 0.23042443 -0.21553023
000070 8c 5d 80 3e 76 63 21 3c 66 30 55 be 19 61 8e be
       0.2507137 0.0098503735 -0.20819244 -0.27808455
000080 4e 1e 56 3d 8d 2b 17 bd 18 9a 82 be c1 78 0c 3e
       0.052274995 -0.036906768 -0.2550819 0.13717939
000090 b2 8b 49 3d 4c f0 ad 3d ba 8c 03 3d c0 2d a5 3d
       0.04920549 0.084930986 0.03211663 0.08065367
0000a0 49 f2 fa bd 64 03 85 3e 0f 52 71 bd 9a 5c 00 bd
       -0.122532435 0.2597915 -0.058916148 -0.03133831
0000b0 70 f0 91 bd 71 e4 a7 be 6b b8 22 be 4e da 87 be
       -0.07125938 -0.32791474 -0.15890662 -0.2653374
0000c0 86 7b 80 3e cc 67 b8 3d c8 a7 6d 3b d3 05 1b 3d
       0.2509424 0.09004173 0.0036263335 0.03784735
0000d0 22 02 fd bc 31 1c 50 3e e4 45 13 3d ce 05 bd 3d
       -0.030884806 0.20323254 0.035955325 0.09229623
0000e0 0c 39 81 3e 20 28 85 3d fa ba 78 3e e3 33 93 3c
       0.25238836 0.06501794 0.24290076 0.017969077
0000f0 9d 4b 9f 3c 65 59 59 3b 58 63 bd bc 8f 16 be 3c
       0.019445235 0.0033164856 -0.02311866 0.023204116
000100 33 22 ba 3d 22 4e fb bb 7f 8b 7e 3e 0d 9b 86 bd
       0.09088554 -0.0076692263 0.24857901 -0.06572542
000110 30 3b a4 be cc 29 c4 3e 59 a4 4b bd a4 3f 1b 3e
       -0.32076406 0.38313138 -0.04971728 0.15160996
000120 a7 f0 17 3e 23 34 37 3e 0e e0 ac 3c 95 08 40 bd
       0.14837895 0.17890982 0.021102931 -0.046883184
000130 de 67 6b 3e ba 4f 8d 3d 19 bf c0 bd 45 b2 8a bd
       0.22988841 0.06899972 -0.09411449 -0.067722835
000140 ae 7d 07 3e 7f 64 30 3c 78 dc 2e 3d 00 f6 f5 3e
       0.13231537 0.010766148 0.042690724 0.48039246
000150 a5 9a 8c 3e e5 4c 06 be b8 6c d9 3d 6f db 55 bc
       0.27461734 -0.1311527 0.106164396 -0.013052805
000160 3d 58 6e 3d 6a 99 e0 3e b5 1f 8d 3d e6 f6 d3 3e
       0.05818962 0.43867046 0.06890813 0.41399306
000170 83 de b1 3c 46 5d dd be 04 cc 32 3e d4 c8 83 bd
       0.021712547 -0.43235224 0.17460638 -0.06434789
000180 39 af 70 bd 23 65 74 be d9 90 28 3e be 77 7b 3e
       -0.058760855 -0.23866706 0.16461505 0.24557397
000190 5d 54 af 3c 97 b6 71 bd de 4d 88 bd 7f 7f 86 be
       0.021402532 -0.059012022 -0.06655477 -0.26269147
0001a0 50 fc 41 3e 96 b9 b0 be 15 89 21 be 79 0a 77 3e
       0.18943906 -0.3451659 -0.15774949 0.24125089
0001b0 a7 9e 6f bd da 65 03 be 82 5f c0 bd c8 0f e9 bd
       -0.058500912 -0.12831822 -0.09393217 -0.11379963
0001c0 00 c1 17 3d e4 60 5d 3e 22 68 74 bd a6 44 d1 bd
       0.037049294 0.21618992 -0.05966962 -0.10218172
0001d0 e0 9f b0 be f2 50 8f bd b7 b2 25 3d d1 d0 a7 3d
       -0.34496975 -0.06997861 0.04045364 0.081941254
0001e0 59 a0 5c 3d 12 c0 33 3e 01 f2 81 bd f3 8d b7 3d
       0.053863857 0.17553738 -0.06344987 0.089626215
0001f0 66 c6 21 3e a5 c5 c8 bd eb 4c 07 be 69 66 c1 bd
       0.15798339 -0.09803323 -0.13212936 -0.09443361

a2c_network.value.weight f4 [1, 128]
000000 2d b8 48 bd 8c 00 6a 3e 76 4b 73 bd ec d4 92 3c
       -0.04900377 0.22851771 -0.059398137 0.017923795
000010 d3 03 bc bd 89 4d 58 bd 46 7f b8 bc 9f b1 90 3b
       -0.09180417 -0.05280832 -0.022521626 0.0044157053
000020 5a 79 00 3e 19 f8 0a bd 7c ac 4e be 60 ed b7 3a
       0.12546292 -0.03392801 -0.20182985 0.0014032535
000030 83 20 0f 3d be 6d 1b bd c1 22 e8 bd 1e 5e e0 3d
       0.034943115 -0.037946455 -0.11334754 0.109554514
000040 a0 a0 68 bd cd 79 85 3d c7 44 c6 bd 66 2c 3a bd
       -0.05679381 0.06517372 -0.09681087 -0.045452498
000050 6b cc 1f 3d 72 b3 03 bd d1 05 ad 3d 93 b5 f5 3b
       0.039013308 -0.032153554 0.08448375 0.007498452
000060 8e a4 97 3c e9 04 68 bd c9 cc d6 bc ee 2d 89 bd
       0.018511083 -0.056645308 -0.026220696 -0.066982135
000070 56 83 c9 bd 4b b4 fa 3d c1 42 c9 3d a0 7f ba 3c
       -0.098395035 0.122414194 0.098271854 0.022765934
000080 e9 56 93 3d 0a ec 98 bb 56 5a 84 3d 83 cd e7 3d
       0.07194311 -0.00466681 0.06462543 0.11318495
000090 25 23 32 bd fa 22 42 3b 9e 52 24 3e 20 ff 85 bd
       -0.043490548 0.0029622898 0.16047141 -0.06542802
0000a0 2e 16 2d 3e f0 46 51 be 1b 41 d8 3c 57 8c 2f bf
       0.16902992 -0.20437217 0.026398232 -0.68573517
0000b0 24 60 8a bc 2f 7c 7c 3d 62 9a 39 3e 6e 07 63 bb
       -0.016891547 0.06164187 0.18125299 -0.003464188
0000c0 a0 e8 e8 3d 84 b3 bd 3b 03 c8 a4 3c 21 0e d2 3c
       0.11372495 0.005789222 0.020114904 0.025641503
0000d0 86 9b aa bc e8 33 0a be a7 0f ac 3d 0b 9c 13 3e
       -0.020826112 -0.13496363 0.08401423 0.14414994
0000e0 b7 da 66 bb ad e1 a3 3c 88 e7 42 3d c2 4b 30 3d
       -0.003522558 0.020005072 0.047584087 0.043041
0000f0 14 c0 a6 3d 38 9d 4b 3d fa 72 99 bd f6 5c 14 3d
       0.08142105 0.049710482 -0.07492633 0.036221467
000100 19 2f 6d 3e a1 af 72 3c 0b f0 d6 3c c4 8e 71 3a
       0.23162498 0.014812381 0.026237508 0.0009214694
000110 d4 8f 51 3e 6e 9d dc bd 1e bd 2d bd 28 58 80 bc
       0.20465022 -0.10772215 -0.042416684 -0.015667036
000120 3f 53 26 3e a8 02 cc 3c 36 19 13 3d 0d 44 36 be
       0.16242693 0.02490361 0.035912715 -0.17799397
000130 5e 95 c7 bb 85 21 05 3d 2d f2 ba 3c a3 71 1e 3d
       -0.006090804 0.03250267 0.022820557 0.03868259
000140 33 1e 5f 3d 4a 40 6b 3d bd 6d 11 be 5e 11 21 be
       0.05447216 0.057434358 -0.14202018 -0.15729281
000150 2a fc 98 3c b1 53 ef bb fb e3 11 bd bd 4f 87 3c
       0.018674929 -0.007303678 -0.03561781 0.016517514
000160 87 53 17 3b f3 ff b8 3d e7 fa 52 bd 46 4f 73 bd
       0.0023090558 0.090331934 -0.05150881 -0.059401773
000170 87 0a c4 3c da 2b ce bd 48 b6 62 3c 9e 98 74 bd
       0.023930801 -0.10066958 0.013837405 -0.05971586
000180 be 4d 4a 3d 3d 71 2d 3e 8f d7 5c ba 20 1d 1b bb
       0.049390547 0.16937728 -0.0008424455 -0.0023668483
000190 8c a3 20 bd 55 8c f1 3d 88 be ce 3c ab d5 cc bb
       -0.03921847 0.11794344 0.025237337 -0.006251057
0001a0 e9 b9 33 39 0d 7f 4f bd 37 ba 43 3d 56 3d cd 3d
       0.00017140027 -0.050658274 0.04778501 0.100214645
0001b0 d7 c8 15 bc 09 d1 8d 3b dd 32 ac 3d b3 98 4e 3d
       -0.009142122 0.0043278974 0.08408139 0.050438594
0001c0 48 37 1a 3d c8 27 8f 3c 66 e4 75 bc a4 b3 51 3d
       0.037650377 0.017475024 -0.015008068 0.05119671
0001d0 d4 18 2b 3e 97 dd 6b 3d 4a 3d 72 3d 8b 3a 87 3c
       0.1670869 0.05758437 0.05914048 0.016507408
0001e0 f1 ac 1b bd bf fa 54 bd c2 7c 7d 3d cd dc d5 3d
       -0.038006727 -0.051996943 0.061886556 0.10442505
0001f0 78 1b 00 3d 15 b8 cd 3d 0a f4 d3 3d 40 e4 be 3c
       0.031276196 0.100448765 0.10349281 0.023302197

a2c_network.mu.weight f4 [2, 128]
000000 8b c6 dd 3c 60 95 50 bc 99 52 07 bb 8f c1 94 bd
       0.027072212 -0.012730926 -0.0020648597 -0.07263481
000010 cd 0b c5 bc cc 1f 1b bb 4b f4 f3 3c 93 1c 61 3c
       -0.024053479 -0.0023670075 0.029779574 0.013739723
000020 16 b1 7b b9 38 6f 12 bb 1a 73 90 bc fc 22 04 3d
       -0.00024003195 -0.0022344124 -0.01763301 0.032259926
000030 ae 23 ae bc f4 46 f9 bb ca 60 1c 3d b8 04 4e ba
       -0.021257248 -0.007607335 0.038178243 -0.00078589795
000040 d6 2f 04 bb 23 40 1b bb 9f 9c 19 bd 95 19 ae ba
       -0.0020170114 -0.0023689352 -0.03750288 -0.001328277
000050 d5 8d 90 ba 10 16 65 bb 81 7a 8b bd 28 20 36 3d
       -0.0011028597 -0.0034955777 -0.06810475 0.04446426
000060 87 a3 56 3c 7b cd 61 bc 08 c5 6c 3b 48 55 2a bd
       0.013100511 -0.0137819005 0.0036128182 -0.041585237
000070 11 fa fe 3d f7 49 44 39 e2 39 68 3c 39 93 d5 bc
       0.1245004 0.0001871957 0.014173957 -0.026071178
000080 34 2c 42 3a 70 7f bc 3b 54 ee ef bc 6a 09 0e 3c
       0.00074070995 0.0057524964 -0.029288448 0.008669237
000090 a8 22 e8 bb 7f 38 cd 3b 2e 7d f5 ba 23 01 30 b9
       -0.0070842095 0.0062628384 -0.0018729323 -0.00016785091
0000a0 28 e8 5e ba 98 c1 f9 3a bf 85 89 3c 56 f7 a3 bb
       -0.0008503222 0.0019054888 0.016787408 -0.00500385
0000b0 5e 04 98 3a 7d b9 ea bd 3c e6 ae ba 47 08 90 bd
       0.0011597981 -0.1146116 -0.0013343762 -0.07032829
0000c0 7e bf 54 bd 7a fb f3 bb 60 94 77 3d 19 58 9f 39
       -0.051940434 -0.00744575 0.060444236 0.0003039248
0000d0 04 a8 c1 ba 13 d0 2b bc a2 60 06 b9 3a 03 bd 3b
       -0.0014774804 -0.0104866205 -0.00012815234 0.005768207
0000e0 71 1e 49 3c 4e 07 8d ba 4e 15 37 bd ad c2 33 bb
       0.012275324 -0.0010759623 -0.044698052 -0.0027429268
0000f0 fb b9 31 bc 47 80 92 3b 17 35 00 bb 85 d3 5b ba
       -0.010847564 0.0044708583 -0.0019562894 -0.0008385706
000100 ed 0b ab 3b 39 1e 0b bd 84 7f 86 3c dd 88 8a bc
       0.0052199275 -0.03396437 0.016418226 -0.016910965
000110 c9 fd b0 3b e3 89 f7 3c 1b b5 06 b7 8e b3 00 bc
       0.0054013473 0.030217117 -8.029189e-06 -0.007855309
000120 e7 97 a7 bd 21 6b ff bc e2 f5 5f 3b c9 94 c5 bb
       -0.0818327 -0.031179013 0.0034173657 -0.0060296995
000130 59 ac 8c bc ee 1b eb ba ec a8 10 3b 19 40 e2 bc
       -0.017172026 -0.0017937401 0.0022073342 -0.027618455
000140 81 af 17 bd 03 2d c6 bc 9d 82 5d 3b bf ce 2b 3d
       -0.037032608 -0.024191385 0.0033799775 0.041945215
000150 9d cb 81 3d fa 3c 31 3c a1 3f 67 bc ec 63 9f 3d
       0.06337664 0.010817761 -0.014114291 0.077827305
000160 03 aa 96 3c 33 89 46 3d f6 a5 0e 3c aa fa 3e 3b
       0.018391615 0.048470687 0.00870656 0.0029141107
000170 41 98 95 39 e7 5b 72 bd 8e bc dd be be 0a 96 ba
       0.00028532933 -0.059169676 -0.43307918 -0.0011447293
000180 36 25 3f ba 97 ac 27 ba fb 9c f8 bc 1d 28 33 bc
       -0.00072916166 -0.00063962623 -0.030348292 -0.010934857
000190 e3 8f 6f 3d c7 2f 4e 3d 88 d5 9b 3c df 77 c4 bc
       0.05848683 0.050338533 0.019022718 -0.02398294
0001a0 5a cf 9a bc 23 1c 5e bd 2d 50 35 3c dd 84 fb 3c
       -0.018897701 -0.054226052 0.011066479 0.030703003
0001b0 15 9c 7e 3a 03 45 48 3d 91 5c 2d 3b e4 53 03 bb
       0.0009712589 0.04889394 0.002645288 -0.0020039016
0001c0 e5 0a c3 3a a2 5a da 3b be 20 68 3a 27 9d bb ba
       0.0014880566 0.0066636363 0.00088549766 -0.0014313803
0001d0 33 30 e0 3a e2 75 92 3b a1 74 0f ba 11 60 1d 3a
       0.0017104208 0.004469619 -0.0005472396 0.000600339
0001e0 5d 08 45 3a a4 e2 4b ba 90 c1 01 3b 48 10 ce 3d
       0.00075162 -0.00077776075 0.001979921 0.10061699
0001f0 61 3b 30 3c 58 72 82 bb cb 89 ab bb 5b 85 86 3c
       0.010756345 -0.003980916 -0.005234932 0.01642101
000200 84 be a1 bd de d7 ff 3b 40 ad 15 3b ab 1e 62 3c
       -0.07897666 0.007807716 0.002283886 0.013801257
000210 1d 9d b1 bd 9d 3e 80 ba 30 35 99 bd e5 db 84 3e
       -0.08672545 -0.0009784285 -0.07480848 0.25949016
000220 4a be a9 bb 3d d6 33 ba 2b 62 cc 3b 66 bc 43 3d
       -0.005180155 -0.0006860232 0.0062372885 0.047787093
000230 c7 62 53 3d 5a 0d 28 bd 58 e1 d3 3c 2d 0b d1 bb
       0.051607873 -0.041028358 0.025864288 -0.006379506
000240 be 86 f3 b9 5a be 20 bc e9 e5 5b bc 6f 8a 5f bb
       -0.00046448963 -0.009811008 -0.013421514 -0.0034109612
000250 f2 bb cb 3a 25 12 21 bb d7 e4 97 3d 3c 8e a5 3a
       0.0015543683 -0.0024577465 0.074166946 0.001263089
000260 8c c4 2c bd db 30 c4 3c 91 40 c1 3c 59 2e 38 3d
       -0.04217963 0.023949077 0.023590358 0.044966076
000270 7b ba e0 bd 9a d0 42 bb 19 8c 12 bd 26 08 59 bd
       -0.10973068 -0.0029726387 -0.03577814 -0.052986287
000280 2b 58 93 3a af 3d 22 ba e3 f8 fe 3b f4 77 27 3c
       0.0011241486 -0.0006189001 0.0077811345 0.01022147
000290 d7 45 4b 3d 16 a0 23 3c d6 98 60 3b 2e eb 65 3a
       0.04962715 0.009986898 0.0034270785 0.0008770701
0002a0 98 3c 4d bb 88 d3 21 3b 28 56 15 bd ea 4b 82 bc
       -0.0031316634 0.0024692733 -0.036459118 -0.01590534
0002b0 4a 66 22 3b 27 4c be 3c 68 29 3f 3a c5 e8 19 3c
       0.0024780207 0.023229672 0.0007292242 0.0093938755
0002c0 3f 9b e8 bc 2e a0 c2 3c 75 72 d7 bb 06 69 38 bc
       -0.02839434 0.02375802 -0.0065749236 -0.011255508
0002d0 50 6f af 39 2f 43 ef bd 28 fd 06 bc 73 dc df bb
       0.00033461535 -0.11682736 -0.008239068 -0.0068316995
0002e0 e5 c6 17 be f3 51 1f ba 2a a0 15 3e 19 65 96 bb
       -0.14821966 -0.000607758 0.14611879 -0.0045896885
0002f0 ed 4f 4c 3d 75 1e 08 3b 78 7e a7 3a f6 07 ad ba
       0.04988091 0.0020770107 0.001277878 -0.0013201225
000300 87 26 4e 3b 4e 11 95 3d db d0 75 bd 37 c0 a7 bd
       0.003145607 0.07278691 -0.060013633 -0.08190959
000310 10 92 f3 bb 72 cc 83 3d 7f b7 a5 3a d8 23 33 bd
       -0.0074331835 0.06435479 0.0012643187 -0.043735355
000320 d2 dd 7c ba 64 67 52 3c ad ae da ba cc 62 d8 3b
       -0.0009646091 0.012842033 -0.0016684138 0.0066035744
000330 20 44 5a bd 0c db 0e ba 41 88 1f bb bd 63 6d bc
       -0.053287625 -0.00054495106 -0.0024342688 -0.0144891115
000340 91 5b fc 3c ea 13 37 3d 59 a9 13 3b b3 04 74 3d
       0.030805381 0.044696726 0.002253136 0.059574794
000350 0a 24 d0 3b 95 a5 a7 3d 98 42 8f 3d 69 e9 07 bd
       0.0063519524 0.08185879 0.069951236 -0.03318158
000360 50 90 9d bd 0b cc ae 3d e5 c4 6a bc 09 2b 8c 3d
       -0.07693541 0.08535012 -0.01432917 0.06844146
000370 42 66 53 ba 77 ae 58 bd 98 3c b7 bd b1 bd 6b 3a
       -0.0008064249 -0.052900758 -0.08947104 0.0008992805
000380 e3 19 6c 3b 87 38 1b bb c4 14 f3 bd 11 45 3d 3d
       0.0036026172 -0.0023684816 -0.11869195 0.046208445
000390 b7 89 0f be c9 15 dc bc 91 73 1d 3d 03 b1 88 bb
       -0.14017378 -0.026865857 0.03844029 -0.004171492
0003a0 3f 38 3e be e2 54 ca bd 44 19 ce bc cf 97 f4 3c
       -0.18576144 -0.09879471 -0.025158532 0.029857544
0003b0 d1 d2 55 bb c0 f6 c1 bc 68 f9 d5 3a 0c af b9 b9
       -0.0032626877 -0.02367723 0.0016324939 -0.0003541637
0003c0 48 a1 d9 b9 1b df 8a 3d b1 9f 1d bb 69 c5 3e ba
       -0.0004150963 0.06780835 -0.0024051482 -0.0007277341
0003d0 29 64 6f ba 3a dc a6 bb c3 4a 9e 38 f3 48 3c 3a
       -0.00091320515 -0.005092171 7.5479526e-05 0.0007182501
0003e0 4d 1c 0f bb 63 16 7c 3c 7e af 58 ba 20 64 82 bc
       -0.0021836937 0.015386197 -0.00082658965 -0.015916884
0003f0 8b 02 7e bd e2 b3 ac 3a 23 eb d2 bb 77 32 14 3e
       -0.062014144 0.0013176168 -0.006436722 0.14472376

a2c_network.mu.bias f4 [2]
000000 95 18 b2 3d 83 28 a1 bc
       0.08696095 -0.019672638

exp_avg f4 [2]
000000 f2 93 41 3b 6b 32 a6 37
       0.0029537645 1.981222e-05

exp_avg_sq f4 [2]
000000 cb d8 27 38 88 38 19 38
       4.0017807e-05 3.653069e-05

exp_avg f4 [128, 6]
000000 67 fc c6 b8 a7 66 93 39 f3 89 12 ba ed ec b2 38
       -9.488389e-05 0.00028114507 -0.0005590014 8.531832e-05
000010 9d 69 c0 b8 47 f1 9a b9 6a 5b ef 39 3c 29 07 b9
       -9.1749454e-05 -0.00029552935 0.0004565374 -0.00012889964
000020 62 97 86 39 90 2b 64 39 c3 4b 86 38 03 74 d0 b9
       0.0002567126 0.00021760003 6.40373e-05 -0.00039759287
000030 29 f8 84 3a d3 28 4b b9 a7 a0 6f ba da 62 7b b9
       0.0010144758 -0.00019374797 -0.00091410655 -0.0002397405
000040 ae b6 e9 b9 05 51 10 ba e7 7e 9a ba 1c 87 31 b8
       -0.0004457733 -0.0005505237 -0.0011787087 -4.232592e-05
000050 36 48 0f 3a 1c f2 2a 3a 2c 13 99 39 64 4c 00 ba
       0.00054657774 0.00065210625 0.00029196718 -0.00048941956
000060 ed d9 04 3a a2 9e 79 b9 46 81 80 b9 1e c6 16 b8
       0.0005067874 -0.00023805586 -0.0002451038 -3.5947298e-05
000070 d6 97 ed 38 87 e6 c8 38 bc 4e f5 b9 75 44 06 39
       0.00011329322 9.579682e-05 -0.00046788703 0.00012804738
000080 f1 e5 42 39 3e 4c 9d 39 d2 7e 27 39 eb 29 11 39
       0.00018586942 0.00030002178 0.00015973605 0.00013843893
000090 4d 7c 23 b9 a3 5e f1 38 38 f7 f2 37 d1 9b b9 b8
       -0.00015591197 0.00011509403 2.8963768e-05 -8.8505105e-05
0000a0 d9 8d a0 b8 01 fd 0f 3a 25 88 dc 38 cc e3 36 39
       -7.655816e-05 0.00054927176 0.000105157764 0.00017441734
0000b0 ab 15 59 b9 32 32 40 b9 76 05 c5 b8 ee 6c 14 38
       -0.00020702805 -0.00018329246 -9.394709e-05 3.53874e-05
0000c0 3d bf 4e b9 21 b4 24 38 89 6f d6 39 fb b7 60 3a
       -0.00019716933 3.9268405e-05 0.0004090036 0.0008572337
0000d0 26 c4 e7 37 ca 25 50 ba 20 63 10 3a 84 a5 18 39
       2.7628685e-05 -0.00079402013 0.0005507935 0.00014557509
0000e0 31 e8 7c ba 02 e7 00 ba 60 88 04 ba 75 f9 48 b8
       -0.00096476363 -0.00049172353 -0.0005055722 -4.791604e-05
0000f0 2c 31 7e 3a 81 43 5c 39 65 ff a6 b9 c5 78 46 b9
       0.0009696658 0.00021005982 -0.0003185227 -0.00018927742
000100 20 bd 88 39 b7 d1 89 3a 54 58 f0 39 3a 5d 6a b8
       0.0002608085 0.001051477 0.00045842177 -5.587677e-05
000110 d8 78 d0 39 bc 35 fe b7 84 3a c6 39 27 dc e6 b9
       0.00039762887 -3.0304182e-05 0.000378091 -0.00044033045
000120 4a 2c 97 b8 53 eb ea 38 1e 45 5d 39 d3 90 2b b8
       -7.2084906e-05 0.00011201822 0.0002110195 -4.0904455e-05
000130 a8 0a b8 39 28 a4 f7 39 9c 8d 69 39 c6 21 07 b8
       0.00035103154 0.00047233817 0.00022273365 -3.2217962e-05
000140 ac 27 08 ba c3 df 8d b9 2c 13 a7 b9 6e 78 e3 b9
       -0.00051939 -0.0002706033 -0.00031867006 -0.0004338654
000150 d1 fc b4 39 12 0a 8a b9 0b 30 8d b7 29 48 11 3a
       0.00034520638 -0.00026328914 -1.6830882e-05 0.0005542064
000160 9a 05 8d b9 db 5f 00 ba 38 58 f9 b9 bb 0f a7 b8
       -0.0002689779 -0.0004897096 -0.0004755871 -7.9661106e-05
000170 4c 4f 66 38 18 53 6c 38 85 f0 36 b8 f0 29 4f b9
       5.4910124e-05 5.634417e-05 -4.3616183e-05 -0.00019756681
000180 83 38 8d 39 24 32 3c b7 cd 7d 12 3a ba 31 87 b8
       0.0002693572 -1.12173475e-05 0.0005588204 -6.446564e-05
000190 1e 05 af 39 d2 84 7b 39 8d c3 11 39 c7 75 90 39
       0.00033382414 0.00023986705 0.00013901126 0.0002755357
0001a0 95 b3 29 39 cd 6f ea b9 15 59 25 39 f5 03 69 3a
       0.00016183995 -0.00044715256 0.00015768812 0.0008888834
0001b0 fd b7 a5 b8 e4 76 18 39 aa 88 b0 b9 f8 2d 6b b8
       -7.9020836e-05 0.0001454014 -0.0003367116 -5.6071178e-05
0001c0 fd 43 8f b9 32 49 fc 39 61 c7 b0 b9 3c a0 4d 38
       -0.0002732574 0.0004811972 -0.00033717885 4.902504e-05
0001d0 80 a2 96 b9 55 d6 80 36 fc 17 a8 b9 dd 28 f4 3a
       -0.000287313 3.839649e-06 -0.00032061327 0.0018627901
0001e0 4e b5 0e 39 81 44 42 b7 75 f3 e3 38 78 e8 14 b9
       0.00013609717 -1.1579251e-05 0.00010869551 -0.00014200981
0001f0 44 29 3d 39 65 5a 1b 3a 4d 13 37 3a 86 9f 6d 39
       0.00018039817 0.00059262506 0.0006983772 0.00022661508
000200 bd fa e2 b7 49 18 88 39 2a 3c 5b b8 61 48 d0 b9
       -2.7058059e-05 0.00025958035 -5.22697e-05 -0.00039726778
000210 80 3b 70 38 3b af 39 39 eb 45 51 38 75 0c 46 39
       5.7275873e-05 0.00017708253 4.98946e-05 0.00018887392
000220 d0 6a d3 37 08 19 35 38 5c 4a 0d 3a cd 86 a0 b8
       2.5202899e-05 4.3177075e-05 0.00053898036 -7.654503e-05
000230 9f 20 87 b9 e5 94 5b b9 71 59 77 b9 9f d1 a5 39
       -0.0002577351 -0.00020940935 -0.00023589075 0.00031627432
000240 68 45 0f 3a 25 d2 d9 b6 41 14 d0 b9 e8 52 83 ba
       0.00054653594 -6.491568e-06 -0.00039687942 -0.0010019215
000250 2a c8 63 b9 6d b8 2d 39 48 f7 57 3a 4f 99 02 b7
       -0.00021722974 0.0001656727 0.0008238447 -7.784299e-06
000260 25 8d 82 ba bc 5a 08 ba 3b b6 12 ba d6 bb 0d ba
       -0.0009960277 -0.0005201509 -0.00055966125 -0.0005406713
000270 9d 80 97 39 f8 bb 06 ba 37 b5 2d 39 07 bf ac b9
       0.0002889679 -0.0005139704 0.00016566073 -0.00032948723
000280 30 24 7a 38 c6 e7 08 b8 fc 5a b2 b9 cc ed 38 39
       5.9638347e-05 -3.2640783e-05 -0.00034018594 0.00017636194
000290 cf 54 25 3a 1a bf 8f 39 89 6f f2 39 e8 2f 69 3a
       0.0006306888 0.00027417467 0.00046240937 0.0008895383
0002a0 44 c5 e1 39 bf e7 ae b9 46 a6 2e ba 04 ce 90 b9
       0.0004306232 -0.0003336053 -0.000666235 -0.00027619314
0002b0 d1 65 ad b9 39 56 c9 b9 94 28 18 3a 14 04 0f b9
       -0.0003307299 -0.00038401948 0.00058043865 -0.00013639062
0002c0 e9 5a 2b ba f8 e3 b1 b9 36 e5 00 ba 20 d8 35 ba
       -0.0006536679 -0.0003392992 -0.00049169676 -0.0006936807
0002d0 64 35 6d b9 0d 6b e8 39 35 80 a5 39 6d c2 2e b9
       -0.00022621971 0.00044330247 0.00031566774 -0.00016666362
0002e0 ef fd 99 39 c3 06 63 b9 c2 d4 93 39 29 57 63 3a
       0.0002937163 -0.00021650926 0.00028196542 0.00086723507
0002f0 15 f5 3e ba 6e 94 e1 b9 d6 bf 35 b9 c0 b7 9b 3a
       -0.0007284445 -0.00043025933 -0.0001733297 0.0011880323
000300 ec 01 d8 36 8e b4 69 b9 4d ef b0 38 a3 49 e2 b8
       6.4375254e-06 -0.00022287873 8.436907e-05 -0.00010790236
000310 e3 94 30 39 62 ea 27 39 70 aa 03 3a 28 26 af b9
       0.00016840133 0.00016013675 0.00050226506 -0.0003340703
000320 61 a4 9f 39 94 f7 01 39 11 10 4c 39 00 df 81 ba
       0.00030449315 0.00012394629 0.00019460941 -0.0009908378
000330 ca 6e 98 39 b4 c5 c2 b9 6b 43 36 3a bb 9d e0 39
       0.00029074244 -0.00037149864 0.0006952795 0.00042842128
000340 8d fe 68 39 ce 7a 35 ba c4 2b 74 b9 71 3c 0a 38
       0.00022220072 -0.00069229014 -0.00023285957 3.2958054e-05
000350 1f 7c 1b 39 88 99 e8 38 06 9a fc 38 81 51 a9 b9
       0.0001482819 0.000110912195 0.000120449855 -0.00032294917
000360 ee 66 ad b9 85 14 29 b7 77 95 49 3a 67 ea e7 39
       -0.0003307382 -1.00779625e-05 0.00076898135 0.00044234397
000370 71 b6 12 3a 1c 7a 1b 3a 93 de 1c 3a a2 06 f3 b8
       0.0005596644 0.00059309765 0.0005984094 -0.000115883784
000380 6b 72 8f ba 8f a4 c3 b9 99 1e 56 ba 68 fe d4 ba
       -0.0010944133 -0.00037315904 -0.00081680116 -0.0016250135
000390 cc ab 3c 38 c3 74 bf b8 cd 41 2a b9 02 8b 33 39
       4.498269e-05 -9.129338e-05 -0.00016236976 0.00017122555
0003a0 97 db b3 b9 17 26 40 ba 0b d3 f7 b8 b1 b4 2e b9
       -0.00034305148 -0.00073298946 -0.000118171876 -0.00016661246
0003b0 83 ea 24 39 f1 51 b8 39 3e 1a 99 38 58 d9 84 b9
       0.00015727621 0.00035156266 7.3004965e-05 -0.00025338936
0003c0 6a 8e 46 3a 78 bc 40 3a 48 52 2a b9 b0 1c 44 ba
       0.0007574322 0.0007352303 -0.00016243116 -0.00074810814
0003d0 8b ea 29 39 94 7c 96 3a 5a 27 b3 b9 cc 5a 89 b9
       0.0001620447 0.0011481219 -0.0003417086 -0.00026198325
0003e0 c5 4f 17 b9 6a f9 16 b9 83 fe a9 b9 8f 36 a9 b9
       -0.00014430199 -0.00014398029 -0.00032423818 -0.0003227484
0003f0 73 16 69 3a ed a2 8f 39 6d d8 94 b9 91 cf ef b9
       0.000889159 0.00027396475 -0.0002839001 -0.0004574028

exp_avg_sq f4 [128, 6]
000000 6c 1d c4 36 56 12 cd 36 ea 11 1e 37 3e ca 38 36
       5.8446803e-06 6.1116107e-06 9.421705e-06 2.7535857e-06
000010 b5 da a8 36 63 62 f0 37 31 c5 64 36 f1 6b 2e 36
       5.032251e-06 2.8656044e-05 3.4089428e-06 2.599085e-06
000020 cc 11 57 36 72 38 bf 35 51 ea 03 36 1a d3 46 37
       3.2047856e-06 1.4247037e-06 1.9656911e-06 1.1850871e-05
000030 8b f1 d0 37 34 bb 29 37 92 8f 1e 37 c4 66 82 37
       2.490801e-05 1.0116772e-05 9.450961e-06 1.5545062e-05
000040 ee 2f 29 36 05 cd 9e 38 f6 55 69 37 2a 32 cd 36
       2.5210861e-06 7.572215e-05 1.3907897e-05 6.115316e-06
000050 05 a0 5f 36 b0 1f 7d 37 7d 9e b8 35 36 b6 ee 38
       3.3322733e-06 1.5087353e-05 1.3755194e-06 0.00011382664
000060 65 de 13 37 95 46 fa 36 84 db 42 37 5e 26 03 37
       8.813663e-06 7.4587974e-06 1.1614411e-05 7.8171415e-06
000070 1d 45 0a 37 0a 47 3f 38 f7 6a c7 36 b2 06 86 36
       8.241533e-06 4.560411e-05 5.9431145e-06 3.9942906e-06
000080 8b e0 d5 36 c1 d4 a7 36 c4 29 4b 36 e0 ea e8 37
       6.374035e-06 5.0017557e-06 3.0273668e-06 2.7765927e-05
000090 81 27 28 37 40 50 29 36 55 e8 a1 36 3d 09 19 37
       1.0022778e-05 2.5229674e-06 4.825221e-06 9.121662e-06
0000a0 b9 f9 53 36 bd b7 ac 37 88 8c 3c 36 ce 24 51 36
       3.1586808e-06 2.0589558e-05 2.8095983e-06 3.116485e-06
0000b0 ac 87 98 36 90 7c 38 36 3c 7e 15 36 e1 8a 74 37
       4.5457473e-06 2.7490642e-06 2.2276208e-06 1.4575869e-05
0000c0 92 c8 76 37 18 ad a4 36 4c ad 17 36 ae af 3b 37
       1.47094415e-05 4.9077316e-06 2.2601625e-06 1.1186972e-05
0000d0 46 e9 61 35 4c a8 8c 38 55 8d 1d 37 cb d6 9f 36
       8.415849e-07 6.707068e-05 9.390836e-06 4.7635745e-06
0000e0 77 a9 9e 36 68 ff ea 36 42 1b 0c 36 5f cd 54 38
       4.7284952e-06 7.0034766e-06 2.0877492e-06 5.0736006e-05
0000f0 0b 4c 8d 37 15 08 18 37 e0 65 aa 36 58 df 13 37
       1.684392e-05 9.061788e-06 5.0782546e-06 8.813884e-06
000100 34 fa 98 36 00 0e f1 37 87 bf bc 36 a6 10 31 37
       4.5590805e-06 2.8735958e-05 5.6251333e-06 1.0553898e-05
000110 6e af 81 37 5f 73 ec 36 08 9b 26 37 b7 39 20 38
       1.545969e-05 7.046779e-06 9.930467e-06 3.8200724e-05
000120 3e fa ba 36 ed 57 e3 36 98 06 dc 36 28 97 5c 36
       5.572364e-06 6.775363e-06 6.5572785e-06 3.287054e-06
000130 3d 6b 8b 36 79 b5 75 37 8c 89 89 36 b1 61 a1 35
       4.155007e-06 1.464539e-05 4.0989307e-06 1.2023867e-06
000140 cc ae 1a 36 d8 e1 61 36 7d 95 ce 35 4a c2 9b 37
       2.3049533e-06 3.365907e-06 1.5391703e-06 1.8567913e-05
000150 82 8f a1 36 70 75 97 36 a4 86 e8 36 6f 43 90 36
       4.8148804e-06 4.513822e-06 6.929813e-06 4.2993847e-06
000160 af 7e 5e 36 0f b0 fa 37 ce fb 9f 37 3b ae e5 36
       3.3154317e-06 2.9884306e-05 1.9071533e-05 6.845015e-06
000170 b3 73 eb 36 03 7a f5 36 74 08 0a 36 1d 25 65 38
       7.017015e-06 7.315773e-06 2.0568523e-06 5.463242e-05
000180 34 0c 80 36 ed 44 91 36 c4 6c b1 36 23 dd 58 36
       3.816118e-06 4.3293608e-06 5.287673e-06 3.2315227e-06
000190 2c 9e 2e 36 7d 8c ad 37 a8 7a 2f 37 eb 7b c7 36
       2.6020089e-06 2.0688627e-05 1.0459371e-05 5.945088e-06
0001a0 3c 30 ff 36 43 04 00 37 6d 71 90 36 e1 bb ac 37
       7.6052074e-06 7.630387e-06 4.304739e-06 2.0591486e-05
0001b0 e4 de eb 35 e6 bb 87 34 b9 46 11 35 dc 89 df 35
       1.7573734e-06 2.5282424e-07 5.4119624e-07 1.6654917e-06
0001c0 d6 28 d7 34 df 2a 1e 37 f3 5f 9c 36 4e 4d 8a 36
       4.0076583e-07 9.427516e-06 4.6603323e-06 4.12172e-06
0001d0 fb 40 05 37 b4 d6 ef 36 28 df 9a 36 b9 a6 5b 38
       7.942547e-06 7.14775e-06 4.6155365e-06 5.236894e-05
0001e0 b0 bc 80 36 0d 7c b3 36 26 d9 fd 36 58 6a 48 36
       3.8366634e-06 5.349057e-06 7.565267e-06 2.9864223e-06
0001f0 41 2a c3 36 9a 78 71 37 a5 47 71 36 7e 7e 75 35
       5.816372e-06 1.4392799e-05 3.59535e-06 9.145368e-07
000200 a6 ac fa 34 ba 4a 37 36 fe d3 be 34 da b8 d4 37
       4.6691747e-07 2.7312622e-06 3.5544502e-07 2.5358448e-05
000210 cc 3a de 36 38 cb d7 35 88 86 d7 35 6b 00 01 37
       6.6229604e-06 1.6077893e-06 1.6057902e-06 7.6890965e-06
000220 a2 77 5e 35 9c e6 6a 38 5a 1a bc 36 b2 a8 17 36
       8.2875533e-07 5.600472e-05 5.6059043e-06 2.2598947e-06
000230 8d 08 82 35 e8 dc d3 36 5e 17 04 35 db cf 27 38
       9.688243e-07 6.314007e-06 4.9207836e-07 4.0009483e-05
000240 0f 85 f4 37 7c 82 40 37 4c cd c8 36 71 f2 d4 37
       2.9149027e-05 1.1474473e-05 5.984364e-06 2.5385265e-05
000250 86 7d df 35 c6 50 45 39 82 1d 40 38 9a 0d cf 37
       1.6651327e-06 0.00018817474 4.580385e-05 2.4682657e-05
000260 b4 f2 c8 37 a2 4f 05 38 e9 49 b5 36 c5 47 73 39
       2.3954875e-05 3.1783835e-05 5.4028246e-06 0.00023201022
000270 85 91 cf 36 bc 40 8f 36 e9 14 cc 36 44 69 af 36
       6.1860214e-06 4.269268e-06 6.082108e-06 5.227661e-06
000280 a2 29 74 36 a6 57 4d 38 e6 15 4e 37 f8 51 82 36
       3.6383067e-06 4.8957438e-05 1.2283655e-05 3.8838443e-06
000290 52 b8 db 36 8c 3f 3c 37 1e 74 22 36 05 f5 89 38
       6.5481663e-06 1.1220469e-05 2.420747e-06 6.5783075e-05
0002a0 89 bb f5 37 58 38 90 37 45 49 a9 37 bb 61 ec 37
       2.9293604e-05 1.7192375e-05 2.0180489e-05 2.8178902e-05
0002b0 72 82 d6 36 62 6d 33 39 69 12 21 38 53 11 a6 37
       6.392883e-06 0.00017111519 3.8402537e-05 1.979681e-05
0002c0 c6 ab b4 37 37 38 21 38 1a 16 e5 36 59 a8 4d 39
       2.153766e-05 3.8437745e-05 6.827305e-06 0.00019613038
0002d0 9a 5d 33 36 6a d0 11 36 60 0d 6f 36 db 31 2a 36
       2.6727562e-06 2.1727997e-06 3.562156e-06 2.5360994e-06
0002e0 c0 88 04 36 79 7d 19 37 55 f4 0e 37 0a 2d 2b 37
       1.9749132e-06 9.1487245e-06 8.5207475e-06 1.0202881e-05
0002f0 c3 28 79 37 d2 87 35 36 41 dd 3f 37 df 69 b6 37
       1.4851047e-05 2.705016e-06 1.1436002e-05 2.174539e-05
000300 4f bd 0b 37 4c 3d fc 35 5e 5d 7d 36 a6 02 02 37
       8.3291225e-06 1.8793303e-06 3.7754285e-06 7.7492205e-06
000310 2a e9 2f 36 28 e0 85 37 4f a1 3d 36 35 0a 24 36
       2.6212751e-06 1.5959216e-05 2.8257089e-06 2.4443846e-06
000320 cc 3a 6a 36 ed 9e 21 36 9e f9 14 36 61 14 86 37
       3.4902941e-06 2.4083377e-06 2.2199015e-06 1.5983534e-05
000330 96 c4 fa 36 19 16 8e 36 d4 f6 af 36 43 55 32 36
       7.473466e-06 4.2345023e-06 5.244141e-06 2.6573696e-06
000340 da 8e 67 36 06 e1 cd 37 68 69 04 36 44 67 3e 35
       3.4504833e-06 2.4542689e-05 1.9730887e-06 7.0930787e-07
000350 2d fb ca 34 ac 3d 1f 36 3f f6 90 34 7f d1 80 37
       3.7808186e-07 2.3728744e-06 2.7001258e-07 1.5356343e-05
000360 c7 28 b2 37 1d 70 20 37 46 c6 25 37 31 6d 54 37
       2.1238242e-05 9.562847e-06 9.8809305e-06 1.2661608e-05
000370 59 55 7b 36 a4 dd c5 38 fc 26 9e 38 cd 59 1d 38
       3.7451593e-06 9.434976e-05 7.5412885e-05 3.751535e-05
000380 5b c0 26 38 22 20 91 38 c1 be 48 37 d9 01 b7 39
       3.975663e-05 6.920124e-05 1.1965342e-05 0.00034905857
000390 56 4d 00 37 e0 38 7e 36 5b a8 f6 36 2a 49 06 37
       7.647401e-06 3.7882055e-06 7.3509705e-06 8.004057e-06
0003a0 64 a3 60 36 c2 b1 4a 38 3d 07 52 37 0c 56 88 36
       3.3473707e-06 4.8326103e-05 1.2518661e-05 4.063133e-06
0003b0 5a d6 18 36 2a 9e 5e 37 95 db 9f 35 9e 1a cc 38
       2.2774534e-06 1.3269057e-05 1.191033e-06 9.732436e-05
0003c0 95 03 2f 37 1d c4 73 37 2b 97 af 37 c5 fd fe 36
       1.0431647e-05 1.452959e-05 2.0932019e-05 7.5993325e-06
0003d0 ff e0 85 37 42 40 c1 37 d7 ed a9 35 a5 8b ac 35
       1.5959607e-05 2.3037315e-05 1.2660702e-06 1.285564e-06
0003e0 3e fb 96 35 fc e8 a1 35 2a 20 73 35 5e b6 9d 36
       1.1248992e-06 1.2063242e-06 9.057136e-07 4.700195e-06
0003f0 38 6e ad 37 40 93 34 37 7b 45 44 37 88 c9 81 37
       2.0674532e-05 1.076312e-05 1.1698688e-05 1.5471844e-05
