kingfisher_rl/config/ASV_GoThroughPosition.pth (torch, 229707 bytes, 30 tensors)

value_mean_std.running_mean f8 [1]
000000 ae e3 a4 5e f3 0f a2 3f
       0.03527794390033222

value_mean_std.running_var f8 [1]
000000 d3 d5 64 61 6f 82 c9 3f
       0.19929306273995326

value_mean_std.count f8 []
000000 00 00 00 10 00 40 7f 41
       32768001.0

running_mean_std.running_mean_std.state.running_mean f8 [7]
000000 f0 41 ac a8 c7 5a e6 3f b4 0b c1 94 5a de 75 bf
       0.6985815328972063 -0.005339006264025881
000010 0c b7 1b 3d e7 ee 9c 3f bb 34 53 81 da ca e0 3f
       0.028255093674423512 0.5247623945121157
000020 d6 ed 92 8d 43 23 74 bf ed b7 e5 6c aa 9f 0c 40
       -0.004916442755696212 3.5779617793659697
000030 00 00 00 00 00 00 00 00
       0.0

running_mean_std.running_mean_std.state.running_var f8 [7]
000000 14 57 bf b2 18 b4 c3 3f fe 44 c5 37 02 58 78 3f
       0.15393360832120406 0.005943306601993157
000010 6f fe 98 77 1b 54 b8 3f b7 a9 1f 82 9b da da 3f
       0.09503337545265265 0.4195927401293846
000020 d0 3b 31 43 8d 86 d3 3f 95 20 ee a4 39 03 1b 40
       0.30508739053487677 6.753149582895408
000030 61 b2 2a c2 4d 62 70 3e
       6.103515252470978e-08

running_mean_std.running_mean_std.state.count f8 []
000000 00 00 00 20 00 40 6f 41
       16384001.0

a2c_network.sigma f4 [2]
000000 6e d8 37 c0 77 bb 49 c0
       -2.8725848 -3.152067

a2c_network.actor_mlp.0.weight f4 [128, 7]
000000 f4 e9 99 3e 08 b9 3a 3e a2 55 ad be 4f 4b 0a 3f
       0.30061305 0.18234646 -0.33854395 0.5402116
000010 b7 d0 2c be 08 09 ab 3e 24 6e 3c be 6e b3 ee bd
       -0.16876493 0.33405328 -0.1840139 -0.11655317
000020 8a cc e3 3d 7d 29 cd be 94 da 2c 3f bd 89 bf 3d
       0.11122997 -0.40070716 0.67521024 0.09352443
000030 40 3e 4a 3f 73 aa 51 3d fd c2 8b 3d 8e 48 9a 3e
       0.79001236 0.051187944 0.068243004 0.3013348
000040 f3 fe 19 3f 17 99 54 3e 6e 52 a8 be 42 c9 9f bd
       0.60154647 0.20761524 -0.3287539 -0.07802059
000050 4d 52 32 be 74 3e a1 3d 83 f6 a8 3e c0 4c a5 3e
       -0.17414208 0.0787324 0.33000574 0.32285118
000060 5f e2 4d bd 42 a4 d2 bd c0 34 8c 3c bf b6 68 be
       -0.050264712 -0.10285236 0.017114997 -0.22725962
000070 84 89 12 3d 72 8b 44 bd 6e 3d 5b bd 8c 87 5b bc
       0.035775676 -0.047984548 -0.05352538 -0.013399016
000080 b4 4a 2e 3c 47 cb af bb 2d 58 fb bd 59 ae 06 3f
       0.010637928 -0.0053648087 -0.122726776 0.52609783
000090 e0 b0 9c 3e 05 ae 48 3f d7 6a 49 bd a8 c3 ef be
       0.30603695 0.7839053 -0.049174156 -0.4682896
0000a0 48 dc 86 3d 86 e9 d1 bd 29 e4 79 3b 79 fd 99 3e
       0.06584984 -0.10249619 0.0038130379 0.30076197
0000b0 47 1a bc 3e 9e 43 0b bf 6a c6 15 3f 19 67 28 bd
       0.36738798 -0.5440005 0.5850588 -0.041113947
0000c0 dd 8c 44 3e 7c 05 a0 3c 7e 74 80 be 33 c5 e4 be
       0.1919436 0.019533865 -0.25088876 -0.446817
0000d0 4a 42 a7 be a9 cf be 3e 1d 42 38 bd bd 50 20 3e
       -0.32667762 0.37267807 -0.044984926 0.15655799
0000e0 94 3a 41 3e 37 a6 ce 3e 1f 28 cf 3e 4c c2 ff bd
       0.18870002 0.40361187 0.40460297 -0.12488231
0000f0 18 a5 16 bd f2 f5 67 bd b8 af ee 3d 6b 46 46 3c
       -0.03677854 -0.056631036 0.116546094 0.01210175
000100 22 d5 b0 bd 8b 1c 77 bd 75 bd b2 3e 9f ca e6 be
       -0.08634402 -0.060329955 0.3491017 -0.45076463
000110 23 06 d9 be 59 d7 66 be 92 0f fa 3e 1d 24 77 3d
       -0.42387494 -0.22543086 0.48840004 0.060337175
000120 e8 2e 0a 3f e7 96 e3 bd 64 8c b6 bf 84 70 97 be
       0.53977823 -0.11112767 -1.4261594 -0.2957803
000130 65 2d 82 be 28 b3 a8 bd 9b 15 7b 3e 7d 7f 42 3f
       -0.25425258 -0.08237296 0.2451996 0.7597578
000140 b4 28 5a be db c5 bc be 8e a6 02 3f 08 71 1c be
       -0.2130459 -0.36869702 0.5103539 -0.15277493
000150 74 5b 15 3e 16 08 9a 3e a1 08 0b 3f 34 e7 ba bd
       0.14585668 0.30084294 0.5431004 -0.0912613
000160 4c 5b 9f be 96 6a ed 3d fe a4 a3 3d e3 7e fa be
       -0.3112434 0.11592595 0.07990454 -0.48924932
000170 fe 6f 9e 3e 7e 3a 9e 3e a6 5b e0 bd dd 34 0b bf
       0.30944818 0.30904 -0.109549806 -0.5437754
000180 f6 71 d8 3e 30 99 02 be 80 4b cf 3d b2 49 92 be
       0.42274445 -0.12753749 0.10121822 -0.2857185
000190 10 91 05 be 1c 80 07 be c4 12 b1 bd b8 23 96 be
       -0.13043618 -0.13232464 -0.086461574 -0.29324126
0001a0 d8 41 11 3c d5 d7 c8 be 67 39 2a bd ac 32 03 bf
       0.008865796 -0.39227167 -0.04155865 -0.51249194
0001b0 f0 d2 82 be 0d cb 52 bf a0 80 fb 3e e2 33 92 3d
       -0.25551558 -0.8234108 0.4912157 0.07138802
0001c0 57 55 15 3f 8d 5a 91 be b2 51 5c be 02 06 93 3e
       0.58333343 -0.28389397 -0.2151554 0.2871552
0001d0 14 73 69 bc e9 bb 47 bf 62 c3 26 be de a5 05 be
       -0.014248628 -0.78021103 -0.1628547 -0.13051555
0001e0 f1 23 d8 bd 9a 8b e9 bb c2 f5 66 be 21 1e 84 be
       -0.1055373 -0.0071272375 -0.22554687 -0.25804237
0001f0 8e 2e ae be 1a cc 61 be 7f ab 9d 3d 2b 88 f1 be
       -0.34019893 -0.22050515 0.07698726 -0.471742
000200 52 8a c6 3d 38 86 46 3e bf 3e d3 3f f1 9f a8 be
       0.09694351 0.19387138 1.6503524 -0.32934526
000210 cc de a3 be 7d f0 b8 3e 01 d5 a9 3c a3 d1 5f bd
       -0.32005918 0.36120978 0.020731451 -0.054643285
000220 f0 5a 09 bf 1f 5e 01 bf b0 d3 d4 3d 53 17 a9 bd
       -0.53654385 -0.5053424 0.10391939 -0.08256402
000230 22 ee 0a 3f 01 f3 be bd 1a bf 35 3f 83 f6 9a be
       0.5426961 -0.09323693 0.7099472 -0.302662
000240 0c a2 8d be ac c8 b6 3d ce ce 47 3e e6 2a 3d 3f
       -0.27662694 0.08924994 0.19512483 0.7389358
000250 db 53 4b 3d fb e7 86 be 16 6e 4e 3e 84 c9 fe be
       0.049640518 -0.26348862 0.20159182 -0.4976312
000260 ba 94 6e 3e 9e d8 90 be 9c be a3 3e 89 e6 85 3e
       0.23298922 -0.28290266 0.3198136 0.26152447
000270 ae e8 e7 3e 92 c3 60 3e 96 b2 a6 be a4 cf 2a bd
       0.45294708 0.21949604 -0.32558125 -0.041701928
000280 f7 e5 af 3e 0f 41 81 bc b2 f2 d7 3c f8 13 d8 3c
       0.34355137 -0.015778093 0.026360843 0.02637671
000290 35 1d 44 3b 24 86 1c bc 2b f0 88 3a b1 38 a6 3e
       0.0029924635 -0.009553466 0.0010447552 0.32465127
0002a0 dd 1f 34 3e a4 6e 33 be 80 eb f1 bd d3 1d d6 bd
       0.1759028 -0.17522675 -0.11812496 -0.10454907
0002b0 ab 2b 59 3e 68 9d 07 bf 32 d5 5c be 11 08 b5 be
       0.21208064 -0.5297456 -0.21565703 -0.35357717
0002c0 dc 3a 97 bd 67 fc 83 39 71 45 09 3f fc 5c b0 bf
       -0.073842734 0.00025174321 0.53621584 -1.3778377
0002d0 2b 4c f7 3e 7e f0 47 3e e9 d6 0e 3d e0 fa 04 3c
       0.483003 0.19525334 0.034872923 0.008116454
0002e0 26 94 18 3e 93 75 92 3e b7 28 9c 3e 6d d8 11 be
       0.14900264 0.28605327 0.30499813 -0.14242716
0002f0 9c f9 cc bd 8e 15 c5 bb b0 d0 91 be 21 2a 84 be
       -0.10008547 -0.0060145324 -0.28479528 -0.25813392
000300 e5 a8 ff bc c7 64 61 3d fe ce 65 bd e7 4f ad bd
       -0.031208465 0.05502775 -0.056105606 -0.08462506
000310 54 b0 37 bd 1f 41 04 3c f3 53 bc 3e 0c fa a7 bd
       -0.044845894 0.008072167 0.36782798 -0.082019895
000320 40 0f 94 bf 70 21 09 be 90 f7 a2 3e 48 06 13 3e
       -1.1567154 -0.13391662 0.318295 0.14357865
000330 6f 86 0b be 98 05 3e bd bc 45 37 bf a0 80 33 bf
       -0.13625501 -0.046392053 -0.7159078 -0.7011814
000340 49 c7 25 be 1c b4 02 3e e9 3f d0 3e 5e f7 1b be
       -0.16189303 0.12764019 0.4067376 -0.15231082
000350 74 fa 58 be 2b a3 50 be 6f a9 0f be 37 d2 81 3e
       -0.2118929 -0.20374744 -0.14029478 0.25355694
000360 4e f3 5f 3d b4 9a 6e be 28 d9 d3 3d 23 65 23 be
       0.054675393 -0.23301202 0.10344154 -0.1595655
000370 47 8a a0 be 46 8d a8 3e 15 5c 0e be f1 2c 9b bd
       -0.31355497 0.32920283 -0.13902314 -0.07576931
000380 b0 81 f9 be 9c b1 d6 3e 43 6a d1 3d d3 ca 1d 3d
       -0.48731756 0.4193238 0.10225346 0.038523506
000390 fa ef 38 bf a4 1e 43 bf cd 2b 9d be 0d 33 94 3e
       -0.72241175 -0.7621863 -0.3069748 0.289452
0003a0 5f d8 b4 3e f1 d8 e4 3d ff 3c 7b 3e 6f 4b 68 3e
       0.35321328 0.11174191 0.24534987 0.22685026
0003b0 86 f8 77 3e e5 2b 93 be 43 c9 01 3d ce 66 e3 3c
       0.24215898 -0.28744426 0.03168608 0.027758982
0003c0 8c 1d 14 3d 44 af ac bd 94 0a da bb fd 91 f4 bd
       0.03616099 -0.08431867 -0.006654093 -0.119419076
0003d0 d4 0d 8d bd f5 02 2f bd 86 79 75 bd 06 e3 0b 3e
       -0.06887403 -0.04272743 -0.059930347 0.13660821
0003e0 62 28 c3 be 9c f6 a5 3e 56 49 d4 be 55 f5 8d be
       -0.38116747 0.3241471 -0.414622 -0.27726236
0003f0 6d 3b c4 be 68 d5 fe be c1 c0 0d 3f d5 51 4e bf
       -0.38326588 -0.4977219 0.55372244 -0.80593616

a2c_network.actor_mlp.0.bias f4 [128]
000000 3d db 75 3e 19 f6 08 3f f4 ff e3 be 3c d9 9b bd
       0.24009414 0.53500515 -0.44531214 -0.076097935
000010 a9 02 9d 3b 8c f7 7c be cb 86 d1 3e c1 b9 5e 3e
       0.004791577 -0.24703807 0.4092315 0.21750547
000020 cf 39 36 bd 94 e4 07 bf 29 00 30 bf 5b e8 ea 3d
       -0.044488724 -0.5308316 -0.68750244 0.114700995
000030 05 5a 91 bc 48 21 09 bf c9 9c 95 be 5f c7 94 bf
       -0.01774312 -0.5356641 -0.2922118 -1.1623343
000040 71 36 ad 3e 22 f4 6c be 15 db fb 3e f8 14 f3 3e
       0.33830598 -0.23140004 0.49190584 0.47476935
000050 42 27 ca bc a2 18 0a 3e 19 44 bb be bc 5c 77 bb
       -0.024676923 0.13485959 -0.36575392 -0.0037744483
000060 6b 67 fb be c4 06 9b 3d 62 a0 b1 be a3 a1 c4 3d
       -0.4910234 0.0756965 -0.34692675 0.09601142
000070 34 83 79 3e 53 29 fe 3d 09 dd e9 3e dc 47 90 3d
       0.24366456 0.12410226 0.4567645 0.07044956
000080 ff 5e 4e bf e6 fc 14 3f a5 65 06 be 1f f4 6c be
       -0.806137 0.5819839 -0.13124712 -0.2314
000090 bb 9c e1 3d ce 86 b3 3e d8 a4 b0 be f7 1c 41 3e
       0.11016222 0.35063785 -0.34500766 0.18858705
0000a0 f2 bf 01 bc cd 34 aa 3d 44 78 ca 3c 44 6e 38 be
       -0.0079192985 0.08310852 0.02471555 -0.18010813
0000b0 76 fe 8e 3d 73 0b 29 bc e5 30 2f be 38 23 39 be
       0.06982128 -0.010317671 -0.17108496 -0.18079841
0000c0 a8 33 cf be c3 ea 95 bd eb 5c 66 bd c0 1d 9b 3e
       -0.40469098 -0.07320168 -0.056240957 0.30296135
0000d0 6b 2b bf 3e 9b dd f5 3e 2e d1 50 3f 83 25 23 bd
       0.37337813 0.48020634 0.8156918 -0.039830696
0000e0 35 de d9 3e 7b 84 bb be 3c 52 99 be 22 c9 f7 be
       0.42552343 -0.36624512 -0.29945552 -0.4839564
0000f0 1e de 5a 3d 28 8a f6 be f7 2f 76 3f 8f 7d 3c bf
       0.053434484 -0.4815228 0.9616694 -0.7362909
000100 25 d0 25 3f aa da 44 be 9c df bc bd 73 f1 da 3e
       0.6477073 -0.19224039 -0.092223376 0.42762336
000110 c4 63 24 3e 70 bd c6 3e 38 ed 3c be f2 30 82 3d
       0.16053683 0.38816404 -0.18449867 0.06356992
000120 ec bb 22 bf 22 85 ad bf e9 68 cf 3e 5b 76 92 bc
       -0.63567996 -1.3556254 0.40509728 -0.017878702
000130 f0 67 6d 3c 98 db 30 3f f0 ab d9 3e fb d2 e5 3e
       0.014490113 0.69085073 0.4251399 0.44887528
000140 0f c1 07 bf c9 5b 3a be 45 e4 c8 be f9 89 0a bf
       -0.5302896 -0.18199076 -0.39236656 -0.5411678
000150 53 b3 e0 3d 92 fb 12 3e 5a fe 28 be 8c 03 3f 3b
       0.109717034 0.14353779 -0.16503277 0.0029146401
000160 74 0b 98 3d a1 1c 13 bf 51 cc 01 3e 27 b4 e5 bd
       0.074240595 -0.5746556 0.12675597 -0.11216002
000170 d9 db 7f be 2d 07 04 3d ba 4a 25 3e 17 58 aa bd
       -0.24986209 0.032233406 0.16141787 -0.08317583
000180 3e 63 53 3e e7 3b 2c bd 96 52 62 3f f4 eb 1b 3f
       0.20643327 -0.042049315 0.88407266 0.6090691
000190 c8 9f 3b bd bd 1f 72 3e 7e 7f ab bd 26 12 ca 3c
       -0.045806676 0.2364492 -0.083739266 0.024666857
0001a0 79 2c 4a bc 95 ed 38 3f 61 9f 1c be 00 2b c6 3e
       -0.012339705 0.7223752 -0.15295173 0.3870468
0001b0 0e 1b 9e be 50 0e 05 be 20 e9 e4 3c bf f4 0b 3f
       -0.30880016 -0.12993741 0.027943194 0.5467033
0001c0 b2 35 2e bc 5a 8c df 3d 49 08 a8 bf 53 9c b6 b9
       -0.010632919 0.10915442 -1.3127528 -0.00034830216
0001d0 9f 21 55 bd 8a 45 0f bf 28 92 b0 3e 03 ee 06 3b
       -0.052034017 -0.55965483 0.34486508 0.0020588643
0001e0 35 66 b3 3e d9 12 21 bf eb 7b 68 3e 03 57 17 3f
       0.35038915 -0.62919384 0.22703521 0.59117144
0001f0 04 ba 1d be 6e cc 69 be 47 82 a4 be 89 ca 42 3f
       -0.1540299 -0.2283189 -0.32130644 0.76090294

a2c_network.actor_mlp.2.weight f4 [128, 128]
000000 b7 be b1 3e 53 31 6d 3f 51 cc 68 be 60 d1 27 3d
       0.34715816 0.9265339 -0.2273419 0.04097116
000010 bc f7 4a bc 90 bf e4 be 5c 83 2d 3e ec 93 ad 3d
       -0.012388166 -0.446774 0.16944641 0.084754795
000020 84 39 6e 3c e7 23 10 bf db 10 2f bf e3 70 1c bd
       0.01454008 -0.5630478 -0.68385094 -0.038193595
000030 4c dc 28 be 50 29 aa 3d a5 80 fa be ad aa 59 bd
       -0.16490287 0.08308661 -0.48926273 -0.053141285
000040 72 d1 9b be 35 e7 03 bf 54 23 6e 3e 8e 09 7a be
       -0.30433232 -0.5152467 0.23255664 -0.24417707
000050 f8 07 af be 99 cb 09 bd db 50 12 be 12 5f 1b 3d
       -0.34185767 -0.03364143 -0.14288656 0.037932463
000060 5f fc d5 be e4 cd a0 3e f9 8f 69 3e 11 47 0f be
       -0.41794106 0.31407082 0.22808827 -0.13991953
000070 98 89 c4 be 3b df 0e bf c6 02 ca 3d ba e3 1d 3e
       -0.38386226 -0.5580937 0.0986381 0.15418902
000080 0b 26 bc be 6a dc 0b 3e 14 1d c0 bd a3 8e c3 be
       -0.36747774 0.136583 -0.09380546 -0.3819476
000090 19 f9 94 be d5 5d 04 3f 01 bf 2d be ec 31 82 bd
       -0.29096296 0.51705676 -0.16967393 -0.06357178
0000a0 56 70 70 be d6 e4 9e be 19 28 85 be 3a 3f a1 bb
       -0.23480353 -0.31033963 -0.26007155 -0.0049208673
0000b0 8e 3d f3 3e b3 4a cb bc 24 dd 2e bf 53 b1 16 3e
       0.475079 -0.024815893 -0.68306184 0.14716081
0000c0 81 f1 82 3d 42 af 57 bd a5 1a 61 be 30 bb a2 be
       0.063937195 -0.052657373 -0.2198282 -0.31783438
0000d0 cc d1 99 be 0a e8 8b be 91 02 87 3e f3 be 89 be
       -0.30042875 -0.2732547 0.26369146 -0.26903495
0000e0 b0 06 c4 be 99 54 95 3e 9f de 7c be ff d2 27 bf
       -0.38286352 0.29166105 -0.24694298 -0.6555633
0000f0 e7 95 3a 3e a1 62 b7 3c 76 bc f0 3e 37 0e 03 bf
       0.18221246 0.022385897 0.47018784 -0.51193565
000100 09 5f c8 be bc 45 a8 be 1e d1 38 bf 10 49 ad 3e
       -0.39135006 -0.32865703 -0.7219409 0.33844805
000110 ed 88 bc bd 74 eb ac 3e 23 57 2a be 58 86 89 be
       -0.09205804 0.33773386 -0.16634803 -0.2686031
000120 f1 66 d8 be bf 0b cd 3d 81 2a 08 3f 27 4d bb 3e
       -0.42266038 0.10012006 0.53189856 0.365823
000130 58 61 83 be fb 6c 39 3f ea c5 c7 bd 0a d0 2c 3f
       -0.25660205 0.72431916 -0.09754546 0.6750494
000140 6a 0e 04 bf e2 39 3c bf 18 5b de be b2 46 73 be
       -0.51584494 -0.7352582 -0.43428874 -0.23757437
000150 17 f2 a2 3d d1 29 90 3e 02 2f 10 be c0 8a 84 3e
       0.07956331 0.28156903 -0.14080432 0.25887108
000160 37 34 b3 bc 35 69 06 bf a1 2d b7 3e ac 1a 52 3e
       -0.021875484 -0.52504283 0.35777 0.20517987
000170 ad 8f 3a be b4 3d d1 3e 4c 17 94 3e af d6 52 bd
       -0.1821887 0.40867388 0.28924024 -0.05147427
000180 59 ba 61 3d 37 98 81 be de b3 2a 3f 67 46 92 3c
       0.055109356 -0.25311443 0.66680706 0.017855836
000190 9d e8 2d bf 35 4b b5 3e 7e c6 a9 be 20 97 fd 3d
       -0.67933065 0.3540894 -0.3315925 0.123823404
0001a0 af f4 d2 bd 7d 82 15 3e f6 be 8d be 42 8c 22 3f
       -0.10300576 0.14600559 -0.27684754 0.63495266
0001b0 de 6c 85 bd 7a 5f 93 be 0a 24 34 be 3b a6 5c 3e
       -0.065149054 -0.2878378 -0.17591873 0.21547787
0001c0 4f c6 76 3e 5d 97 f5 bc e0 e0 0f 3e c6 83 d7 3c
       0.24099086 -0.029979402 0.14050627 0.026307952
0001d0 b3 92 ff 3e bf b1 a6 be f8 f6 96 bd b2 87 37 3b
       0.4991661 -0.32557485 -0.07371324 0.0028004465
0001e0 91 e4 0b bf 69 46 85 be 3c 17 76 3f 51 cb 17 3f
       -0.5464564 -0.2603028 0.961292 0.5929461
0001f0 16 ce 13 3f 18 fa aa 3e f9 1c 3c 3e 66 33 80 3e
       0.5773634 0.3339393 0.18370427 0.25039214
000200 9b 99 d1 3c 13 8d bf bb d2 0f 1c be 84 c3 aa 3d
       0.02558594 -0.005845675 -0.1524041 0.08338073
000210 10 bb 44 3d 85 01 93 bd 28 97 b6 3d f1 b3 d4 3d
       0.04802996 -0.07178024 0.089155495 0.103858836
000220 f8 b0 1e 3e 7a fd 9c 3d 4e fd 89 3e d3 89 cc 3d
       0.15497196 0.07665534 0.2695107 0.099872254
000230 b0 1f b1 bd d2 58 45 3e 75 f3 dc bd 25 71 6d 3d
       -0.08648622 0.19272164 -0.10788623 0.05796923
000240 ec 7d 02 3d ed d7 7e 3d 99 a9 ca 3c da 64 67 bd
       0.03185837 0.06221764 0.024739074 -0.056492664
000250 59 22 95 bb 1c 1e 8f 3d 60 12 84 3c e9 96 53 3d
       -0.0045512137 0.06988165 0.016122043 0.05165759
000260 fa af 4d bd 30 75 b0 bd aa bd 15 3d 53 da 1a bd
       -0.050216652 -0.08616102 0.03655783 -0.037805866
000270 82 b6 d3 bc 3f 9d 17 3d 47 06 30 3d be e6 c4 3b
       -0.025843862 0.037015196 0.042974737 0.006008952
000280 36 a9 dc bc 9e d4 ae 3d ad 8d 02 bd 44 4d 1d be
       -0.026936155 0.08536647 -0.031873394 -0.15361506
000290 71 1d 9d 3a 8b 11 4a 3e a1 4b b2 bd fa 4e 3c 3e
       0.0011986924 0.19733255 -0.08705831 0.18389502
0002a0 04 7e 24 3d 84 21 6a bd 48 54 b6 bd e0 93 71 bd
       0.04015924 -0.05716087 -0.08902794 -0.058978915
0002b0 28 97 c7 bd c4 ef ab bd f8 7f b7 bd 60 b4 51 bd
       -0.09745628 -0.08395341 -0.08959955 -0.05119741
0002c0 b4 96 4c bd f5 6c 77 bd da 25 fd bc c8 be 6a 3e
       -0.04994841 -0.060406644 -0.030901838 0.2292434
0002d0 a6 b9 ff bd 31 86 e4 bd d6 b5 1c 3d ac 4e 47 3d
       -0.124865815 -0.111584075 0.03825935 0.04865901
0002e0 64 47 e3 3d e8 a6 d5 3d bd d2 95 3c 22 85 24 be
       0.11097601 0.104322255 0.018288964 -0.16066411
0002f0 34 3d 81 3d 66 e5 45 3d ef 12 3a 3c 6d 42 2d 3e
       0.06310502 0.048314475 0.011357053 0.1691987
000300 4f 69 14 3d 47 91 3e 3d 2c 22 7b bc db aa 48 bd
       0.036233243 0.046525266 -0.015327971 -0.048991065
000310 0a 9d 89 bd 30 cc b1 3d 85 bf 69 bd 65 91 9e bd
       -0.06719406 0.08681524 -0.057067413 -0.077425756
000320 0c 34 14 3c b3 8a dd bc 10 9e 62 3d b4 31 e3 3d
       0.009045612 -0.027043676 0.05532652 0.110934645
000330 49 1a 28 bc 76 0f 98 bd 34 4c e9 3d 87 b5 ae 3d
       -0.010260173 -0.07424824 0.11391488 0.08530717
000340 c8 8a 11 3d a1 14 f6 3c cb cd 3a bd 1c 48 85 bd
       0.035532743 0.030039134 -0.045606416 -0.065078944
000350 8b 8a 09 be 47 2e 31 bd 06 f0 47 bc 54 24 58 3e
       -0.13431756 -0.043257024 -0.012203222 0.21107608
000360 0a f8 21 bc 87 6a 8f bc b9 89 a6 bc 00 87 1b 3d
       -0.009885797 -0.01750685 -0.020329343 0.037970543
000370 05 64 2a 3d c7 97 eb 3d a8 6b f6 bd 19 6a 5b 3c
       0.041599292 0.115035586 -0.120322526 0.013391995
000380 ac f1 37 bd 71 66 82 3c 68 10 05 be d9 11 0a be
       -0.04490821 0.015917988 -0.1299454 -0.13483371
000390 12 b4 0d 3c 9b a6 03 be 57 58 1c bc 33 e2 b9 3d
       0.008648889 -0.12856524 -0.009542546 0.09076347
0003a0 b7 d9 a8 bd 9d 9f 09 bc 11 52 23 3e 60 ed 49 be
       -0.08244651 -0.008399871 0.15949275 -0.19719458
0003b0 40 a0 0d 3d 51 ec 23 3e 06 d5 a2 bd 29 ad 37 3d
       0.034576654 0.16008116 -0.07950787 0.044842873
0003c0 4b 31 41 3d 42 42 89 3d 8e 1a c5 bd f6 f4 a4 3d
       0.04716615 0.06702091 -0.096242055 0.08054535
0003d0 4a 40 08 bc 90 ca 3c be 21 9b b7 3c 55 4f 1f bb
       -0.008316109 -0.18436646 0.022412838 -0.002430876
0003e0 23 85 0a be 20 5b d4 bc bd 70 15 bd 1c dd e5 3d
       -0.1352735 -0.025922358 -0.03648447 0.11223814
0003f0 fb 36 2a bd d8 04 82 3d 66 ee 72 be f3 40 cf bc
       -0.04155634 0.0634858 -0.23723754 -0.025299525

a2c_network.actor_mlp.2.bias f4 [128]
000000 c1 1e 16 3e 2a a4 98 bd 9f 65 4f bd 09 91 f0 bc
       0.14660169 -0.07453187 -0.050634023 -0.029366033
000010 af 07 b6 3d 0f 24 e9 bd c7 37 0d 3e 6e 9e 33 bd
       0.08888184 -0.11383831 0.13790809 -0.043852262
000020 14 49 13 bc 7a e6 64 3d ea 97 7f 3d d4 29 1a bf
       -0.008989591 0.055883862 0.062400736 -0.60220075
000030 0b e8 3f bd bc e0 8d bd 53 ac 97 3d 59 cf 15 3e
       -0.046852153 -0.0692763 0.07405915 0.14629878
000040 30 75 f9 3c 7a 6e 92 3d fd ef 0e 3e 0f 47 67 3e
       0.030451387 0.07149978 0.13958736 0.225857
000050 1b fb 16 3f 93 98 c5 3c 0e 7d dc ba f1 2b e4 bd
       0.58976907 0.024120605 -0.0016821937 -0.11141194
000060 b6 b8 d9 3c 36 da f9 bd e3 61 96 bd 89 f4 c3 bd
       0.026577335 -0.121998236 -0.07342889 -0.09568126
000070 a0 ce 11 3e ff ec c3 3c 19 13 00 bd 61 71 5b 3c
       0.14238977 0.02391672 -0.031268213 0.013393731
000080 73 e6 b0 3e 85 8d 25 3d 3d 65 ad be a4 eb 65 3e
       0.3455082 0.040418167 -0.338663 0.22453171
000090 6a 5f 41 be cc a1 91 bd 75 db 08 bb 92 85 7c 3d
       -0.18884054 -0.071109384 -0.002088276 0.06165082
0000a0 66 45 67 bd 8d b1 19 3e f7 82 86 3e 42 61 83 3d
       -0.056462668 0.15009136 0.26271793 0.06415035
0000b0 9f fd e5 bd b8 42 66 bd 7f 17 57 3e d9 af 8f 3d
       -0.11230015 -0.05621597 0.21005057 0.07015962
0000c0 6a 77 15 3f 23 1b 38 3d be d0 0e bc fa b9 81 bd
       0.58385336 0.044947755 -0.00871676 -0.063343
0000d0 05 d4 29 3e 8a 95 1e bc 13 1c ba 3d 0f f8 81 be
       0.16584785 -0.009679208 0.09087386 -0.25384566
0000e0 e9 2f 66 3e 05 84 ef 3e 42 48 ed be 7a 15 39 3c
       0.22479214 0.4678041 -0.4634419 0.011296624
0000f0 95 6d f1 3d 3c 9d 88 bc a4 4b 00 3e 05 7a 3e be
       0.11788479 -0.016676538 0.12528855 -0.18601234
000100 03 73 b0 be 24 e9 0a bd 44 94 a2 3d d8 38 10 3c
       -0.34462747 -0.033913746 0.07938436 0.008802615
000110 ff ca 6b be 3b 6c 58 bd 63 39 d7 be b7 da 3b 3d
       -0.23026656 -0.05283759 -0.4203597 0.04586288
000120 e9 6c 9a bd 15 da 0d bd 81 99 79 3d 5e bd e6 bc
       -0.07540304 -0.034631807 0.06093741 -0.02816647
000130 75 79 ee be f7 ba d5 3c 35 a2 c3 bd 9a 9a a4 bd
       -0.4657704 0.026090128 -0.09552423 -0.080373004
000140 9f 22 7c 3f 8f 11 db 3c 69 b1 b8 3c 05 6b c4 bd
       0.9849033 0.026741771 0.022545533 -0.09590725
000150 35 c4 c7 be 19 f9 0b bf 10 4d ba bc 04 9e 8c 3d
       -0.39016882 -0.5467697 -0.022741824 0.068660766
000160 b5 bf fd 3c a5 ef 32 3d 67 c7 10 3d d9 89 8c bd
       0.030975202 0.043685574 0.035346415 -0.0686223
000170 54 3f f7 bb 24 d9 48 3d 77 30 3f bc 0a 30 e0 3d
       -0.007545391 0.049035206 -0.01166927 0.10946663
000180 75 31 14 bc ff d4 51 3d 5d 15 03 bd 01 34 77 bc
       -0.009044995 0.05122852 -0.032002795 -0.015088082
000190 56 a1 50 bc 3d 73 3f bd 88 04 6b bd bb 6a 9d 3d
       -0.012733778 -0.04674076 -0.05737737 0.07686373
0001a0 be 3b b3 3b bb 46 c2 3c d0 09 bd bb 05 0d 99 3c
       0.0054697683 0.023715368 -0.005768992 0.018682966
0001b0 8c 79 f7 bc 41 12 1e bf 05 90 d7 bc 0b cd 1a bc
       -0.030209325 -0.61746603 -0.026313791 -0.0094483
0001c0 6e a7 52 bd c4 53 3a 3e 74 f8 0a bd 44 ae 2f be
       -0.051429205 0.18196017 -0.03392835 -0.17156321
0001d0 b6 73 07 be 91 84 f1 3d 0e 9c ad 3d 21 7c 79 bd
       -0.13227734 0.11792863 0.08477031 -0.060909394
0001e0 aa 7b 85 3d 15 5a c3 3d a2 b9 93 3d 58 eb 9c 3d
       0.06517728 0.09538666 0.07213141 0.07662076
0001f0 1e 95 97 bd 3c 49 37 bd e9 b0 51 3d 25 53 ce bd
       -0.07401489 -0.044747576 0.051194105 -0.10074452

a2c_network.value.weight f4 [1, 128]
000000 4b 69 41 3c b6 c5 8a bd 4a a6 e2 bc 73 8e 35 3c
       0.011804889 -0.067759916 -0.027667183 0.011081326
000010 2e 92 10 bd 29 23 3a 3d 36 e8 b6 be e0 61 13 bd
       -0.035295658 0.045443688 -0.35724038 -0.035982013
000020 c4 76 88 3d fc e3 0a 3d 19 1e ae 3c 30 32 8d bc
       0.06663278 0.03390883 0.021254586 -0.017235845
000030 b8 ce ef bb 3d 39 85 bc 4f 48 8d bd 0a fc 36 3d
       -0.007318344 -0.016262645 -0.068985574 0.044673957
000040 56 b3 e0 3e 99 b2 2a bd e2 a0 fb 3c 9d 38 0e bd
       0.43886822 -0.04167423 0.030716363 -0.03472196
000050 e0 e5 19 bd a8 9a c2 3d b6 b8 16 3d fa 25 20 bd
       -0.03757274 0.095021546 0.036797248 -0.039098717
000060 e4 a2 08 bb a1 67 54 3d 4c 58 56 bc d5 b1 dd 3c
       -0.0020849044 0.05185664 -0.013082575 0.027062336
000070 e2 94 d0 3c c5 8e 03 bd af 0d 01 be 79 8b 2a bd
       0.025461618 -0.032118578 -0.12602876 -0.041636918
000080 51 63 bb bc ca 7d fd 3b d1 c3 3d bd 2c 82 85 39
       -0.022874506 0.0077359425 -0.046329323 0.00025464722
000090 9d 73 f7 bc 35 bf e9 3c 80 18 c9 3d 27 b9 44 3c
       -0.030206496 0.028533557 0.09819126 0.012007034
0000a0 ea 9d 42 3d 67 84 9a be bb 87 02 bf ad 14 89 bd
       0.04751388 -0.3017914 -0.5098836 -0.06693397
0000b0 1b 53 a8 ba d0 c0 de 3d 25 7f 9d 3c c0 59 58 bc
       -0.001284215 0.1087662 0.019225666 -0.013204992
0000c0 97 51 25 3d 2e 21 1d bd 4d 05 2b 3c 6e d5 ac 3b
       0.040361013 -0.03836172 0.0104382755 0.0052744662
0000d0 f3 a3 04 bd a8 88 ac be 0a 45 1c bc 79 7c 43 bc
       -0.032382917 -0.3369801 -0.009537945 -0.011931532
0000e0 83 c5 8e bb 66 f8 28 3d 2d 86 d1 bb e4 7f 05 bc
       -0.0043570413 0.041252516 -0.006394169 -0.008148167
0000f0 c0 91 22 bc 7b 46 73 bc a6 f4 9b 3d 4e 9e 16 3b
       -0.009922445 -0.014848347 0.07615022 0.002298254
000100 18 bf 76 bc d9 c2 01 3d 1d 43 0b be fb 3b c9 3d
       -0.015060209 0.03167996 -0.1359982 0.098258935
000110 3f 82 33 3c 6b 31 a2 3d e5 99 d6 3b 0a e3 71 bd
       0.010956346 0.07919582 0.0065491074 -0.059054412
000120 d8 c3 47 3d 6b 10 d0 bc 32 bd 17 bc fe c5 92 3d
       0.048770756 -0.025398454 -0.009261416 0.0716667
000130 62 80 83 bc 26 48 b3 bc 4d 3b 46 3d 0c 48 c1 3c
       -0.016052429 -0.021884989 0.048396397 0.023593925
000140 f9 4e 80 3c 34 97 0c bd 20 a9 4f 3d 98 04 e7 bc
       0.015662657 -0.034323886 0.0506984 -0.028200433
000150 b9 86 a0 ba 9f 9c 0c bc af 26 b5 3e 89 9c 09 3c
       -0.0012247182 -0.008582263 0.35381076 0.008399137
000160 55 00 20 3d 0a 12 3f 3d ee 4d 0a 3c d4 14 46 bd
       0.039062817 0.046648063 0.008441431 -0.048359707
000170 59 8e f7 3c d9 d6 45 3c b9 a8 d0 3d 64 f6 05 3d
       0.030219244 0.012075149 0.10188431 0.03270568
000180 6c dd 09 3d 05 fd 1d bd ac 4f 3b 3c ed 2c 6c 3b
       0.03365843 -0.038571376 0.0114325695 0.003603752
000190 a5 18 5b bc 0f bc 4d 3b a0 4e 28 3d 41 80 36 bd
       -0.013372575 0.003139261 0.041090608 -0.044555906
0001a0 2e de f1 bd 53 c5 38 bc 54 bb 31 bc 39 ba 08 3f
       -0.118099555 -0.0112775145 -0.010847885 0.53409153
0001b0 4d 16 9d 3c 80 0b 79 3c 18 16 8e 3d da 54 1b b9
       0.019175673 0.015200496 0.06937808 -0.00014813562
0001c0 e3 40 ba 3d d6 60 11 3c 11 16 91 3d ee 6e a1 3d
       0.090944074 0.008873185 0.07084287 0.07882486
0001d0 97 2e ba be 0b 62 17 bd 17 8a 91 3c fb b1 c8 3c
       -0.3636367 -0.036958735 0.017766042 0.02449893
0001e0 39 fc fc bc 78 71 b5 ba e7 e7 72 3c 5f 9a 5b bd
       -0.030881988 -0.001384302 0.014825798 -0.053614017
0001f0 80 d9 71 3d bc 38 45 3d ee d3 e7 be b6 57 96 3c
       0.059045315 0.04814981 -0.45278877 0.01835237

a2c_network.mu.weight f4 [2, 128]
000000 fe b2 81 3e d8 a2 b5 bb 18 20 42 ba d4 37 1d 3d
       0.25331873 -0.005543094 -0.0007405295 0.03838332
000010 b7 56 6a ba 82 d7 c5 ba 46 47 3a bb 73 a4 af ba
       -0.0008939313 -0.0015094134 -0.002842383 -0.001340045
000020 34 02 c2 39 aa ac 0e bb 92 d5 fe 3a 8c c4 a8 bd
       0.00037004205 -0.0021770396 0.0019442311 -0.08240613
000030 28 f6 30 ba 63 e8 47 bb 9c 59 07 bb 07 f4 f3 3d
       -0.00067505473 -0.0030503504 -0.0020652777 0.11911779
000040 4b fb 1e 3b 56 8a a9 3a d3 78 e9 3b 32 bf 00 bb
       0.002425867 0.0012934904 0.007124999 -0.0019645211
000050 3d ef 44 be 88 f6 de 3b ea 65 64 39 75 22 fc 3d
       -0.19231887 0.006804291 0.0002178174 0.1231126
000060 b9 3e e8 ba b1 49 ec 3a 19 9a 90 3d df 5f c8 3b
       -0.0017718888 0.0018027333 0.07060642 0.0061149443
000070 ed 01 c9 3c 61 f4 9b 3b 18 0f 45 3b e4 b3 10 bb
       0.024537051 0.004759357 0.003006881 -0.002207988
000080 64 7a 34 be 28 83 51 be 05 5c 03 bd c2 26 91 3d
       -0.17624813 -0.20460188 -0.03207018 0.070874706
000090 23 c3 aa bd 8b 1d 59 be c3 ee 7d 3a 79 8c 1e bb
       -0.083380006 -0.21202676 0.00096867624 -0.0024192615
0000a0 bf ec 5b 3a b4 40 5a bc 3b b7 ef bc 1e ae ef ba
       0.0008389465 -0.0133210905 -0.029262176 -0.0018286144
0000b0 f4 15 32 3d c6 f0 d1 3b 1e 39 de 3d 7e 56 94 bb
       0.043477967 0.0064068763 0.10850738 -0.0045269122
0000c0 24 41 58 3e db 4f 93 bb 4c 10 cc bb 21 18 0b be
       0.21118599 -0.0044956035 -0.0062275287 -0.13583423
0000d0 a3 4d 9d bd 76 03 16 3d 77 fa 36 ba ab 6b aa 3d
       -0.07680824 0.036624394 -0.0006980071 0.08321317
0000e0 3a 61 98 bd 7f cb f9 3d 01 d1 fb bc 4a c8 b1 39
       -0.074404195 0.12197017 -0.03073931 0.00033909298
0000f0 42 16 b9 3b 46 31 87 bb 3d 9a d3 3b 61 93 bb bd
       0.0056484053 -0.004125747 0.0064575956 -0.0915897
000100 2c ab 91 bb 88 33 23 be 5e b3 62 3e b2 0b 1f bb
       -0.004445454 -0.15937626 0.22138736 -0.0024268446
000110 ac f7 22 bd ce be 46 3b ec 97 3a be 56 31 55 bb
       -0.03978698 0.003032613 -0.18222016 -0.0032530627
000120 7d e8 e5 b8 69 cf 0d b9 25 ce 1f bb 28 b3 98 bb
       -0.00010962875 -0.00013524074 -0.0024384346 -0.004660029
000130 a8 f4 e6 3d 01 e4 94 be cc 07 dd b9 cc 1d 50 bb
       0.11277133 -0.29080203 -0.00042158214 -0.0031756042
000140 89 0a 2a 3d 37 f5 19 3a 4e 25 a2 ba 49 3c ec 3a
       0.041513953 0.00058730267 -0.0012370737 0.0018023337
000150 ff 7c 36 bd 34 7c 84 be ba ef f5 3b 85 2b 40 bb
       -0.0445528 -0.2587601 0.0075053843 -0.0029322815
000160 e2 9c 1f ba dc 3e 8b bb 6e a9 0d 3b 4a 81 1e 3b
       -0.0006088746 -0.004249437 0.002161588 0.002418595
000170 51 aa 46 bb ce fd 55 3b ef 40 a6 3a 4a 97 12 3b
       -0.0030313919 0.00326525 0.0012684147 0.0022368007
000180 bb 1a 9a bb 7d 31 75 3a 9d 12 91 3a dd 27 88 bb
       -0.0047028936 0.00093533826 0.0011068169 -0.0041551427
000190 49 1e 6b b9 7f 62 ff ba f7 e9 5d b8 2e 53 cc ba
       -0.00022422629 -0.001948431 -5.2908403e-05 -0.0015588754
0001a0 12 12 00 bb 4a 92 56 bb d7 07 a2 3b 21 f8 81 bb
       -0.001954202 -0.0032741004 0.0049447822 -0.003966347
0001b0 68 7e f7 3a 3f 07 3b 3e a0 1f 85 bb 4e f0 c3 bd
       0.0018882276 0.18264483 -0.004062608 -0.09567319
0001c0 10 8b 1b 3c 2d 15 df 3e 6d 55 44 bb 4a 90 be 3a
       0.009493604 0.43570843 -0.0029958144 0.0014538851
0001d0 9a d3 df ba c8 b1 1d 3d cb 04 38 3a 4e 68 df ba
       -0.0017076612 0.038499624 0.0007019757 -0.0017044635
0001e0 8e d6 83 bb ae bc 69 bb 51 dc 6d bd db 37 5d 39
       -0.0040233796 -0.003566544 -0.05807144 0.0002109701
0001f0 80 aa 8d bb 2a 1e cb 3a 81 05 af 3c 9f ea 29 3b
       -0.0043233037 0.001549666 0.02136493 0.0025927199
000200 96 58 97 bd 93 a2 17 bb 3a 6c 01 39 70 82 ca 3d
       -0.07389943 -0.0023137673 0.00012342716 0.0988816
000210 7a b9 8f 3a 98 e6 28 3a 8a da 80 3b 97 72 cb 38
       0.001096531 0.00064430526 0.003932302 9.701138e-05
000220 ef df ad 3a 64 a3 e6 39 d8 2c 67 3a f4 29 c4 3d
       0.001326559 0.00043990754 0.0008818633 0.095783144
000230 03 d6 14 b9 69 9d 93 3a 42 db e5 3a d6 af b3 3e
       -0.00014194105 0.0011262122 0.0017536657 0.3509509
000240 d2 47 0a 3a aa c5 c7 ba 05 ac fa 3c 81 66 85 bd
       0.0005274984 -0.0015241404 0.030599603 -0.06513692
000250 64 18 9d 3d 3b 3b 8d ba f1 70 82 3a 11 db a7 bc
       0.07670668 -0.0010775098 0.0009951872 -0.020490201
000260 2c 20 cc 39 1f 4a 81 3a fd 5e fd bd 21 34 58 b9
       0.00038933882 0.0009864009 -0.12371633 -0.00020618785
000270 5c 43 08 be 5c 7f 9c 3a 6e 13 43 3b d7 2d 30 b9
       -0.13306946 0.0011939812 0.002976622 -0.00016801745
000280 83 52 b5 bd a1 88 64 bd a9 7b 21 3e 0e fc 77 bd
       -0.088536285 -0.055794362 0.15769829 -0.060543112
000290 b1 18 74 bd 64 3e a7 3b a9 2c 2f ba e3 54 68 ba
       -0.05959386 0.005103873 -0.0006682375 -0.0008862747
0002a0 aa 70 b1 39 20 0f 0b bd 26 53 48 bd d6 00 a2 ba
       0.00033844012 -0.03394997 -0.04890742 -0.0012359868
0002b0 af c2 b9 3d 28 84 6b bb d3 bf 6a bd a4 c5 c6 3a
       0.09070336 -0.0035936926 -0.057311844 0.0015165103
0002c0 13 74 bc bd 16 82 00 bb ed d3 c5 39 9b 51 9e bd
       -0.09201827 -0.0019608787 0.00037732665 -0.07730409
0002d0 2c 07 67 bd aa bb 87 bc 86 66 fe ba 1e f8 0f be
       -0.056403324 -0.016568977 -0.0019409216 -0.14059493
0002e0 b1 43 81 3d 22 96 f7 3c 82 c1 d6 bd 10 92 12 ba
       0.06311739 0.030222956 -0.104861274 -0.0005591223
0002f0 e7 8d 9a bb 5f 17 b5 3a 2f f1 11 39 9c cb 66 bd
       -0.004716623 0.0013816169 0.00013918125 -0.05634652
000300 2f b4 1e be 4a 51 d9 3d 44 6d 50 3c 76 1c 0b 3b
       -0.15498422 0.10611208 0.012721363 0.002122668
000310 ca 3c 0e 3e 65 49 3d bb 49 25 77 3e dc 00 a0 39
       0.13890377 -0.0028882858 0.24135317 0.00030518218
000320 94 da 18 3b 83 8d 2a 39 03 4d 23 3b 4d 4a 0e bb
       0.0023323642 0.0001626518 0.0024917729 -0.0021711767
000330 f8 0c ec bc 52 76 9c 3d 8d 66 a2 b8 62 91 df 3a
       -0.028814778 0.07639755 -7.7438635e-05 0.0017056877
000340 31 77 6a 3d c0 4a fe b9 02 a0 db 3a 4e 20 2e 3a
       0.057242576 -0.00048502348 0.001675606 0.0006642387
000350 61 05 3b 3e 4f ea 08 bd eb b7 e8 3a e2 1b b6 ba
       0.1826377 -0.03342658 0.0017755007 -0.0013893808
000360 a7 79 9d ba cb 36 f9 39 52 35 ac 3a 30 2d e8 3a
       -0.0012014405 0.00047533805 0.0013138449 0.0017713662
000370 56 ba 36 3b 7d 7e 28 ba 74 36 3e 3b 93 7a 98 ba
       0.002788206 -0.00064275396 0.0029024156 -0.001163321
000380 e4 eb f8 b9 46 49 d8 ba 77 b8 60 ba b2 7e cd 3a
       -0.00047477998 -0.0016501329 -0.0008572409 0.0015678017
000390 72 14 24 bb 9a fd db b8 9f 37 8f ba 7f 00 40 bb
       -0.00250366 -0.00010489971 -0.001092661 -0.002929717
0003a0 1d 44 51 b9 66 e3 cf 38 9b 66 5b ba a2 e6 23 3d
       -0.00019957167 9.9128854e-05 -0.00083694764 0.04001487
0003b0 21 6d 37 3a 1d 15 90 bd ee 8e 5e 3a b2 aa 62 bd
       0.00069971575 -0.07035277 0.0008489926 -0.05533857
0003c0 8b a6 c7 bb 0f 1b 05 be 4a a7 28 3b cc 90 3a 3a
       -0.0060928515 -0.12998603 0.0025734478 0.00071169133
0003d0 6e 81 8e bb 13 96 d1 bd df e7 00 ba 67 60 2d 39
       -0.0043489253 -0.102337025 -0.0004917364 0.00016534478
0003e0 41 a2 89 b9 d7 7b ec ba 0c c4 d6 3d ba 7e ac ba
       -0.00026251565 -0.0018042278 0.10486612 -0.0013160326
0003f0 d5 e6 62 39 7e fe 8f 39 a6 fe 8c 3c 65 e1 65 b9
       0.00021639031 0.00027464697 0.01721127 -0.00021923108

a2c_network.mu.bias f4 [2]
000000 6f 14 ac be b7 b1 48 bd
       -0.3360934 -0.048997607

exp_avg f4 [2]
000000 00 db 98 3a e8 30 9d 3a
       0.0011661947 0.0011992725

exp_avg_sq f4 [2]
000000 07 b8 ad 37 4a 87 a0 37
       2.0708902e-05 1.9136485e-05

exp_avg f4 [128, 7]
000000 5a 44 66 ba 82 7b 83 38 bc 91 ce b9 0d d1 88 3a
       -0.0008783989 6.269572e-05 -0.00039399962 0.0010438279
000010 f9 cc 9a 39 49 ed 01 bb 00 00 00 00 2d 37 6b ba
       0.00029525885 -0.001982527 0.0 -0.00089727604
000020 df 75 3b ba 37 3e 5b 3a c1 a9 84 3a 40 8e fd 39
       -0.0007151048 0.0008363458 0.0010121391 0.00048361905
000030 fa f5 d9 ba 00 00 00 00 5d cd 5b 38 fa 77 b0 ba
       -0.0016629093 0.0 5.240493e-05 -0.001346349
000040 ae 8d 93 3a c4 db 8a 39 c8 cd 28 3a 7d c5 17 3a
       0.0011257434 0.0002648515 0.0006439355 0.0005789621
000050 00 00 00 00 b6 a6 3b 3a d8 ce 3b b9 4e ee 02 3a
       0.0 0.0007158326 -0.00017910765 0.00049946166
000060 67 65 63 b9 7f d4 f9 39 ae 2a 25 3a 00 00 00 00
       -0.00021686182 0.00047651303 0.000630061 0.0
000070 90 08 ec 38 63 0e 5d b8 1f 00 ed 38 c4 d7 0b b7
       0.00011254952 -5.2703905e-05 0.00011301063 -8.3352825e-06
000080 d8 b2 2c b8 e6 bc 98 39 00 00 00 00 19 18 d6 39
       -4.1174557e-05 0.0002913244 0.0 0.00040835215
000090 9f 1d 88 ba 5b 74 53 3a fd 51 5c b9 da e9 f9 39
       -0.0010384804 0.00080663495 -0.00021011378 0.00047667214
0000a0 e7 a6 0e 3b 00 00 00 00 fd e1 42 b7 c6 7c d1 3a
       0.0021766962 0.0 -1.1615918e-05 0.001598262
0000b0 27 8f 84 ba a7 ad 9d ba 6f 31 1f ba c3 8c 55 39
       -0.0010113464 -0.0012029902 -0.0006072735 0.00020365701
0000c0 00 00 00 00 2a 49 16 ba 1b d9 af 3a cc 3f 64 ba
       0.0 -0.0005732948 0.0013416143 -0.0008707016
0000d0 da 5e c5 ba 96 c8 ee b9 55 82 61 3a 00 00 00 00
       -0.0015058175 -0.00045544346 0.000860249 0.0
0000e0 49 41 ff 39 99 ea 8c b8 bd 2a 4d 39 0d fb a3 39
       0.0004868603 -6.7194174e-05 0.00019566245 0.0003127683
0000f0 62 92 b0 39 22 bc 0a 39 00 00 00 00 ca c0 48 3a
       0.000336784 0.0001323079 0.0 0.00076581223
000100 7b ba 2c ba c9 bc 69 38 4b ad 7a 3a d6 47 c7 39
       -0.0006589067 5.572735e-05 0.0009562566 0.0003800976
000110 37 bd a2 ba 00 00 00 00 60 fb 03 3b ce 4d 06 bb
       -0.001241601 0.0 0.0020138845 -0.0020493153
000120 a9 be d9 3a ff 3f eb 39 9a c2 47 3a 4a 1e 96 b7
       0.0016612607 0.00044870374 0.00076202455 -1.7895498e-05
000130 00 00 00 00 ef 14 10 3a 61 3f a9 39 47 02 f4 38
       0.0 0.00054962834 0.00032281413 0.00011635251
000140 75 4a 99 b9 33 a6 ed 38 7e 9b e8 39 00 00 00 00
       -0.0002923791 0.00011331998 0.0004436634 0.0
000150 a0 29 a1 39 c1 da bd b8 ac 18 d5 39 cb e6 45 ba
       0.00030739326 -9.0529684e-05 0.00040644908 -0.00075493444
000160 ce b9 99 39 e5 67 af 3a 00 00 00 00 11 54 ac 3a
       0.0002932087 0.0013382403 0.0 0.0013147612
000170 ea 69 a5 ba b8 35 72 3a ed cb 05 b8 9b 78 92 39
       -0.0012620066 0.0009239572 -3.189959e-05 0.00027937148
000180 05 bc 4d 3a 00 00 00 00 55 ea 81 3a b3 e7 00 b9
       0.00078481465 0.0 0.0009911755 -0.00012293346
000190 d1 f8 f9 b9 f8 5f 33 ba 1c b0 fb b9 2a 1f 8e 39
       -0.00047678364 -0.00068426086 -0.00048005662 0.0002710757
0001a0 00 00 00 00 61 4b 50 3a ad 14 b5 ba 40 f2 75 3a
       0.0 0.00079458026 -0.0013815366 0.00093821064
0001b0 f9 09 67 38 e6 52 fd 39 6b 26 5f 3a 00 00 00 00
       5.508398e-05 0.00048317685 0.00085124996 0.0
0001c0 c1 f6 6b b8 16 ae 4e 3a f1 36 19 ba 56 46 a1 b9
       -5.6258174e-05 0.0007884217 -0.0005844674 -0.00030760717
0001d0 39 f6 00 ba e5 e1 4c 39 00 00 00 00 5c 52 df 3a
       -0.00049195025 0.00019539108 0.0 0.0017038095
0001e0 1b d2 81 39 43 a5 29 ba 44 37 0a b9 7c a6 51 ba
       0.00024761338 -0.00064714643 -0.00013181294 -0.00079975254
0001f0 c2 70 24 b9 00 00 00 00 2f 64 0a bb ac 07 78 3a
       -0.00015682264 0.0 -0.0021116843 0.00094615924
000200 0e 7a 70 ba 18 54 2d b9 9e 46 a6 b9 48 c3 15 ba
       -0.0009173461 -0.00016529893 -0.000317146 -0.0005712998
000210 00 00 00 00 71 9f 98 3a 04 63 d3 b8 0c 7b 8b 39
       0.0 0.0011644197 -0.00010079707 0.00026603823
000220 d3 7a 4b 3a c3 0f 16 39 f7 4f e4 39 00 00 00 00
       0.00077621377 0.00014310986 0.00043547127 0.0
000230 f4 0a 99 38 40 4f dc 38 12 8a e0 b9 3b f1 2b ba
       7.297649e-05 0.00010505179 -0.0004282748 -0.00065590785
000240 c1 46 5a ba 89 75 9b 3a 00 00 00 00 20 f6 fc b8
       -0.0008326583 0.001186059 0.0 -0.00012062141
000250 71 06 e5 b9 55 5d 10 b8 c8 31 b8 39 a4 a7 3c b7
       -0.00043683083 -3.4419198e-05 0.00035132305 -1.1244705e-05
000260 74 8c 89 ba 00 00 00 00 ef 64 71 b8 9d b3 9c ba
       -0.0010494129 0.0 -5.755288e-05 -0.0011955384
000270 58 d0 61 3a 20 96 88 39 5c bb 35 3a 37 f4 4c 3a
       0.00086141145 0.00026051793 0.0006932521 0.0007818373
000280 00 00 00 00 b1 c9 05 b8 23 e6 8e 38 05 15 83 b8
       0.0 -3.189751e-05 6.813954e-05 -6.250482e-05
000290 a8 df df b7 b0 16 63 b7 08 c9 0b b9 00 00 00 00
       -2.668782e-05 -1.3535537e-05 -0.00013330963 0.0
0002a0 c7 b1 ba 3a 23 fa 8f 37 7c aa 50 ba e2 00 f3 b9
       0.0014243656 1.7163407e-05 -0.00079599745 -0.0004634923
0002b0 6f 78 3f ba 6c 25 52 3a 00 00 00 00 a2 6f f2 3a
       -0.0007304018 0.00080164406 0.0 0.0018496404
0002c0 98 73 1e bb fe 90 31 3b 34 fb 32 3b cc af c9 3a
       -0.0024177786 0.0027094479 0.0027310373 0.0015387475
0002d0 0a b9 6d 3a 00 00 00 00 3f 0e 44 ba 28 44 29 ba
       0.00090684055 0.0 -0.00074789295 -0.00064569945
0002e0 c6 78 3b 39 f1 58 fb 38 b7 13 6c 39 ff 29 93 b9
       0.00017878701 0.00011985179 0.00022514058 -0.00028069314
0002f0 00 00 00 00 a1 ef 45 ba ab 83 e4 39 76 35 12 ba
       0.0 -0.0007550661 0.0004358565 -0.00055774243
000300 29 98 95 b9 66 6e b9 b9 92 c6 79 b9 00 00 00 00
       -0.00028532863 -0.00035368203 -0.00023820464 0.0
000310 a4 fd be 3a a9 8f 1e bb a0 c9 08 3b a1 a3 7a 3a
       0.001457144 -0.0024194515 0.002087213 0.0009561126
000320 b0 0d 3c 3a 0b 39 68 39 00 00 00 00 95 23 11 3b
       0.00071736705 0.00022146494 0.0 0.0022146453
000330 10 e1 20 ba 4e 65 27 3a dc a3 15 3a 88 a8 6c b9
       -0.00061370526 0.000638564 0.0005708316 -0.00022569497
000340 bd 9a 80 3a 00 00 00 00 1f f8 f5 b9 55 24 d7 39
       0.0009811741 0.0 -0.00046914906 0.00041035065
000350 59 e0 3d b9 96 3c 0c ba 44 08 3d 39 55 8a bd 39
       -0.0001810802 -0.0005349604 0.00018027524 0.00036151955
000360 00 00 00 00 8a 29 d0 39 71 9b 05 3a e9 9b da b7
       0.0 0.000397038 0.000509671 -2.6060226e-05
000370 d2 f8 c9 b9 02 af fc 36 e9 0d 54 39 00 00 00 00
       -0.00038523093 7.530559e-06 0.00020223077 0.0
000380 9d c9 72 3a ce 6f 0f 3a 3b 75 b3 b9 96 67 63 3a
       0.000926161 0.0005471677 -0.00034228884 0.00086747983
000390 f9 38 ec b9 15 8a 60 bb 00 00 00 00 05 01 c1 ba
       -0.00045055876 -0.003426199 0.0 -0.0014725035
0003a0 1b 14 28 3a fb 00 c6 b9 27 90 1c 3a a8 df 5e 38
       0.00064116874 -0.00037766233 0.0005972408 5.313722e-05
0003b0 10 4f 83 ba 00 00 00 00 a8 66 56 3a d7 d1 a2 b9
       -0.0010018069 0.0 0.0008178749 -0.0003105539
0003c0 a1 ae 0d 39 da bb 19 39 b1 e1 c7 38 5a 7f 60 37
       0.00013511862 0.00014661197 9.531098e-05 1.3381092e-05
0003d0 00 00 00 00 0e ef 1b 3a 1b 41 9b 39 5a c7 57 b9
       0.0 0.00059484027 0.0002961241 -0.00020578262
0003e0 9b 0c 38 ba 4f 61 fa b8 cc 84 98 3a 00 00 00 00
       -0.00070209213 -0.00011939054 0.0011636256 0.0
0003f0 b8 2e 8c 3a 56 18 19 b8 62 17 9a 39 c1 7d 0b ba
       0.0010695076 -3.6500707e-05 0.0002939059 -0.0005321168

exp_avg_sq f4 [128, 7]
000000 63 58 3a 37 56 38 93 37 c1 a0 ab 37 27 50 3f 38
       1.1107043e-05 1.7549999e-05 2.0459645e-05 4.5612596e-05
000010 86 9a bf 37 21 66 f5 38 00 00 00 00 d7 2c 2c 38
       2.284093e-05 0.000117015334 0.0 4.1049756e-05
000020 c9 e9 3e 38 eb 31 69 38 37 75 e7 38 e9 c5 6e 38
       4.551726e-05 5.559802e-05 0.00011036771 5.692794e-05
000030 53 33 99 39 00 00 00 00 17 b8 a7 37 23 b6 ca 37
       0.00029220674 0.0 1.9993675e-05 2.416509e-05
000040 1f 43 da 37 f3 88 f7 37 0a 43 b1 37 18 f8 8f 38
       2.601888e-05 2.9508466e-05 2.1131262e-05 6.8649824e-05
000050 00 00 00 00 e0 8f b4 36 5b 8f b4 36 94 70 d4 36
       0.0 5.3811673e-06 5.381107e-06 6.331198e-06
000060 57 87 09 37 c1 85 e7 36 e9 2a 88 37 00 00 00 00
       8.197348e-06 6.8999075e-06 1.6232445e-05 0.0
000070 05 a5 7e 35 0e 77 8b 35 ea 42 a5 35 e7 ef 88 35
       9.486251e-07 1.0390957e-06 1.2312933e-06 1.020261e-06
000080 99 ba a6 35 02 3a f8 35 00 00 00 00 d1 24 ae 37
       1.2422271e-06 1.8494322e-06 0.0 2.075956e-05
000090 82 90 f2 37 18 5c fc 37 bd d2 4d 38 8c 95 d3 37
       2.891594e-05 3.0083625e-05 4.9072074e-05 2.5222798e-05
0000a0 a5 23 c8 38 00 00 00 00 f4 31 2e 38 aa 78 0b 38
       9.5433825e-05 0.0 4.1531355e-05 3.325256e-05
0000b0 09 7b db 37 b5 9c 92 38 4a 11 38 37 26 af 04 39
       2.6164127e-05 6.9910115e-05 1.097128e-05 0.00012653749
0000c0 00 00 00 00 3c ac f9 37 e3 49 d4 37 aa 18 c5 37
       0.0 2.9763316e-05 2.5306776e-05 2.3495715e-05
0000d0 c6 40 36 38 be a4 2f 37 aa 2f 90 38 00 00 00 00
       4.3452506e-05 1.046917e-05 6.875333e-05 0.0
0000e0 3d 79 c7 36 6d c3 ff 36 7b a6 06 37 d1 bd 30 37
       5.944776e-06 7.6223428e-06 8.025784e-06 1.0534613e-05
0000f0 85 c9 07 37 ce 26 c0 37 00 00 00 00 f1 11 3d 38
       8.093547e-06 2.2906253e-05 0.0 4.507782e-05
000100 89 81 53 38 4c 02 67 38 c8 a7 99 38 b6 56 e7 37
       5.042696e-05 5.507683e-05 7.32686e-05 2.7577724e-05
000110 2a e1 06 39 00 00 00 00 64 ab 55 38 5c 03 33 38
       0.00012863116 0.0 5.0942777e-05 4.2680054e-05
000120 33 e6 29 38 4b 0f e5 38 49 6f 7d 37 7c 8d 43 39
       4.050713e-05 0.000109224195 1.5105886e-05 0.00018649356
000130 00 00 00 00 2d 9d 94 37 29 ac 82 37 3a f6 a1 37
       0.0 1.7716166e-05 1.5577376e-05 1.9307354e-05
000140 da f3 67 37 59 6e a8 37 2b 29 c3 37 00 00 00 00
       1.3825449e-05 2.0078545e-05 2.3264982e-05 0.0
000150 00 0c 72 37 0e 31 72 37 24 6e 87 37 f9 fb a4 37
       1.4427118e-05 1.44357455e-05 1.6144542e-05 1.9667657e-05
000160 c1 f5 82 37 06 a8 1e 38 00 00 00 00 63 3d 76 37
       1.5611646e-05 3.782662e-05 0.0 1.4677035e-05
000170 7a 7b a4 37 cc 96 c7 37 41 2c 6d 37 ca a6 a2 37
       1.9607822e-05 2.3792869e-05 1.41366045e-05 1.9389572e-05
000180 c7 74 c7 37 00 00 00 00 ed d1 b9 37 9a 2c d3 37
       2.3777027e-05 0.0 2.2151473e-05 2.517393e-05
000190 af 2d 0b 38 82 ef 0f 38 0a 78 e0 37 af be a0 38
       3.318273e-05 3.4316916e-05 2.6758778e-05 7.664912e-05
0001a0 00 00 00 00 3b 3f 6f 37 82 90 9f 37 e2 b1 b7 37
       0.0 1.4260232e-05 1.9021569e-05 2.1898133e-05
0001b0 ff b6 99 37 fe aa aa 37 29 70 c5 37 00 00 00 00
       1.8324235e-05 2.0345204e-05 2.3536459e-05 0.0
0001c0 d1 cf 1e 37 b2 bb 1c 37 72 7b 4c 37 89 fd 04 37
       9.46592e-06 9.342026e-06 1.2188089e-05 7.926844e-06
0001d0 88 3f 7b 37 70 7a 0f 37 00 00 00 00 9b 59 c0 37
       1.4975558e-05 8.551971e-06 0.0 2.292991e-05
0001e0 b3 a5 e9 37 6c db 0c 38 97 dd 0f 38 bf 59 b7 37
       2.7852924e-05 3.3582954e-05 3.430023e-05 2.1857091e-05
0001f0 6f 44 7b 38 00 00 00 00 be 4e 03 38 86 34 42 38
       5.9906797e-05 0.0 3.130617e-05 4.630212e-05
000200 bd bc 68 38 0f 28 bb 38 98 c4 9c 37 9a 40 23 39
       5.5488887e-05 8.924316e-05 1.8688195e-05 0.00015568957
000210 00 00 00 00 9f eb 38 37 85 27 4a 37 55 3d 56 37
       0.0 1.1022114e-05 1.204934e-05 1.2769674e-05
000220 87 f5 e0 37 61 08 93 36 7f 35 60 38 00 00 00 00
       2.6817213e-05 4.381917e-06 5.3455584e-05 0.0
000230 ee b0 07 37 4a 1d ee 36 c2 16 23 37 26 c0 d4 37
       8.087822e-06 7.0963624e-06 9.720856e-06 2.5361845e-05
000240 0d 64 54 37 13 e7 8c 38 00 00 00 00 b4 95 b7 36
       1.265948e-05 6.718761e-05 0.0 5.4712527e-06
000250 28 59 48 37 1d 5b 48 37 02 c6 05 38 1c 7c 35 37
       1.1941687e-05 1.1942143e-05 3.189408e-05 1.0817337e-05
000260 61 e8 a4 38 00 00 00 00 bc f6 32 37 c7 0d a7 37
       7.863413e-05 0.0 1.0667074e-05 1.9914367e-05
000270 7e 71 aa 37 73 ca ac 37 c6 9a 7d 37 44 f2 57 38
       2.0318428e-05 2.059827e-05 1.5116011e-05 5.1485622e-05
000280 00 00 00 00 0f 8f 70 35 22 c9 89 35 bb 36 9d 35
       0.0 8.9615145e-07 1.0265833e-06 1.171334e-06
000290 a9 67 b5 35 b4 c9 7d 35 90 45 25 36 00 00 00 00
       1.351572e-06 9.454336e-07 2.4627407e-06 0.0
0002a0 83 c7 1c 38 84 12 15 38 cf cd 46 38 c8 12 42 38
       3.7379108e-05 3.5541612e-05 4.7398553e-05 4.6270696e-05
0002b0 7d 72 19 38 d6 96 e1 38 00 00 00 00 10 d2 11 39
       3.6584668e-05 0.000107569314 0.0 0.00013906532
0002c0 8b 01 00 39 44 69 e0 38 a8 3c c7 39 dc 3e 84 37
       0.00012207606 0.000107007596 0.0003800143 1.5764897e-05
0002d0 94 c6 2f 3a 00 00 00 00 6c 1c f9 36 f0 46 43 37
       0.00067053107 0.0 7.424087e-06 1.1639422e-05
0002e0 73 09 5a 37 45 e4 81 37 18 eb de 36 10 92 20 38
       1.2996013e-05 1.5484295e-05 6.643484e-06 3.8283004e-05
0002f0 00 00 00 00 ea af 9d 36 e9 4a 91 36 9c ab b7 36
       0.0 4.6994437e-06 4.3300574e-06 5.473803e-06
000300 bf fb d9 36 9c f4 b0 36 e6 6a 39 37 00 00 00 00
       6.496411e-06 5.273685e-06 1.10517485e-05 0.0
000310 22 b8 97 38 34 a0 83 38 87 d8 6a 38 75 0f 0e 39
       7.2345385e-05 6.276407e-05 5.5991604e-05 0.00013547933
000320 74 2b 08 37 15 67 56 39 00 00 00 00 d2 66 c0 37
       8.116349e-06 0.00020447031 0.0 2.2936063e-05
000330 75 a3 16 38 e3 34 27 38 40 bf 0f 38 36 7f 5e 37
       3.5915018e-05 3.9865157e-05 3.4271972e-05 1.326185e-05
000340 b5 b8 67 38 00 00 00 00 c7 a0 fe 36 89 af 23 37
       5.5246714e-05 0.0 7.588507e-06 9.756427e-06
000350 88 99 48 37 43 ea 98 37 68 0b 0f 37 a5 28 49 38
       1.1956676e-05 1.8228899e-05 8.52612e-06 4.7959988e-05
000360 00 00 00 00 ac 98 09 37 99 b8 12 37 00 11 19 37
       0.0 8.201383e-06 8.745258e-06 9.123469e-06
000370 b8 29 5a 37 28 3c c2 36 77 f2 cd 37 00 00 00 00
       1.3003526e-05 5.7886537e-06 2.455081e-05 0.0
000380 af 89 8b 37 7d 6a 0a 38 1b fd 16 38 2f a7 a0 38
       1.6634205e-05 3.300094e-05 3.599851e-05 7.660535e-05
000390 1b 41 b9 37 c0 76 5c 39 00 00 00 00 e3 3d 60 37
       2.2084036e-05 0.00021025073 0.0 1.336585e-05
0003a0 d0 9e 09 37 b2 8e 64 37 31 34 be 37 23 52 32 37
       8.202813e-06 1.3623083e-05 2.2674069e-05 1.0628751e-05
0003b0 14 08 16 38 00 00 00 00 aa 88 89 36 5d be ac 36
       3.577031e-05 0.0 4.098828e-06 5.1481607e-06
0003c0 36 01 d2 36 f2 b9 97 36 f2 9d 97 36 bc 2c 3c 37
       6.2586287e-06 4.5217976e-06 4.518538e-06 1.1216089e-05
0003d0 00 00 00 00 5c b8 a4 37 83 e2 b8 37 9a 9f cb 37
       0.0 1.9636173e-05 2.2039987e-05 2.4273806e-05
0003e0 88 ab 6b 38 a3 f7 a4 37 17 a8 07 39 00 00 00 00
       5.6188117e-05 1.9665638e-05 0.00012937222 0.0
0003f0 24 5d 1d 37 e2 e7 e9 36 8f 47 15 37 27 ee 40 38
       9.379615e-06 6.970936e-06 8.897753e-06 4.5998164e-05
