kingfisher_rl/config/Capture_SysID-DR0.pth (torch, 235107 bytes, 30 tensors)

value_mean_std.running_mean f8 [1]
0	0x3fb9a8a4c7543125	0.1002295481341134

value_mean_std.running_var f8 [1]
0	0x3f8e4a8ae1a82b20	0.014790616046430893

value_mean_std.count f8 []
0	0x4175e00010000000	22937601.0

running_mean_std.running_mean_std.state.running_mean f8 [11]
0	0x3fedc4e70844e5a1	0.9302859460359977
1	0x3f8f04414f23777d	0.015144834735504759
2	0xbfaf3c254535e9ad	-0.06100574941497725
3	0x3fe282295b05fb19	0.5783888604927113
4	0xbfa8023341012b86	-0.04689178627503225
5	0x40105136cdd8308e	4.079310623474283
6	0x0000000000000000	0.0
7	0x0000000000000000	0.0
8	0x0000000000000000	0.0
9	0x0000000000000000	0.0
10	0x0000000000000000	0.0

running_mean_std.running_mean_std.state.running_var f8 [11]
0	0x3fc5c8696c8178de	0.1701785831273303
1	0x3f96a5cbedfa5c1a	0.022116838836691334
2	0x3fcbae8cc70067fd	0.21626434056162216
3	0x3fd63c55bff26ba7	0.3474325537187561
4	0x3fd4374949d31e32	0.315874406904615
5	0x4024166e3384afcd	10.043809518763647
6	0x3e7767dcc1f76c92	8.719307275451014e-08
7	0x3e7767dcc1f76c92	8.719307275451014e-08
8	0x3e7767dcc1f76c92	8.719307275451014e-08
9	0x3e7767dcc1f76c92	8.719307275451014e-08
10	0x3e7767dcc1f76c92	8.719307275451014e-08

running_mean_std.running_mean_std.state.count f8 []
0	0x4165e00020000000	11468801.0

a2c_network.sigma f4 [2]
0	0xc00adcee	-2.1697345
1	0xc01e7875	-2.476102

a2c_network.actor_mlp.0.weight f4 [128, 11]
0	0x3e3e6fc5	0.18597324
1	0xbd98536a	-0.07437785
2	0xbdbd99f9	-0.092578836
3	0xbe66d877	-0.22543512
4	0x3e5a678a	0.2132856
5	0x3e7250f0	0.23663688
6	0xbe858eb3	-0.26085433
7	0xbcb6342f	-0.02224168
8	0xbe598be3	-0.21244769
9	0xbdad4538	-0.08460468
10	0x3e859d62	0.26096636
11	0xbe9f97bf	-0.3117046
12	0x3eba3a44	0.36372578
13	0xbec6c2b8	-0.38820434
14	0x3e583699	0.21114577
15	0x3ec869e1	0.3914328
16	0x3e370201	0.17871858
17	0x3e42a7e7	0.19009362
18	0xbc3bad88	-0.011454947
19	0x3e137625	0.14400537
20	0xbe90be43	-0.28270158
21	0x3dfcfe20	0.12353158
22	0x3e265bca	0.16245952
23	0xbe5e5b62	-0.21714547
24	0xbe8d8a28	-0.27644467
25	0xbe3a7a13	-0.1821063
26	0x3e1b4c6f	0.15165876
27	0x3c0d20f5	0.008613815
28	0x3e91fcac	0.28513086
29	0x3e8a0748	0.2695868
30	0x3e5d5789	0.21615423
31	0x3e90eec3	0.2830716
32	0x3db0a932	0.086260214
33	0x3e2a980e	0.16659567
34	0xbd379f6a	-0.044829763
35	0x3e9b265a	0.30302697
36	0xbe603a7c	-0.2189731
37	0xbf245339	-0.6418949
38	0xbc746e95	-0.014918943
39	0x3b78ed07	0.0037983076
40	0xbe312e27	-0.17302762
41	0xbdd09d93	-0.10186305
42	0x3e2aae6e	0.16668102
43	0xbe1ac77e	-0.15115163
44	0xbe28e5ab	-0.16493861
45	0x3e3927dd	0.18081613
46	0xbd14397e	-0.03618764
47	0xbecf8fd5	-0.40539423
48	0xbef19799	-0.47185972
49	0xbea1294b	-0.31476817
50	0x3d3886fd	0.04505061
51	0x3e96809d	0.29395
52	0xbe53ac10	-0.20671105
53	0xbe55fff6	-0.20898423
54	0x3e0e0e30	0.138726
55	0x3e0c598f	0.13706039
56	0x3d9664ef	0.0734347
57	0x3e0e1ffb	0.13879387
58	0x3cf4bdac	0.029875599
59	0x3d83ecbe	0.06441639
60	0x3ed5a22f	0.417253
61	0xbd0da6c5	-0.034582872
62	0xbe4ff71f	-0.20309113
63	0x3d856f3d	0.06515358
64	0xbe59ca84	-0.2126866
65	0xbdc0bb56	-0.094107315
66	0xbdb28b0c	-0.08717927
67	0x3b56ece1	0.0032795
68	0xbd517a01	-0.051141743
69	0x3e704db2	0.23467138
70	0x3f184c5e	0.5949153
71	0x3eddab47	0.43294737
72	0xbe87490f	-0.26422927
73	0x3e56b8fa	0.20969
74	0xbe5d954a	-0.2163898
75	0xbe93d0bd	-0.28870192
76	0xbe46190a	-0.19345489
77	0xbef75ed1	-0.48314527
78	0xbdc90854	-0.098160416
79	0x3ee27bdc	0.44235122
80	0x3e85ec61	0.26156905
81	0x3f18408e	0.594735
82	0x3d03d08e	0.032181315
83	0xbdd4c9cb	-0.103900515
84	0x3e5f0010	0.21777368
85	0xbe71c296	-0.23609385
86	0xbcf5438d	-0.029939437
87	0x3dcfad7a	0.1014051
88	0x3e925cf3	0.2858654
89	0x3dc3f747	0.09568649
90	0x3e106027	0.14099179
91	0xbe6ef0e2	-0.23334077
92	0xbe9c8807	-0.3057253
93	0xbed33c59	-0.4125698
94	0x3e8bbc4a	0.2729209
95	0x3d8673a2	0.06565024
96	0xbe08be0d	-0.13353749
97	0x3e2d6574	0.16933233
98	0xbddba89a	-0.107255176
99	0xbe9854bb	-0.29752144
100	0x3dc61aba	0.096730664
101	0x3e3ecd65	0.1863304
102	0xbc0d1893	-0.008611816
103	0xbf01b5ba	-0.5066792
104	0xbe0eb61c	-0.13936657
105	0x3e672b02	0.22575
106	0xbd2ef2a5	-0.042711873
107	0x3deb8352	0.11499657
108	0x3e938cc1	0.28818324
109	0x3e917294	0.2840773
110	0xbee83060	-0.45349407
111	0x3e0fc9ce	0.14041826
112	0x3ec772f4	0.3895489
113	0xbe90f06f	-0.28308436
114	0x3c6bab63	0.0143841235
115	0x3c8ee215	0.017441789
116	0x3e9150a3	0.28381833
117	0xbe701a35	-0.23447497
118	0x3e2a716a	0.16644827
119	0x3d349e3c	0.044096217
120	0x3e31ec61	0.17375328
121	0xbd96058c	-0.07325277
122	0x3e05bb5f	0.13059758
123	0x3da085d7	0.07838028
124	0x3df55402	0.11978914
125	0x3da3c75c	0.07997009
126	0x3e84ec60	0.2596159
127	0x3de49cfe	0.111627564
128	0x3e5bc51a	0.21461907
129	0x3e1b1faa	0.15148798
130	0x3cea5513	0.02860502
131	0x3e86bf34	0.2631775
132	0xbcf4d5f8	-0.029887185
133	0xbcce829d	-0.025208766
134	0xbe322ed5	-0.17400678
135	0x3dc89c39	0.09795422
136	0x3db65e2e	0.08904682
137	0xbe0274c3	-0.12739854
138	0xbe360ef9	-0.17779149
139	0x3e29cd7c	0.16582292
140	0x3e31cd8c	0.17363566
141	0xbe1e9e25	-0.15490015
142	0x3d1a0fc2	0.037612684
143	0x3cd72132	0.026260946
144	0x3bf58f27	0.0074938717
145	0x3e64c0d7	0.22339188
146	0xbf0112fa	-0.5041958
147	0xbe1c0ad8	-0.15238512
148	0xbf06c9b9	-0.52651554
149	0xbbfee2ac	-0.0077784862
150	0x3e310f1b	0.17290919
151	0xbe717e9f	-0.23583458
152	0x3d57ab84	0.052653804
153	0xbd9ece7d	-0.07754228
154	0x3cb6e2c6	0.02232493
155	0x3eb6b81c	0.3568734
156	0x3e2ef717	0.17086445
157	0x3e0a2780	0.1349163
158	0x3da8dbec	0.08245072
159	0xbe84216b	-0.25806746
160	0xbe954f0f	-0.2916188
161	0xbd53acc0	-0.05167842
162	0xbc6edd5e	-0.014579145
163	0xbd417f43	-0.047240507
164	0x3cd287d5	0.025699535
165	0xbd8fa062	-0.070130125
166	0x3d94c111	0.07263387
167	0x3d0bdc91	0.034145895
168	0x3ebb0311	0.36525777
169	0xbe5d30b7	-0.21600614
170	0x3eacfd72	0.33787113
171	0xbe5ee572	-0.21767214
172	0xbe88a614	-0.26689208
173	0xbe98d19e	-0.29847425
174	0xbe664b64	-0.22489697
175	0xbe17c0a0	-0.14819574
176	0x3bdc6384	0.0067257304
177	0x3d8189a0	0.06325078
178	0x3e0f8f3e	0.14019486
179	0x3c6db991	0.0145095745
180	0xbe2054e5	-0.15657385
181	0xbf0aa8e4	-0.54163957
182	0x3bf9e35c	0.0076259803
183	0xbccc07b7	-0.024906022
184	0x3e1862e5	0.14881475
185	0xbe3297d5	-0.17440732
186	0xbe85f949	-0.26166752
187	0xbe0e68ab	-0.13907115
188	0x3d55c8ce	0.052193455
189	0xbe08f63a	-0.13375178
190	0xbe318371	-0.17335297
191	0x3e65220f	0.22376274
192	0x3f18c3e8	0.5967393
193	0x3cc30d99	0.023810195
194	0xbe958c3f	-0.29208562
195	0x3e3af82f	0.18258737
196	0x3e08cfb5	0.13360484
197	0x3d14e81e	0.036354177
198	0xbdc2a4d8	-0.09504098
199	0xbdf4d758	-0.11955136
200	0xbeb402a2	-0.3515826
201	0xbe350542	-0.17677787
202	0x3efff7f6	0.49993867
203	0xbeaa279d	-0.33233348
204	0xbe2f8032	-0.17138746
205	0xbd978fa6	-0.07400446
206	0x3e86de2c	0.2634138
207	0x3e83dfd4	0.25756705
208	0xbc8710b8	-0.016487464
209	0x3ecffcdf	0.40622613
210	0xbd2c1aa9	-0.042017613
211	0xbec8df98	-0.39233088
212	0x3de2e756	0.1107928
213	0xbe354d0f	-0.17705177
214	0x3dbd8dc9	0.09255559
215	0x3d9a10b8	0.0752272
216	0x3e8a780f	0.27044722
217	0x3e858b73	0.26082954
218	0xbdfcd4a6	-0.12345247
219	0xbe625442	-0.22102454
220	0xbf1b318b	-0.6062247
221	0xbb817638	-0.0039508604
222	0x3ea09ab7	0.31368038
223	0xbef6f8a4	-0.48236573
224	0xbe91fc4d	-0.28512803
225	0xbc33862b	-0.010957281
226	0x3e93c68c	0.28862417
227	0xbe692815	-0.22769196
228	0xbd93fb9a	-0.072257236
229	0xbde237c1	-0.110457905
230	0xbdaad45b	-0.08341285
231	0x3e4c3998	0.19943845
232	0xbe7aee49	-0.24504961
233	0x3e3fb325	0.18720682
234	0xbe837263	-0.25673208
235	0xbe9e2bad	-0.30892697
236	0xbec2cb75	-0.3804585
237	0x3de67aae	0.11253868
238	0xbdc09077	-0.094025545
239	0x3d8a163f	0.06742524
240	0xbe85203c	-0.26001155
241	0x3e999947	0.29999754
242	0x3eea3d35	0.45749822
243	0x3e1d3f7a	0.15356246
244	0xbeb7cd1d	-0.35898677
245	0xbec99afc	-0.39376056
246	0xbf09a9a0	-0.5377445
247	0xbe2887ba	-0.16458026
248	0x3e921c69	0.285373
249	0xbe4499a9	-0.19199242
250	0x3e6cc5b6	0.23122296
251	0xbe20b45b	-0.156938
252	0x3d0d9565	0.0345663
253	0xbd439c77	-0.04775664
254	0x3d01e4a0	0.031712174
255	0xbd2e009c	-0.04248105

a2c_network.actor_mlp.0.bias f4 [128]
0	0x3e17ed7a	0.14836684
1	0xbe9d6ee3	-0.30748662
2	0x3d549951	0.051904026
3	0x3a6a614a	0.0008940889
4	0xbdb0da17	-0.08635347
5	0x3ed0f58f	0.40812346
6	0x3e8cee63	0.27525625
7	0xbd8dbda5	-0.069209374
8	0xbe06edfd	-0.13176723
9	0xbdd49577	-0.10380071
10	0x3de142cf	0.10999071
11	0x3e2c28b7	0.16812406
12	0xbe9941ce	-0.29933017
13	0xbe6e3eda	-0.23266163
14	0xbf0290ed	-0.5100239
15	0x3e7ef9a0	0.24899912
16	0xbf1bbaac	-0.60831714
17	0x3f2ca091	0.67432505
18	0xbe3a142a	-0.18171754
19	0xbd1e01fc	-0.03857611
20	0x3ecd2be0	0.40072536
21	0xbd0b1ab8	-0.033961028
22	0xbe043938	-0.12912452
23	0x3dd7565f	0.10514521
24	0x3e3d99b6	0.18515667
25	0x3d8db539	0.06919331
26	0x3d1cfa58	0.038324684
27	0xbc6c9c9f	-0.014441638
28	0x3e418d61	0.18901588
29	0xbeca20d2	-0.39478165
30	0xbe7680ac	-0.24072522
31	0x3e275523	0.16341071
32	0x3d6d8f58	0.05799803
33	0x3e81cc7a	0.25351316
34	0xbdaf550a	-0.08561142
35	0x3e63fe14	0.22264892
36	0xbf15feff	-0.5859222
37	0x3f037fda	0.5136696
38	0x3db82279	0.0899095
39	0x3f0d7468	0.55255747
40	0xbeb4fcd3	-0.3534914
41	0x3df27257	0.11838215
42	0x3df5201e	0.119690165
43	0xbcb5f0c7	-0.022209538
44	0xbf242567	-0.6411957
45	0x3e4945cc	0.19655532
46	0xbd0093e9	-0.031391058
47	0xbeaece8b	-0.34141955
48	0x3e20de69	0.15709843
49	0x3ddcdebb	0.1078467
50	0xbd894bed	-0.06703935
51	0x3f093004	0.5358889
52	0xbd191f0b	-0.03738312
53	0x3eac8b0d	0.33699837
54	0x3e0b6090	0.13611054
55	0xbdeecb9e	-0.11659931
56	0xbec48f49	-0.38390568
57	0xbf268bf9	-0.6505733
58	0x3e3e9406	0.18611154
59	0x3e58292b	0.21109454
60	0x3da6ee0c	0.081508726
61	0x3d8a30b6	0.06747572
62	0xbe07aab8	-0.13248718
63	0xbecdd8a1	-0.40204337
64	0xbe646145	-0.2230273
65	0xbe5080be	-0.20361611
66	0xbed28fc3	-0.41125306
67	0x3eea3648	0.45744538
68	0x3f418abd	0.7560232
69	0xbd3f07c0	-0.04663825
70	0xbeb97445	-0.3622152
71	0xbeaf4bbf	-0.34237477
72	0x3e65faf8	0.22459018
73	0x3e3f8381	0.18702509
74	0x3dce34ff	0.10068702
75	0x3f0f1b37	0.559009
76	0x3d89711d	0.06711028
77	0x3e1cbc19	0.15306129
78	0xbeab85e3	-0.33500585
79	0xbe957d51	-0.2919717
80	0xbcfaf19c	-0.030632786
81	0xbe197c8d	-0.14988919
82	0x3da526a5	0.080640115
83	0x3d25bf39	0.040465567
84	0x3dc4d976	0.0961179
85	0xbe5a9eb7	-0.21349607
86	0x3bfbc23a	0.0076830657
87	0xbe3b4c57	-0.1829084
88	0x3e394c38	0.18095481
89	0xbf4c71af	-0.7986097
90	0x3e0ffe46	0.14061841
91	0xbf1ac58c	-0.6045768
92	0xbecb5cf9	-0.3971937
93	0x3f0beadc	0.5465524
94	0xbf253639	-0.6453586
95	0xbe566b15	-0.20939286
96	0xbe39a597	-0.18129574
97	0x3cd7a95f	0.02632588
98	0xbe203282	-0.15644267
99	0x3e4a5a6a	0.19761053
100	0x3ebc02f1	0.36720994
101	0x3db08159	0.08618421
102	0xbea522de	-0.32253164
103	0xbe142220	-0.14466143
104	0x3a5a7fa2	0.0008335059
105	0x3e9ec7be	0.31011766
106	0xbeea08ec	-0.45709932
107	0x3c32f2a8	0.010922112
108	0x3e7cabe6	0.24674949
109	0x3ece34a0	0.40274525
110	0x3f12926f	0.5725469
111	0x3d149f38	0.036284655
112	0x3ec16dd5	0.37779108
113	0x3eab6085	0.33472076
114	0x3e75eb27	0.24015485
115	0xbef4977d	-0.47771826
116	0xbe1434f7	-0.1447333
117	0xbd3300b6	-0.04370185
118	0xbeebe533	-0.46073303
119	0x3ee2a23f	0.4426441
120	0x3e81c3b7	0.2534463
121	0xbe26bf6d	-0.1628396
122	0x3dbc1dcc	0.09185371
123	0x3f054e4e	0.5207261
124	0x3e126d64	0.14299542
125	0xbd9a1517	-0.07523554
126	0x3eaebb83	0.34127435
127	0x3dae664a	0.08515604

a2c_network.actor_mlp.2.weight f4 [128, 128]
0	0x3dc2c2ef	0.09509837
1	0x3dca9b08	0.09892851
2	0xbd24698d	-0.040139724
3	0x3dffd983	0.12492659
4	0xbc0f3c8b	-0.008742462
5	0xbd577d1c	-0.052609548
6	0x3d215aa1	0.03939307
7	0xbd935b2d	-0.07195125
8	0x3d883ea1	0.066525705
9	0x3d8ca22c	0.06866869
10	0xbd6828cb	-0.05667953
11	0xbd3992f5	-0.045306165
12	0xbc9ced1a	-0.019156028
13	0x3c5f568d	0.013631475
14	0x3c65818e	0.014007939
15	0x3d6c72a6	0.057726525
16	0xbda142ce	-0.0787407
17	0x3ac04bb4	0.0014670999
18	0xbc9ba9c2	-0.019001845
19	0x3c5b501d	0.0133858
20	0xbd80c0ff	-0.06286811
21	0xbd3a5eb3	-0.04550047
22	0x3deef177	0.116671495
23	0x3e212409	0.15736403
24	0xbd39f5e1	-0.045400504
25	0xbcdf6fcd	-0.02727499
26	0x3e02e986	0.12784395
27	0x3d26debd	0.040739764
28	0xbdf3f2f6	-0.119115755
29	0xbd54f3c5	-0.05199029
30	0x3d06c9dc	0.03290735
31	0xbda6c448	-0.081429064
32	0xbd67e959	-0.056619022
33	0xbd37c21c	-0.04486285
34	0xbce65bb0	-0.028119892
35	0xbcc70b52	-0.02429739
36	0x3d33bb39	0.04387972
37	0x3cac3726	0.02102239
38	0xbc9bb727	-0.019008232
39	0xbd048e77	-0.032362428
40	0xbd6aa870	-0.05728954
41	0xbd6b6e3c	-0.057478175
42	0xbc2a4dd4	-0.010394532
43	0xbd763117	-0.06010541
44	0x3d4d4c8f	0.05012184
45	0xbdc8bb7b	-0.09801384
46	0x3cd66191	0.02616957
47	0xbd9acdf6	-0.07558815
48	0x3de7b156	0.11313121
49	0xbcaa8c98	-0.020818993
50	0xbdd04270	-0.10168922
51	0xbd2917e7	-0.04128256
52	0x3ce2b068	0.027672008
53	0x3d5dac6f	0.054119524
54	0xbca4bb49	-0.020108836
55	0xbc8d04a1	-0.017214121
56	0x3c407740	0.011747181
57	0x3d01f816	0.031730734
58	0xbd3c34d0	-0.045948803
59	0x3e2baded	0.16765566
60	0x3e207373	0.1566904
61	0xbd4f309b	-0.050583463
62	0xbc2845ea	-0.010270575
63	0xbd741dd1	-0.059598748
64	0xbdf0157f	-0.1172285
65	0xbd4abe7e	-0.049498074
66	0x3c2fa267	0.010719872
67	0xbd143f08	-0.036192924
68	0x3c1f1765	0.009710168
69	0xbdb6a598	-0.08918303
70	0x3c70ff18	0.014709257
71	0x3cc7cf81	0.024390938
72	0x3cde94a4	0.027170487
73	0x3db48ddc	0.0881612
74	0xbe0c9733	-0.13729553
75	0x3b4a3729	0.0030855632
76	0x3dfaf964	0.12254599
77	0xbd472527	-0.048619416
78	0xbd89727f	-0.067112915
79	0xbc5c7a81	-0.013456942
80	0xbe0b697f	-0.13614462
81	0xbe13f79c	-0.14449924
82	0xbd810de2	-0.06301476
83	0xbdc6faf6	-0.09715836
84	0x3d5652f0	0.05232519
85	0xbd8585f9	-0.06519694
86	0x3b5059c6	0.003179179
87	0xbc823bb4	-0.01589761
88	0xbe0088d7	-0.125522
89	0x3de2b607	0.11069875
90	0x3d309f88	0.04312089
91	0x3d90d055	0.07070986
92	0x3c3fedbe	0.011714397
93	0xbd1d818b	-0.03845362
94	0x3e21cae5	0.15800054
95	0x3c18c0d0	0.009323314
96	0xbd851de1	-0.064998396
97	0xbd583c10	-0.052791655
98	0xbb5f5f2a	-0.0034083822
99	0x3d1d095e	0.03833901
100	0x3da60709	0.081068106
101	0xbd8834ca	-0.06650694
102	0x3cdf326e	0.027245726
103	0xbc9d9637	-0.019236667
104	0x3d904245	0.0704389
105	0x3d6b6754	0.05747159
106	0xbd93ef0f	-0.07223331
107	0x3d517134	0.05113335
108	0xbd643843	-0.055717718
109	0xbca0296a	-0.019550998
110	0xbd3d8b07	-0.046275165
111	0x3e139e2a	0.14415804
112	0xbda2f86f	-0.07957541
113	0xbdbaf5f3	-0.09128942
114	0x3c29e435	0.01036935
115	0xbd9853a3	-0.074378274
116	0xbc51eaf5	-0.012812366
117	0xbdd64d20	-0.10463929
118	0x3d0c4f16	0.03425511
119	0xbbdb342c	-0.006689569
120	0x3db0fbbf	0.08641767
121	0xbd86780e	-0.06565867
122	0xbd367611	-0.04454619
123	0xbe170641	-0.1474848
124	0x3da41034	0.08010903
125	0xbc8fc21e	-0.017548617
126	0xbdc26163	-0.09491231
127	0x3e313e18	0.17308843
128	0x3e595edb	0.2122759
129	0xbeb3e0b9	-0.35132387
130	0x3e0f8d7a	0.14018813
131	0x3dcb47d4	0.099258095
132	0xbd1ea079	-0.038727257
133	0x3f014b0e	0.5050515
134	0x3e6519be	0.22373101
135	0x3e8c800c	0.27441442
136	0xbe7bdc29	-0.24595703
137	0xbe6fb430	-0.2340858
138	0x3e8e2a87	0.2776682
139	0x3e5038aa	0.20334116
140	0xbe80559e	-0.2506532
141	0xbe839401	-0.25698856
142	0xbe7da01f	-0.24768113
143	0x3c270b82	0.010195615
144	0xbf128f9d	-0.57250386
145	0x3f730c21	0.9494038
146	0xbde3a8c7	-0.11116176
147	0xbe24d4f6	-0.16096863
148	0x3f148ca4	0.580271
149	0x3c0a43d7	0.008439026
150	0xbe8e2264	-0.27760613
151	0xbe21b420	-0.15791368
152	0xbc18dbb6	-0.009329727
153	0x3d2525c4	0.04031922
154	0x3dba5798	0.090987384
155	0xbe5945b7	-0.21218
156	0x3ea256e0	0.31706905
157	0xbdfc1555	-0.12308756
158	0xbd16a0ca	-0.036774434
159	0x3e987767	0.29778597
160	0x3e396fef	0.18109106
161	0x3da7d777	0.081953935
162	0xbd389072	-0.04505963
163	0xbd777aba	-0.060419776
164	0xbeec1972	-0.46113163
165	0x3e4afc31	0.19822766
166	0x3e02fc06	0.12791452
167	0x3f4914db	0.7854745
168	0xbd30ccb6	-0.043163978
169	0x3d63513b	0.05549739
170	0xbdfaaf80	-0.12240505
171	0xbd11643e	-0.03549599
172	0xbef4b3bd	-0.4779338
173	0xbe293709	-0.165249
174	0x3e54679c	0.20742649
175	0xbeb30eb5	-0.34972158
176	0x3db8d69d	0.09025309
177	0x3e9a6e2c	0.3016218
178	0xbe26766f	-0.16256116
179	0x3d981ddc	0.0742757
180	0x3d6c0b1f	0.057627793
181	0x3e9b3a7c	0.30318058
182	0x3e021705	0.12704094
183	0x3d3b08e9	0.045662794
184	0xbec8e1e4	-0.3923484
185	0xbf5d6629	-0.8648401
186	0x3d0ef05e	0.0348972
187	0xbf058e3a	-0.52170146
188	0x3d2175e9	0.03941909
189	0x3e02ba3b	0.12766354
190	0x3d6b7925	0.05748858
191	0xbe4a2dfd	-0.19744106
192	0xbdfe82d1	-0.12427295
193	0xbc9f164c	-0.019419812
194	0xbe0e1513	-0.13875227
195	0x3f44ed13	0.76924247
196	0x3ea9c45a	0.33157617
197	0xbe790fb4	-0.24322397
198	0xbe4af388	-0.19819462
199	0xbe081dfd	-0.1329269
200	0x3e8916a7	0.26775095
201	0x3e9393cf	0.28823707
202	0xbe95df0d	-0.29271737
203	0x3eb325e6	0.34989852
204	0x3eb770c7	0.3582823
205	0x3ee7aeb0	0.45250463
206	0xbe110119	-0.14160575
207	0x3c940c90	0.018072397
208	0x3cdcd81f	0.026958523
209	0xbd94c987	-0.07265001
210	0x3d7855ca	0.06062869
211	0xbccd544f	-0.025064616
212	0x3e3c9ea5	0.18419893
213	0xbea48b06	-0.32137316
214	0x3c889418	0.01667218
215	0xbcab75c7	-0.020930184
216	0xbe0ae71c	-0.13564724
217	0xbf98137c	-1.1880946
218	0x3cac6700	0.021045208
219	0xbf00cfb0	-0.50316906
220	0xbf0080cd	-0.50196534
221	0x3e72c0d0	0.23706365
222	0xbf389452	-0.7210132
223	0xbe8d7148	-0.2762549
224	0xbe33209d	-0.1749291
225	0xbe0758d2	-0.13217476
226	0xbe81d837	-0.2536027
227	0x3e69da15	0.22837098
228	0x3e5f9a6d	0.21836253
229	0x3e86c83e	0.26324648
230	0xbed8985a	-0.42303735
231	0xbe1a3617	-0.15059696
232	0xbe426de2	-0.1898723
233	0xbecf9dfc	-0.4055022
234	0xbea13697	-0.3148696
235	0x3d4b639b	0.049655538
236	0x3e0a20b9	0.13489045
237	0x3e96cb76	0.29452103
238	0x3f13e8e5	0.57777244
239	0x3c181843	0.009283128
240	0xbd6be29b	-0.057589155
241	0x3ecfd9a0	0.40595722
242	0x3ee2f191	0.44324926
243	0xbf0d398a	-0.5516592
244	0xbe97fe85	-0.2968637
245	0xbcfc3f2e	-0.030791845
246	0xbef93789	-0.48675182
247	0x3eb73f66	0.35790557
248	0x3e716465	0.23573454
249	0xbe29c797	-0.16580044
250	0x3e5132e3	0.20429568
251	0x3ec65423	0.38736066
252	0x3d0d1b84	0.03445007
253	0xbdabb1a8	-0.083834946
254	0x3db1695e	0.08662675
255	0xbc6c15bb	-0.014409478

a2c_network.actor_mlp.2.bias f4 [128]
0	0x3dfa60c5	0.122254886
1	0x3e044c28	0.12919676
2	0x3df216f8	0.11820787
3	0xbe11e362	-0.14246896
4	0xbd0a82d4	-0.033816174
5	0xbd505edc	-0.050871715
6	0xbd988435	-0.074470915
7	0x3d1a635d	0.037692416
8	0xbe2d439e	-0.16920325
9	0xbf244f44	-0.6418345
10	0xbeaca52b	-0.33719763
11	0x3ed8b221	0.42323402
12	0xbcab3a24	-0.020901747
13	0xbc402155	-0.011726697
14	0x3de484d0	0.111581445
15	0x3c6a1c61	0.014288993
16	0xbd17f3ad	-0.03709762
17	0x393bb817	0.00017902289
18	0xbe1602ff	-0.1464958
19	0x3d9f7b96	0.07787244
20	0x3dc0ae06	0.09408192
21	0xbe5e6a6c	-0.21720284
22	0xbc578da3	-0.013156327
23	0x3c4193a6	0.011814987
24	0x3c8920a4	0.016739197
25	0xbd0570d5	-0.032578308
26	0x3d51fa8a	0.051264323
27	0x3de9d748	0.11418015
28	0x3d4cfbf6	0.050044976
29	0x3d703782	0.058646686
30	0xbd4cfaf2	-0.050044008
31	0xbe027a4c	-0.12741965
32	0x3c73835f	0.014862864
33	0x3e3b0363	0.1826301
34	0xbe0d2510	-0.1378367
35	0xba2d0c69	-0.00066012755
36	0xbeea1288	-0.45717263
37	0xbf1beed4	-0.609113
38	0x3c02acb9	0.007975751
39	0x3b6cdb4c	0.0036141453
40	0x3dc5f87f	0.096665375
41	0xbde0e7c4	-0.10981706
42	0x3ec27779	0.37981775
43	0xbd52eb18	-0.051493734
44	0x3c9b9d03	0.018995767
45	0x3da19f62	0.07891728
46	0xbc1f103c	-0.00970846
47	0xbf2b01ec	-0.6679981
48	0x3d5deb9c	0.054179773
49	0x3ea6fedf	0.32616326
50	0x3e5dfc6d	0.21678324
51	0x3c7834d2	0.015149312
52	0x3e59e953	0.21280412
53	0xbe36b905	-0.17844017
54	0xbbeb1b13	-0.0071748584
55	0xbd8bf6b3	-0.068341635
56	0x3db87d98	0.0900833
57	0xbf5817dd	-0.8441141
58	0x3d1019f2	0.035180993
59	0xbd98f831	-0.07469214
60	0x3d3b03be	0.045657866
61	0xbec3fdf7	-0.38279697
62	0xbee6c830	-0.45074606
63	0x3d199304	0.03749372
64	0x3dbad059	0.091217704
65	0xbc7a8a27	-0.015291727
66	0xbcdb4e37	-0.026770694
67	0xba2aba3d	-0.0006512737
68	0x3d0e5e51	0.034757916
69	0xbd1a5dff	-0.037687298
70	0x3def62d2	0.1168877
71	0x3e134041	0.1437998
72	0x3e9c69ff	0.3054962
73	0x3c78e13b	0.015190418
74	0x3ddb4cac	0.107079834
75	0xbf26098a	-0.64858305
76	0x3d5d2017	0.05398568
77	0xbd78d3ba	-0.060748793
78	0x3db02c86	0.08602242
79	0x3d317eb6	0.04333373
80	0xbd153f4e	-0.036437325
81	0xbd1f5aaa	-0.038904823
82	0xbd808249	-0.0627485
83	0xbdd1f97a	-0.10252662
84	0x3d48353a	0.048878886
85	0x3e6433df	0.22285412
86	0x3d01bdbb	0.03167508
87	0xbd8a3419	-0.06748218
88	0x3c605e0e	0.013694299
89	0x3c41a0e6	0.011818146
90	0xbd41633d	-0.04721378
91	0x3d2a5671	0.041586343
92	0xbd1b0ba6	-0.037852906
93	0xbeeb5829	-0.45965698
94	0x3da97886	0.08274941
95	0x3c715cc9	0.014731594
96	0x3e6d4f5d	0.23174806
97	0x3d250bc1	0.040294413
98	0xbbc24c77	-0.0059295255
99	0x3e139097	0.14410625
100	0x39df3b3a	0.00042578002
101	0x3d788498	0.060673326
102	0xba71cbf1	-0.000922381
103	0x3e167080	0.14691353
104	0xbc28392a	-0.010267535
105	0x3ce734e3	0.02822346
106	0x3b9c0a50	0.0047619715
107	0x3c278cb3	0.010226416
108	0x3cf073c5	0.029352078
109	0xbd3c692e	-0.045998745
110	0x3e9932bc	0.2992152
111	0x3ddf3673	0.10899057
112	0x3db47113	0.0881063
113	0xbc342beb	-0.010996799
114	0x3d732603	0.059362423
115	0xbed62ef1	-0.41832688
116	0xbcad00a2	-0.021118466
117	0x3e17cb20	0.1482358
118	0xbd865d17	-0.06560724
119	0xbe49f578	-0.19722545
120	0x3caa8e9b	0.020819953
121	0xbe723b62	-0.23655465
122	0x3e696c68	0.2279526
123	0xbc69b62e	-0.014264626
124	0x3d15f3e3	0.03660954
125	0x3ec5e2bf	0.38649556
126	0x3cd2e746	0.025745045
127	0xbd33f57d	-0.043935288

a2c_network.value.weight f4 [1, 128]
0	0xbcfb66e3	-0.030688709
1	0x3e194725	0.14968546
2	0xbbdefc4b	-0.006804978
3	0xbceed838	-0.029155836
4	0x3c835290	0.01603058
5	0x3c445e88	0.011985429
6	0x3c908c69	0.017645078
7	0xb9fef2b3	-0.0004862748
8	0x3c935798	0.017986104
9	0xbbea4168	-0.0071489103
10	0xbaab18c0	-0.0013053641
11	0xbd0e5dc2	-0.034757383
12	0x3b7293e3	0.0037014417
13	0xbc729f69	-0.014808514
14	0xbe9bb130	-0.3040862
15	0x3c8a3a79	0.016873585
16	0x3b2e773e	0.0026621367
17	0x3c719858	0.014745794
18	0xbdc383aa	-0.09546597
19	0x3d8883dc	0.06665775
20	0xbcea9029	-0.028633194
21	0x3e523ae1	0.20530273
22	0xbe47352d	-0.19453879
23	0xbb9b0c5c	-0.004731698
24	0xbd466954	-0.048440292
25	0xba8f83d8	-0.0010949327
26	0xbbcaa109	-0.0061837477
27	0x3daa51f1	0.0831641
28	0x3bbc9a88	0.0057557262
29	0xbc961e1a	-0.0183249
30	0xba18c1ab	-0.00058271986
31	0x3c829322	0.015939299
32	0x3ce45a28	0.027875021
33	0xbbb95437	-0.005655791
34	0xbc1e28c9	-0.009653279
35	0xbc6a5e8f	-0.014304771
36	0xbd64e188	-0.055879146
37	0xbea17e52	-0.31541687
38	0xbc94aebb	-0.018149724
39	0x3caaee33	0.020865535
40	0x3c90f98f	0.017697124
41	0xbbc9b21b	-0.006155265
42	0xbda28bfa	-0.07936855
43	0xbc4253ed	-0.01186083
44	0xbc6495f5	-0.013951768
45	0x3be5c976	0.0070125414
46	0xbc5b67ac	-0.0133914165
47	0xbeef889d	-0.46783915
48	0xbbeaa42c	-0.007160684
49	0xbe837114	-0.2567221
50	0xbd67a025	-0.05654921
51	0x3eb0fa63	0.3456603
52	0xbd14e1c2	-0.036348112
53	0x3e93d29d	0.28871623
54	0x3c050e0e	0.008121027
55	0x3c160b3c	0.009157952
56	0xbe9b53a9	-0.30337265
57	0x3f39876b	0.72472256
58	0xbce77da5	-0.028258154
59	0xbc387bbb	-0.011259968
60	0xb9db6c9c	-0.00041851855
61	0xbd06646c	-0.032810614
62	0xbd98e049	-0.07464654
63	0xbb533ce2	-0.0032232334
64	0x3ece4ae8	0.40291524
65	0xbb88ff66	-0.0041808365
66	0xbcd9bf49	-0.02658047
67	0x3c0cfc06	0.008605009
68	0xbd27757a	-0.04088352
69	0x3c1d1b67	0.009589053
70	0xbd0a8c6c	-0.033825323
71	0x3c3a8f8d	0.011386764
72	0xb8f4f63a	-0.0001168069
73	0x3c9b77c0	0.018978
74	0xbc50f29e	-0.012753157
75	0x3bdac1ba	0.006675926
76	0x3c963e88	0.018340364
77	0xbc13c1ae	-0.009018345
78	0xbc7eb1de	-0.0155453365
79	0x3c230dc9	0.009952017
80	0xbb9b1f6c	-0.0047339704
81	0xba72381e	-0.00092399295
82	0x3c8608bc	0.016361587
83	0x3c3cfc09	0.011534699
84	0xbd08a5ee	-0.033361368
85	0xbc96fa4b	-0.018429896
86	0xbcc99ac5	-0.024609933
87	0x3c896429	0.016771393
88	0xb9a9243a	-0.00032261183
89	0xbcc094db	-0.02350848
90	0xbb895481	-0.004190982
91	0xbcade647	-0.021227969
92	0x3dbb1733	0.09135284
93	0xbd671510	-0.05641657
94	0x3bc2e12a	0.005947252
95	0xbe5e3b2a	-0.21702257
96	0x3d6db6ef	0.058035787
97	0xbaec3e9e	-0.0018024032
98	0xba8a3884	-0.0010545407
99	0xbdb76c37	-0.08956187
100	0x3c4e801b	0.012603785
101	0xbbcfb657	-0.0063388753
102	0x3b906fd3	0.0044078617
103	0xbe12b96d	-0.14328547
104	0x3bbc063c	0.005738048
105	0xbb42ebdd	-0.0029742636
106	0xbd83f829	-0.06443817
107	0x3b249e8d	0.0025118918
108	0x3d0510cb	0.03248672
109	0xbb1f11cd	-0.0024272085
110	0xbcaead11	-0.021322759
111	0xbe856335	-0.2605225
112	0xbba7a3a0	-0.005115941
113	0x3cbd0bd1	0.023076924
114	0xbc0679b0	-0.0082077235
115	0x3c1248a2	0.00892845
116	0x3d0cca13	0.0343724
117	0x3a5d843d	0.0008450186
118	0x3ab708f9	0.0013964466
119	0x3e3c8ac8	0.18412316
120	0xbc78ae32	-0.01517825
121	0xbd39706b	-0.045273226
122	0xbe331ace	-0.17490694
123	0x3d0511f3	0.03248782
124	0xbce77e47	-0.028258456
125	0x3eb9994f	0.36249778
126	0xbc87320b	-0.016503355
127	0x3c7eb880	0.015546918

a2c_network.mu.weight f4 [2, 128]
0	0x3b028ada	0.0019919188
1	0x3bad999c	0.0052978527
2	0xbacef204	-0.0015788679
3	0xbdd21299	-0.102574535
4	0xb98df3ff	-0.00027075407
5	0x39e881b4	0.00044347125
6	0x397c1734	0.00024041237
7	0x39b43400	0.00034371018
8	0xbbf39ab0	-0.0074342117
9	0x3c9f4d16	0.019445937
10	0xbd9283b1	-0.071540244
11	0x3e5a1101	0.21295549
12	0x3a9e7982	0.0012090656
13	0xb99dc74b	-0.00030093858
14	0x3b4f20b7	0.0031605193
15	0x3828771c	4.016525e-05
16	0x3a474cc8	0.0007602689
17	0x3b38f3ef	0.0028221568
18	0xbd911187	-0.07083421
19	0x3ccd9922	0.025097433
20	0xba50fc45	-0.00079721614
21	0x3d77e787	0.060523536
22	0x3bb2bd8c	0.0054547247
23	0xb88af131	-6.625278e-05
24	0xba6d453c	-0.0009051149
25	0x3a8aa4e1	0.0010577702
26	0x3987063a	0.00025753846
27	0xbb2d933a	-0.002648546
28	0x3a37991c	0.0007003711
29	0xbb1a5375	-0.002354828
30	0xb9153677	-0.00014230037
31	0xb998bfdb	-0.00029134643
32	0x3b103127	0.0022001953
33	0x3d4e77ad	0.0504071
34	0xbe807dc6	-0.25095958
35	0x3a942824	0.0011303467
36	0xbe05fef6	-0.13085541
37	0xbd4dc037	-0.05023214
38	0xba9d541a	-0.0012003214
39	0x3a93d9bb	0.0011280099
40	0x3da8df9b	0.08245774
41	0x3aac4940	0.0013144389
42	0xbe3eb135	-0.18622287
43	0xba73a4aa	-0.0009294251
44	0x3a473534	0.00075991754
45	0xbaaeabd6	-0.0013326358
46	0x3b4565c1	0.0030120465
47	0x3e0b3dce	0.13597795
48	0x3ad6df59	0.0016393467
49	0xbd1d23b3	-0.038364124
50	0x3e9da876	0.30792588
51	0x3b262079	0.0025348945
52	0xbcaad75b	-0.020854643
53	0x3d0ec73e	0.03485798
54	0x3a4e1998	0.000786209
55	0x399df307	0.00030126443
56	0xbc5a3c57	-0.01332005
57	0x3df65d67	0.12029534
58	0xbb47a4d1	-0.0030463228
59	0xbc200d3d	-0.009768781
60	0xbb35d948	-0.0027747918
61	0xbe70e122	-0.23523381
62	0xbe385a61	-0.18003227
63	0x3b7665ed	0.0037597374
64	0xbc9c0fbd	-0.019050473
65	0xb99ec4e5	-0.00030282806
66	0xbb3824d9	-0.0028098135
67	0xbab35e8b	-0.0013684792
68	0x3a0e2ec9	0.00054238416
69	0xba36f211	-0.000697882
70	0xbd361ee4	-0.044463053
71	0x3a89ddd8	0.0010518385
72	0xbdc85ca6	-0.09783296
73	0xbb7add11	-0.0038278739
74	0xbbc8c258	-0.006126683
75	0x3d31da02	0.0434208
76	0x3aa9e1dc	0.0012960988
77	0x396e8a61	0.00022748999
78	0xba512869	-0.0007978739
79	0x3b17bb26	0.002315232
80	0x3b22e22b	0.0024854045
81	0xbb44ea6a	-0.0030046948
82	0xba6cec32	-0.00090378814
83	0x3a87992f	0.0010345335
84	0x37beead6	2.2759119e-05
85	0xbe15e07f	-0.1463642
86	0xbda1f9cc	-0.07908973
87	0x3afd1120	0.0019307472
88	0x3983681a	0.0002506383
89	0x3a7f2b24	0.00097339065
90	0xbad7e3d3	-0.0016471095
91	0xbdd8cd90	-0.10586083
92	0xbb216fe0	-0.0024633333
93	0xbec631b9	-0.3870981
94	0xb9adccdb	-0.0003314976
95	0xbc7feb81	-0.015620113
96	0x3d37636f	0.04477256
97	0xbabca918	-0.0014393656
98	0x3aa6f54d	0.00127379
99	0xbd008d2d	-0.031384636
100	0x39a13bde	0.00030752918
101	0x39e9cf8b	0.00044595855
102	0xb60b422b	-2.075113e-06
103	0x3bff8045	0.0077972733
104	0x3b0ac468	0.0021174196
105	0xbaaaaec1	-0.0013022051
106	0x3d59d4ee	0.05318158
107	0xba31e363	-0.00067858974
108	0x3e195bcf	0.14976428
109	0x3a25c9af	0.00063243037
110	0xbe6bb738	-0.23019111
111	0x3c4e91e3	0.012608024
112	0x39ab11f0	0.00032629026
113	0xb8690ff6	-5.5566394e-05
114	0xba2622d6	-0.00063375884
115	0xbdf36039	-0.118835874
116	0x3b63650d	0.0034697682
117	0xba8818d0	-0.0010383371
118	0x3a4b25f0	0.00077494886
119	0xbc3f3c13	-0.011672038
120	0x387e9a12	6.070181e-05
121	0x3e0866c6	0.13320455
122	0xbb2ac198	-0.0026055332
123	0xbdfeeb19	-0.12447185
124	0xbb307b8c	-0.0026929108
125	0xbd0f2d2d	-0.034955192
126	0xba78d4b5	-0.0009492145
127	0xba779f8b	-0.0009446076
128	0xba169148	-0.00057436945
129	0x3d508667	0.050909426
130	0x3a5536fb	0.0008133498
131	0xbd923b9c	-0.07140276
132	0xba4bc6f4	-0.0007773482
133	0x38dc21b5	0.00010496696
134	0xbaff0d8c	-0.0019458993
135	0xbb2ace56	-0.0026062927
136	0x3d961a4f	0.07329237
137	0xbcd9296b	-0.026509007
138	0x3d5c80cd	0.05383377
139	0xbcfa65c1	-0.030566098
140	0x38ea506d	0.0001117297
141	0x3aa0642e	0.0012236887
142	0x3b6cfa03	0.003615976
143	0xb8de7c64	-0.000106089545
144	0xba8471d4	-0.0010104724
145	0x3b128750	0.0022358485
146	0xbc98ba89	-0.018643634
147	0x3d35560b	0.04427151
148	0xb8e0c5c6	-0.000107179905
149	0xbdcc8013	-0.09985366
150	0x3b5f0a25	0.0034033146
151	0xba3362fb	-0.00068430573
152	0xb9e2127e	-0.00043119857
153	0x3b2f2885	0.0026727032
154	0x3abfd875	0.0014636653
155	0x3cf22a7b	0.029561272
156	0x37b0254f	2.0998208e-05
157	0x3af18278	0.0018425724
158	0xb831fa48	-4.243318e-05
159	0xba87daed	-0.0010364928
160	0xb9f47f73	-0.00046634264
161	0xbd9ea285	-0.07745842
162	0x3c0b9eaf	0.00852172
163	0x3b03cafd	0.0020110004
164	0xbcbf4c5e	-0.023351844
165	0x3d81c331	0.06336058
166	0x3aba1c92	0.0014199188
167	0xbb01a50c	-0.0019782213
168	0xbd7cfa66	-0.061762236
169	0x3a198b8b	0.00058572803
170	0x3c6b6b72	0.014368879
171	0xbabdef01	-0.0014490784
172	0x38dd2b9d	0.00010546225
173	0xbb79d701	-0.0038122537
174	0x3a8ac59c	0.0010587457
175	0xbde645fc	-0.11243817
176	0x394ddfe0	0.00019633723
177	0x3c6098ee	0.013708336
178	0xbd02524d	-0.03181677
179	0x3afa59fc	0.0019100304
180	0x3d5e8869	0.05432931
181	0x3c15cff9	0.009143823
182	0xbaab7c32	-0.0013083278
183	0x3a9a17a4	0.0011756313
184	0x3c762e34	0.015025664
185	0xbd8819ad	-0.06645522
186	0xbb036d3f	-0.002005413
187	0xbe1f8c4b	-0.15580861
188	0xbb1500aa	-0.0022735992
189	0x3c614b50	0.013750866
190	0x3c777c41	0.015105308
191	0xba918673	-0.0011102691
192	0xbc9f3b49	-0.019437449
193	0x392beaa1	0.00016395237
194	0x3adf7c77	0.0017050643
195	0x3732a62c	1.0648317e-05
196	0x3b0e42f1	0.002170738
197	0x3aa4cfa4	0.0012574089
198	0x3e22bcdc	0.15892357
199	0xba8c3212	-0.0010696074
200	0x3dbbe291	0.091740735
201	0xbb3dec58	-0.0028979983
202	0xbb1d854b	-0.0024035748
203	0x3cf2c6bb	0.029635778
204	0xbb20f14a	-0.0024557882
205	0xbab7050b	-0.0013963295
206	0xbb057da7	-0.0020369084
207	0xbab6f768	-0.0013959231
208	0x3adf3b06	0.001703114
209	0x39317d7d	0.00016926783
210	0xba860890	-0.001022594
211	0x3b1302c5	0.002243207
212	0x39f1723c	0.00046052213
213	0x3e1e1b47	0.15440093
214	0x3e0289ca	0.12747875
215	0x39fed5a9	0.00048605844
216	0x3a917776	0.0011098224
217	0x3b271c67	0.0025499107
218	0x39c20efe	0.00037013734
219	0xbe0288d7	-0.12747513
220	0x3b66c849	0.0035214594
221	0xb8e625f4	-0.00010974324
222	0xbadda254	-0.001690934
223	0x3d39c78d	0.045356322
224	0xb8aabda7	-8.141557e-05
225	0xbb587384	-0.0033027837
226	0xb9947375	-0.00028314782
227	0xbde0364e	-0.10947858
228	0x3aef12f7	0.0018239905
229	0xbae3592f	-0.0017345304
230	0xb9dce977	-0.00042135615
231	0x3c04a7f1	0.008096681
232	0xb9fbeeff	-0.00048052517
233	0x39b2bc11	0.00034090926
234	0xbe2eb0e2	-0.17059663
235	0xbacfca6a	-0.0015853171
236	0x3cf7ea51	0.030263098
237	0x3b5cffd3	0.003372182
238	0x3d993883	0.07481482
239	0x3bb9e639	0.0056731966
240	0x39753963	0.00023386399
241	0x3a3f264e	0.00072917796
242	0x3ad2067b	0.001602366
243	0xbd7617d1	-0.060081307
244	0xbbd8957a	-0.006609616
245	0xba1810ab	-0.00058008236
246	0xbab4c798	-0.0013792394
247	0xbb491ec2	-0.00306885
248	0xb92b7b03	-0.00016353656
249	0xbd6c2204	-0.057649627
250	0xbaab9fa8	-0.0013093846
251	0x3cafc9c9	0.021458523
252	0xbacb2a84	-0.0015500342
253	0xbac243d8	-0.0014821244
254	0x39bbbb25	0.00035806853
255	0xbb0d664e	-0.002157587

a2c_network.mu.bias f4 [2]
0	0x3e99f159	0.30066946
1	0x3e15393f	0.14572619

exp_avg f4 [2]
0	0xbb05c04a	-0.0020408803
1	0xba903fa1	-0.0011005291

exp_avg_sq f4 [2]
0	0x37ff62c0	3.0444353e-05
1	0x3802a69c	3.1149582e-05

exp_avg f4 [128, 11]
0	0xba3c9ca5	-0.0007194973
1	0x3aa9c078	0.0012951037
2	0xba95de8e	-0.0011434124
3	0x3998a854	0.00029117113
4	0xb70c1c4a	-8.351237e-06
5	0xba3800e1	-0.0007019174
6	0x00000000	0.0
7	0x00000000	0.0
8	0x00000000	0.0
9	0x00000000	0.0
10	0x00000000	0.0
11	0x3a469b75	0.00075762655
12	0x3a4ca8b3	0.00078071206
13	0xb9ddbf80	-0.00042295083
14	0xb99e1108	-0.00030148798
15	0xb81d2338	-3.7464517e-05
16	0x3973b596	0.00023241932
17	0x00000000	0.0
18	0x00000000	0.0
19	0x00000000	0.0
20	0x00000000	0.0
21	0x00000000	0.0
22	0x38d18800	9.9912286e-05
23	0x3a8bbc9d	0.001066107
24	0xbaa44d4f	-0.0012535247
25	0x3a1d99ab	0.0006011973
26	0x39119693	0.00013884371
27	0xba5c443e	-0.0008402503
28	0x00000000	0.0
29	0x00000000	0.0
30	0x00000000	0.0
31	0x00000000	0.0
32	0x00000000	0.0
33	0xbab5b394	-0.0013862723
34	0xbb05015d	-0.0020295002
35	0x3b0f9a3a	0.0021911995
36	0xba3b5a7f	-0.0007146969
37	0x3a91d5d0	0.0011126343
38	0xba16cd2b	-0.00057526183
39	0x00000000	0.0
40	0x00000000	0.0
41	0x00000000	0.0
42	0x00000000	0.0
43	0x00000000	0.0
44	0xba7bddc9	-0.00096079387
45	0xbaa200e1	-0.0012359881
46	0x3aa18558	0.0012323065
47	0xba43e519	-0.0007472798
48	0x3a304762	0.0006724504
49	0xb9bccac3	-0.00036009224
50	0x00000000	0.0
51	0x00000000	0.0
52	0x00000000	0.0
53	0x00000000	0.0
54	0x00000000	0.0
55	0x39e11e4f	0.00042937926
56	0x39f76734	0.00047188404
57	0xba0a6232	-0.00052789145
58	0x3a18e944	0.0005833099
59	0xb97033fb	-0.00022907548
60	0xb9b7fcf4	-0.00035092945
61	0x00000000	0.0
62	0x00000000	0.0
63	0x00000000	0.0
64	0x00000000	0.0
65	0x00000000	0.0
66	0x3a6ac032	0.0008955031
67	0x3b7e43a5	0.0038797644
68	0xbb69f81a	-0.0035700859
69	0x398a76ef	0.00026410024
70	0xbaa60577	-0.0012666424
71	0x39ae681f	0.00033265442
72	0x00000000	0.0
73	0x00000000	0.0
74	0x00000000	0.0
75	0x00000000	0.0
76	0x00000000	0.0
77	0xb99048d1	-0.00027520073
78	0x3a7260ef	0.00092460116
79	0xba9e307e	-0.0012068895
80	0x389ef385	7.579386e-05
81	0xb97c720e	-0.00024075081
82	0x39dfa26c	0.00042654888
83	0x00000000	0.0
84	0x00000000	0.0
85	0x00000000	0.0
86	0x00000000	0.0
87	0x00000000	0.0
88	0xb7f72e94	-2.9466384e-05
89	0xbac18026	-0.0014762923
90	0x3a94b98f	0.0011346805
91	0xb8600937	-5.3414344e-05
92	0x3a08566b	0.00052008656
93	0xba16054a	-0.0005722834
94	0x00000000	0.0
95	0x00000000	0.0
96	0x00000000	0.0
97	0x00000000	0.0
98	0x00000000	0.0
99	0xba2d0cbf	-0.00066013256
100	0xbb0215dd	-0.0019849457
101	0x3add5fa6	0.0016889467
102	0xb9e91f37	-0.0004446448
103	0x3a3b0355	0.00071339804
104	0xb9bbff0b	-0.0003585744
105	0x00000000	0.0
106	0x00000000	0.0
107	0x00000000	0.0
108	0x00000000	0.0
109	0x00000000	0.0
110	0xba1c521b	-0.00059631624
111	0xb947be6d	-0.00019049058
112	0xb9874d59	-0.00025806835
113	0x396d067f	0.00022604501
114	0xb8cc88ed	-9.7529824e-05
115	0xb9932e48	-0.00028072507
116	0x00000000	0.0
117	0x00000000	0.0
118	0x00000000	0.0
119	0x00000000	0.0
120	0x00000000	0.0
121	0x39a91c97	0.00032255493
122	0x3a189797	0.00058209285
123	0xb9626a26	-0.00021592583
124	0xb897c747	-7.2373594e-05
125	0xb9e761a3	-0.00044132498
126	0x3a1c40d0	0.00059605855
127	0x00000000	0.0
128	0x00000000	0.0
129	0x00000000	0.0
130	0x00000000	0.0
131	0x00000000	0.0
132	0x384064dc	4.58703e-05
133	0x37cc4750	2.4351903e-05
134	0x3866b1e3	5.5001943e-05
135	0x3820072c	3.8153652e-05
136	0x38f123c0	0.000114984345
137	0x38c8c6f7	9.573803e-05
138	0x00000000	0.0
139	0x00000000	0.0
140	0x00000000	0.0
141	0x00000000	0.0
142	0x00000000	0.0
143	0xbabc0c00	-0.0014346838
144	0xba2c554e	-0.00065739907
145	0xb896268e	-7.159739e-05
146	0xb90c66c5	-0.00013389725
147	0xb89cb53f	-7.4724194e-05
148	0xb9eb9add	-0.00044938075
149	0x00000000	0.0
150	0x00000000	0.0
151	0x00000000	0.0
152	0x00000000	0.0
153	0x00000000	0.0
154	0x38a8af54	8.043522e-05
155	0x37850b93	1.5860225e-05
156	0x39840821	0.00025183058
157	0xb9980451	-0.00028994915
158	0x39a46040	0.0003135223
159	0xb8021c0a	-3.102053e-05
160	0x00000000	0.0
161	0x00000000	0.0
162	0x00000000	0.0
163	0x00000000	0.0
164	0x00000000	0.0
165	0x3a2faa55	0.00067011017
166	0xba967ec8	-0.0011481876
167	0x3a84cb37	0.0010131364
168	0x39a47d62	0.00031373935
169	0x38940c1c	7.0594455e-05
170	0x39e95819	0.0004450686
171	0x00000000	0.0
172	0x00000000	0.0
173	0x00000000	0.0
174	0x00000000	0.0
175	0x00000000	0.0
176	0xb9691e36	-0.00022231866
177	0xbb436b6c	-0.0029818667
178	0x3b42b73d	0.002971127
179	0xb9ff25ee	-0.0004866565
180	0x3a95d841	0.0011432247
181	0x3aab26fd	0.0013057884
182	0x00000000	0.0
183	0x00000000	0.0
184	0x00000000	0.0
185	0x00000000	0.0
186	0x00000000	0.0
187	0xb931bf87	-0.00016951385
188	0x3b3b35b9	0.0028565957
189	0xbb3c91f0	-0.002877351
190	0xba44f8b5	-0.0007513867
191	0xbafcdd38	-0.0019292003
192	0x398f255d	0.00027302923
193	0x00000000	0.0
194	0x00000000	0.0
195	0x00000000	0.0
196	0x00000000	0.0
197	0x00000000	0.0
198	0x3a87caab	0.0010360082
199	0x3a8841db	0.0010395603
200	0xbab16cf5	-0.00135365
201	0x3915dc7e	0.00014291887
202	0xb9893d42	-0.00026176317
203	0xb97b1805	-0.00023946173
204	0x00000000	0.0
205	0x00000000	0.0
206	0x00000000	0.0
207	0x00000000	0.0
208	0x00000000	0.0
209	0x3a77a45f	0.00094467954
210	0xb8dbfaa9	-0.00010489423
211	0x3a7ac5c2	0.00095662114
212	0xb796f03f	-1.7993267e-05
213	0x3a1232c9	0.00055770256
214	0xb83179d1	-4.231354e-05
215	0x00000000	0.0
216	0x00000000	0.0
217	0x00000000	0.0
218	0x00000000	0.0
219	0x00000000	0.0
220	0xb9963429	-0.00028649092
221	0xba24e57d	-0.00062903
222	0x39048e0c	0.00012641418
223	0x394bdd3b	0.00019442003
224	0xb9249afe	-0.00015697998
225	0xb850c042	-4.977012e-05
226	0x00000000	0.0
227	0x00000000	0.0
228	0x00000000	0.0
229	0x00000000	0.0
230	0x00000000	0.0
231	0xba8b02e1	-0.0010605716
232	0xba914cb9	-0.0011085487
233	0x3a405cad	0.00073380285
234	0x39b113aa	0.00033774722
235	0x3a006b60	0.00048988126
236	0xba2e27d2	-0.0006643507
237	0x00000000	0.0
238	0x00000000	0.0
239	0x00000000	0.0
240	0x00000000	0.0
241	0x00000000	0.0
242	0x3928579a	0.00016054363
243	0xba99e7cb	-0.0011742053
244	0x3aa9f205	0.0012965804
245	0xb822768b	-3.873421e-05
246	0x3a4154d4	0.0007375006
247	0xba46287c	-0.0007559133
248	0x00000000	0.0
249	0x00000000	0.0
250	0x00000000	0.0
251	0x00000000	0.0
252	0x00000000	0.0
253	0x38a9c813	8.095815e-05
254	0xb8949356	-7.0846334e-05
255	0x39899a20	0.00026245508

exp_avg_sq f4 [128, 11]
0	0x371b6f4d	9.264634e-06
1	0x37b5724c	2.1630105e-05
2	0x37f38bb6	2.9032915e-05
3	0x37aa4a5e	2.030021e-05
4	0x3768efc9	1.3884107e-05
5	0x385c301f	5.2496904e-05
6	0x00000000	0.0
7	0x00000000	0.0
8	0x00000000	0.0
9	0x00000000	0.0
10	0x00000000	0.0
11	0x3730de40	1.0542164e-05
12	0x3767a3ec	1.3806839e-05
13	0x379b46a4	1.8510334e-05
14	0x378118e8	1.5389596e-05
15	0x372275bc	9.683365e-06
16	0x37c1bebe	2.3096214e-05
17	0x00000000	0.0
18	0x00000000	0.0
19	0x00000000	0.0
20	0x00000000	0.0
21	0x00000000	0.0
22	0x364c71f1	3.0464691e-06
23	0x37375ee9	1.0929748e-05
24	0x377a81ac	1.4931353e-05
25	0x36b8a8e8	5.5032906e-06
26	0x3696e889	4.497419e-06
27	0x377dba45	1.5123344e-05
28	0x00000000	0.0
29	0x00000000	0.0
30	0x00000000	0.0
31	0x00000000	0.0
32	0x00000000	0.0
33	0x38536364	5.0398885e-05
34	0x383f087b	4.5545847e-05
35	0x384499f8	4.6873436e-05
36	0x389bdee9	7.432496e-05
37	0x374f29b7	1.2347874e-05
38	0x389c85f4	7.4636104e-05
39	0x00000000	0.0
40	0x00000000	0.0
41	0x00000000	0.0
42	0x00000000	0.0
43	0x00000000	0.0
44	0x37739bc7	1.4520198e-05
45	0x38279149	3.995121e-05
46	0x38716767	5.755518e-05
47	0x3874e303	5.8385554e-05
48	0x3726ab84	9.934305e-06
49	0x38ea957c	0.00011185833
50	0x00000000	0.0
51	0x00000000	0.0
52	0x00000000	0.0
53	0x00000000	0.0
54	0x00000000	0.0
55	0x37009531	7.664131e-06
56	0x37bac09f	2.2262624e-05
57	0x38233765	3.891382e-05
58	0x38102cb2	3.43739e-05
59	0x36f8a822	7.410549e-06
60	0x389ccb53	7.476532e-05
61	0x00000000	0.0
62	0x00000000	0.0
63	0x00000000	0.0
64	0x00000000	0.0
65	0x00000000	0.0
66	0x38ac7b59	8.2245744e-05
67	0x39281a3a	0.00016031499
68	0x3979a428	0.00023807643
69	0x399e099f	0.00030143277
70	0x37d1b1bf	2.4997511e-05
71	0x3a09bcac	0.00052542496
72	0x00000000	0.0
73	0x00000000	0.0
74	0x00000000	0.0
75	0x00000000	0.0
76	0x00000000	0.0
77	0x37a77819	1.9963876e-05
78	0x383df6ee	4.5291083e-05
79	0x38492496	4.7956208e-05
80	0x387ce75d	6.0296956e-05
81	0x37f4b3e1	2.917083e-05
82	0x38eaf0bf	0.00011202832
83	0x00000000	0.0
84	0x00000000	0.0
85	0x00000000	0.0
86	0x00000000	0.0
87	0x00000000	0.0
88	0x3780ed8c	1.5369405e-05
89	0x383d5419	4.5139433e-05
90	0x3888ac49	6.517076e-05
91	0x38812de7	6.159749e-05
92	0x3764ce17	1.3637843e-05
93	0x38fb9b4f	0.00011997541
94	0x00000000	0.0
95	0x00000000	0.0
96	0x00000000	0.0
97	0x00000000	0.0
98	0x00000000	0.0
99	0x372ecea9	1.0419325e-05
100	0x3810de52	3.4539327e-05
101	0x3837913b	4.3765856e-05
102	0x38118c1e	3.470119e-05
103	0x36d8b59b	6.4584433e-06
104	0x388dde31	6.76479e-05
105	0x00000000	0.0
106	0x00000000	0.0
107	0x00000000	0.0
108	0x00000000	0.0
109	0x00000000	0.0
110	0x36ab1424	5.098542e-06
111	0x37515bba	1.24787275e-05
112	0x3757f169	1.2871206e-05
113	0x372dfd95	1.0370645e-05
114	0x37544a0d	1.2653426e-05
115	0x37e12cc8	2.6842943e-05
116	0x00000000	0.0
117	0x00000000	0.0
118	0x00000000	0.0
119	0x00000000	0.0
120	0x00000000	0.0
121	0x367a168c	3.7266027e-06
122	0x3707c04f	8.091402e-06
123	0x37500678	1.2399272e-05
124	0x376d6ae8	1.4151192e-05
125	0x364d11ed	3.0557815e-06
126	0x37cfe438	2.4782596e-05
127	0x00000000	0.0
128	0x00000000	0.0
129	0x00000000	0.0
130	0x00000000	0.0
131	0x00000000	0.0
132	0x3679faeb	3.7249945e-06
133	0x36b7a075	5.4725047e-06
134	0x36fa4f10	7.4597847e-06
135	0x36d96808	6.479215e-06
136	0x3636e5c6	2.725386e-06
137	0x375df05e	1.3228591e-05
138	0x00000000	0.0
139	0x00000000	0.0
140	0x00000000	0.0
141	0x00000000	0.0
142	0x00000000	0.0
143	0x37391719	1.1032237e-05
144	0x37ec0bcc	2.8138886e-05
145	0x3844734c	4.683742e-05
146	0x381c5049	3.726807e-05
147	0x37695a4b	1.3908905e-05
148	0x389b2d20	7.399381e-05
149	0x00000000	0.0
150	0x00000000	0.0
151	0x00000000	0.0
152	0x00000000	0.0
153	0x00000000	0.0
154	0x3721ae75	9.636967e-06
155	0x378d17ff	1.6819684e-05
156	0x37ebf240	2.812699e-05
157	0x37aa38d6	2.0292046e-05
158	0x36d3fc63	6.3176717e-06
159	0x383cab49	4.4982215e-05
160	0x00000000	0.0
161	0x00000000	0.0
162	0x00000000	0.0
163	0x00000000	0.0
164	0x00000000	0.0
165	0x3732386a	1.0622762e-05
166	0x37ac7a80	2.0561041e-05
167	0x37f309e5	2.8972465e-05
168	0x378490ba	1.580302e-05
169	0x372ff3d9	1.0487588e-05
170	0x37ea67ce	2.7943312e-05
171	0x00000000	0.0
172	0x00000000	0.0
173	0x00000000	0.0
174	0x00000000	0.0
175	0x00000000	0.0
176	0x38c8fbdc	9.5836556e-05
177	0x39487be2	0.00019119636
178	0x39b578a9	0.0003461291
179	0x39b2f213	0.00034131165
180	0x3834584e	4.2997584e-05
181	0x3a343aea	0.0006875234
182	0x00000000	0.0
183	0x00000000	0.0
184	0x00000000	0.0
185	0x00000000	0.0
186	0x00000000	0.0
187	0x38c710b9	9.492174e-05
188	0x39218b93	0.00015406152
189	0x398a5180	0.00026382133
190	0x39a376b0	0.00031178212
191	0x380fa69e	3.424903e-05
192	0x3a1946ff	0.0005847066
193	0x00000000	0.0
194	0x00000000	0.0
195	0x00000000	0.0
196	0x00000000	0.0
197	0x00000000	0.0
198	0x37ea2ad9	2.7914926e-05
199	0x3808a391	3.257726e-05
200	0x381e05f7	3.767569e-05
201	0x37decdea	2.6560348e-05
202	0x37252fc3	9.845887e-06
203	0x37dd7dfa	2.6403915e-05
204	0x00000000	0.0
205	0x00000000	0.0
206	0x00000000	0.0
207	0x00000000	0.0
208	0x00000000	0.0
209	0x3728f93f	1.0071612e-05
210	0x37e7578e	2.7578117e-05
211	0x37e786fd	2.7600205e-05
212	0x37c6da85	2.3705195e-05
213	0x37f22760	2.8866983e-05
214	0x387853e0	5.9205922e-05
215	0x00000000	0.0
216	0x00000000	0.0
217	0x00000000	0.0
218	0x00000000	0.0
219	0x00000000	0.0
220	0x37157aaa	8.909652e-06
221	0x379e6ee7	1.888671e-05
222	0x37a2e99a	1.9420684e-05
223	0x379200db	1.7404955e-05
224	0x3758c859	1.292125e-05
225	0x381dbb5b	3.7606205e-05
226	0x00000000	0.0
227	0x00000000	0.0
228	0x00000000	0.0
229	0x00000000	0.0
230	0x00000000	0.0
231	0x37819a26	1.544978e-05
232	0x37d137ef	2.4940788e-05
233	0x38289b57	4.0198993e-05
234	0x38402b21	4.5816534e-05
235	0x371a6718	9.203119e-06
236	0x389f3256	7.5910866e-05
237	0x00000000	0.0
238	0x00000000	0.0
239	0x00000000	0.0
240	0x00000000	0.0
241	0x00000000	0.0
242	0x37e91f0e	2.7790225e-05
243	0x38641a87	5.438414e-05
244	0x3885deb1	6.383414e-05
245	0x38bbed7b	8.961089e-05
246	0x38114eac	3.4643963e-05
247	0x3928730a	0.00016064584
248	0x00000000	0.0
249	0x00000000	0.0
250	0x00000000	0.0
251	0x00000000	0.0
252	0x00000000	0.0
253	0x36376d63	2.7332796e-06
254	0x36a7a212	4.9958553e-06
255	0x36d410bc	6.3200405e-06

exp_avg f4 [128]
0	0x3a35b53a	0.0006931607
1	0x39904bd6	0.00027522322
2	0x39ed6364	0.00045278214
3	0xb961ed4f	-0.00021546076
4	0x367abf9a	3.736443e-06
5	0x39e1aff2	0.00043046434
6	0x393b199d	0.00017843251
7	0xb875a827	-5.8569156e-05
8	0x3a0fb55a	0.00054820406
9	0x37bfa400	2.2845343e-05
10	0x388e4eeb	6.785787e-05
11	0xb957d30b	-0.00020582617
12	0xb982213c	-0.00024820294
13	0x399a9c5b	0.00029489663
14	0x3a08ea59	0.0005222909
15	0xba258cd3	-0.0006315235
16	0xba1cc7ed	-0.0005980719
17	0xba97493c	-0.0011542211
18	0x3a551178	0.0008127908
19	0xb99f8215	-0.00030423762
20	0xb86c95bb	-5.6406232e-05
21	0x38a4de2b	7.8615114e-05
22	0x39b92fc6	0.00035321544
23	0xb8dc0bdc	-0.000104926265
24	0xba2f104e	-0.000667815
25	0x388d68ba	6.742911e-05
26	0x3a79c26d	0.0009527568
27	0xba4e8b5f	-0.0007879044
28	0xbabfec8b	-0.0014642639
29	0xb987126f	-0.0002576294
30	0xb883b71b	-6.280673e-05
31	0x38a71aca	7.9681704e-05
32	0x38c1371a	9.2132206e-05
33	0xb9813cfb	-0.0002465023
34	0xb8ae47b0	-8.3103194e-05
35	0x39aebcea	0.00033328618
36	0xb9fb677b	-0.0004795155
37	0xbaa36068	-0.0012464644
38	0x3926e0e2	0.00015914769
39	0x39b4ab3a	0.0003445985
40	0x398f9e0d	0.00027392842
41	0x39cb988d	0.00038832836
42	0xba828787	-0.0009958603
43	0x38b80533	8.774772e-05
44	0xb86abb87	-5.5964596e-05
45	0xba740fe3	-0.00093102286
46	0x3a61a600	0.0008607805
47	0x39010fd6	0.00012308298
48	0xb79a6b35	-1.8408153e-05
49	0x3aabf73c	0.0013119946
50	0x3a52b5d8	0.0008037961
51	0xb986f621	-0.00025741852
52	0x39fc6d66	0.00048146694
53	0xb92a2b81	-0.0001622867
54	0x3934b267	0.00017232598
55	0x3a625cd4	0.0008635048
56	0xb9fdce4a	-0.00048409618
57	0x3a407e41	0.0007343032
58	0xb9597c4d	-0.00020741038
59	0xba95a7e3	-0.0011417832
60	0x3a937742	0.0011250752
61	0x39b43416	0.00034371082
62	0x39b115b1	0.00033776232
63	0xb8ed8399	-0.000113255526
64	0x39d6e3ff	0.0004098713
65	0x38a15794	7.693391e-05
66	0x3a26d689	0.00063643657
67	0xba4453cd	-0.0007489294
68	0xb92862e8	-0.00016058574
69	0xba00880b	-0.00049030845
70	0x3973c286	0.00023246752
71	0x3a4b8aef	0.0007764538
72	0x388a889e	6.6058e-05
73	0xb927b218	-0.00015992706
74	0x379707eb	1.800429e-05
75	0xba36bfda	-0.0006971337
76	0x3a300153	0.00067140645
77	0xb99cb912	-0.00029892527
78	0x3947226b	0.0001899094
79	0x3947edc6	0.00019066696
80	0x38e13248	0.00010738202
81	0x399b0650	0.00029568607
82	0xb9c3ba73	-0.00037332214
83	0xb9bb31a4	-0.00035704405
84	0xb9a4a568	-0.00031403755
85	0xb9d0abb6	-0.00039800786
86	0xb94596d1	-0.00018843568
87	0x3a91e4f9	0.0011130861
88	0xb9b39f8a	-0.00034260406
89	0x3ac458a5	0.0014980031
90	0x38bf7e99	9.1311704e-05
91	0xb9c0f786	-0.00036805513
92	0x3a026d1e	0.0004975366
93	0xb7dd9427	-2.6414242e-05
94	0x3a2c29e6	0.00065675227
95	0xb85c0595	-5.2457286e-05
96	0xb90612cb	-0.00012786237
97	0x39455e33	0.00018822476
98	0x3906769b	0.0001282342
99	0x39af12f6	0.00033392728
100	0x38bb5e80	8.934457e-05
101	0x3a241009	0.0006258493
102	0xb7308321	-1.0520948e-05
103	0xb995c1dc	-0.0002856393
104	0x3a14053b	0.00056465314
105	0x395115be	0.00019939893
106	0xb9ecc999	-0.0004516363
107	0xb8ea4f8c	-0.00011172806
108	0xb92a66d8	-0.00016250776
109	0xba9b8f8a	-0.001186834
110	0xb9d3f980	-0.00040430948
111	0xb94023c3	-0.00018323869
112	0xb9010a94	-0.0001230634
113	0x38d56a23	0.00010176401
114	0xb9565d47	-0.00020443379
115	0x3a309a13	0.0006736826
116	0xb900f632	-0.00012298746
117	0xb8e09468	-0.00010708795
118	0xb88829ac	-6.492747e-05
119	0xb99c5500	-0.0002981797
120	0x39fd6df9	0.00048337856
121	0x376b9e88	1.40440025e-05
122	0x39084de5	0.00012998989
123	0x3a525681	0.00080237543
124	0xb8fbe478	-0.00012011168
125	0xba050521	-0.00050743116
126	0xba0d65e9	-0.0005393909
127	0x3947cd17	0.00019054521
