kingfisher_rl/config/Capture_SysID-DR50.pth (torch, 235151 bytes, 30 tensors)

value_mean_std.running_mean f8 [1]
00000000: 7b95 8ede b391 b33f
0.0764419954635595

value_mean_std.running_var f8 [1]
00000000: 8986 7268 f7e4 953f
0.021381250143014206

value_mean_std.count f8 []
00000000: 0000 0010 0020 7d41
30539777.0

running_mean_std.running_mean_std.state.running_mean f8 [11]
00000000: 6ce8 cc7a 803f ee3f 08bc a5eb 272e 8bbf
00000010: 79f4 1680 1b1f 943f 376b 8a67 64f3 e03f
00000020: 9a7b 0678 1974 a83f a4d6 78a3 041d 1040
00000030: 0000 0000 0000 0000 0000 0000 0000 0000
00000040: 0000 0000 0000 0000 0000 0000 0000 0000
00000050: 0000 0000 0000 0000
0.9452516935773594 -0.013271629217994643 0.019649915402386562 0.5297109625129001 0.047760768796471356 4.02833800721206 0.0 0.0
0.0 0.0 0.0

running_mean_std.running_mean_std.state.running_var f8 [11]
00000000: 6bc8 c7bd 0e29 cb3f 161a 2d89 24c8 973f
00000010: 4c2d b34d 70df cc3f a766 afba 2bdf d53f
00000020: 1c4f 5fe3 d906 d83f a00e b801 4e58 2440
00000030: 3112 3c6d 5394 713e 3112 3c6d 5394 713e
00000040: 3112 3c6d 5394 713e 3112 3c6d 5394 713e
00000050: 3112 3c6d 5394 713e
0.21219047800656496 0.023224421379632508 0.22556880754414477 0.3417462657067553 0.3754181595261217 10.17247014400283 6.548836078638156e-08 6.548836078638156e-08
6.548836078638156e-08 6.548836078638156e-08 6.548836078638156e-08

running_mean_std.running_mean_std.state.count f8 []
00000000: 0000 0020 0020 6d41
15269889.0

a2c_network.sigma f4 [2]
00000000: c3c4 18c0 fe4e 39c0
-2.3870094 -2.8954463

a2c_network.actor_mlp.0.weight f4 [128, 11]
00000000: 0caf d13d 44a4 89bd 7759 35bd 369d 1dbe
00000010: 24d0 903e 8bea 913e b38e 85be 2f34 b6bc
00000020: e38b 59be 3845 adbd 629d 853e d55c b1bd
00000030: 36d8 353e 67ba 68be b87a 26bd 7cde 503e
00000040: e86e 3e3e e7a7 423e 88ad 3bbc 2576 133e
00000050: 43be 90be 20fe fc3d 8453 573e 019b b9bd
00000060: 2b1d 92be bf0f 46bb 252d a23d 3525 9ebe
00000070: acfc 913e 4807 8a3e 8957 5d3e c3ee 903e
00000080: 32a9 b03d f6a5 553c 7ea4 84bd 6d87 913e
00000090: 0d84 d5bd 6c14 eebe b7c1 413e 07ed 783b
000000a0: 272e 31be 939d d0bd 6eae 2a3e 7ec7 1abe
000000b0: 3db4 15be 8735 2d3c 99ef 693e 5ea9 5cbe
000000c0: 4194 85be c31a b0be fd86 383d 9d80 963e
000000d0: 10ac 53be f6ff 55be 300e 0e3e ec21 5b3e
000000e0: 0cff 343e 395c 8d3b 4e70 573c 660d 7e3d
000000f0: 6a73 6a3e c5a6 0dbd 1ff7 4fbe 3d6f 853d
00000100: 84ca 59be 56bb c0bd c624 06be 11ef 86bc
00000110: 627d 08be c282 c53d 8b99 243f 7ee4 953e
00000120: 0f49 87be fab8 563e 4a95 5dbe bdd0 93be
00000130: 0a19 46be 8392 2bbf 7f7f 7a3c 48f2 983e
00000140: 4ee7 303e d433 093f f991 82be cbc9 d4bd
00000150: 1000 5f3e 96c2 71be 8d43 f5bc 7aad cf3d
00000160: 4413 9b3e af8e 3d3e 4613 ce3c 3f21 98be
00000170: f3e7 0abf 5201 8cbe 4abc 8b3e a273 863d
00000180: 0dbe 08be 7465 2d3e 9aa8 dbbd 359b 2ebe
00000190: 632c d13c db92 2e3e 1b3c 823d ae15 12bf
000001a0: 58c2 dc3d 022b 673e a5f2 2ebd 5283 eb3d
000001b0: c18c 933e 9472 913e ca1c 49bd 37db 913b
000001c0: 26c0 b23e d34a 0fbe b082 3cbe d84a 1f3e
000001d0: a350 913e 351a 70be 6a71 2a3e 3c9e 343d
000001e0: 61ec 313e 8f33 423e f374 803c 9ae7 9d3e
000001f0: 78c0 263c 3bab 273f 16f8 983e fe9c e43d
00000200: 1ac5 5b3e aa1f 1b3e 1355 ea3c 34bf 863e
00000210: 27f9 87bd 2897 8cbd e4e6 8a3c 8dec 32be
00000220: 3c63 113e 6a8e 323e f90e 36be 7ccd 293e
00000230: 8ccd 313e 259e 1ebe c20f 1a3d 4412 15bd
00000240: 3c79 1abe 970a 3a3e f04c b4be 1438 9e3c
00000250: 8983 16bf ace2 febb 1b0f 313e 9f7e 71be
00000260: 84ab 573d 7dce 9ebd 8564 943b 3966 033e
00000270: 79d8 6e3e be7b cb3c 11c4 3ebd 5839 a4be
00000280: 0f4f 95be c0ac 53bd 5edd 6ebc 437f 41bd
00000290: d587 d23c fe87 d8bd 13d5 053e 27a6 743d
000002a0: 2f55 923e bd6b a5be 41b1 b43e 72e5 5ebe
000002b0: 14a6 88be 9ed1 98be 644b 66be a0c0 17be
000002c0: 3810 653d 4b27 423c 9b9a 8f3d 65ac 5b3d
000002d0: f295 3fbe 4db7 11bf 5ce3 f93b b707 ccbc
000002e0: e562 183e d597 32be 49f9 85be 507f a8bd
000002f0: 2612 d53d de60 183c e2aa 94bd f7ed 7a3e
00000300: 8ca3 c93e 990d c33c 3f8c 95be 2ff8 3a3e
00000310: b5cf 083e 1ee8 143d b800 c13c aace 1ebe
00000320: e17c 9bbe a99d adbd ce07 b33e 4e38 b2be
00000330: 3280 2fbe a68f 97bd 2cde 863e d4df 833e
00000340: b810 87bc 9bb7 0fbe b675 4c3c 82bd 4ebd
00000350: 1425 bfbb 53f9 6ebe 2a10 873c b810 9a3d
00000360: 0f78 8a3e 738b 853e a6d4 fcbd 4254 62be
00000370: 21dd ecbd c91f bbbd 9bed 843e 1f0c ebbd
00000380: 7192 9bbe 7f95 353e 8cc6 933e 1528 69be
00000390: 9afb 93bd c137 e2bd 5bd4 aabd 52a9 333e
000003a0: c6f0 6ebd e28b bd3d 9f9f 133b c59f bebe
000003b0: 6c77 92be ae7a e63d 7790 c0bd 3f16 8a3d
000003c0: 3c20 85be 4799 993e 4979 ca3e fa12 503e
000003d0: 109a 47be 5610 c7be bac7 ebbe 1b94 b33d
000003e0: 691c 923e a999 44be b6c5 6c3e 5bb4 20be
000003f0: 6595 0d3d 8b16 64be d62e 6e3d d623 013e
0.10238466 -0.06720784 -0.044274773 -0.15392002 0.282838 0.28499255 -0.26085433 -0.02224168
-0.21244769 -0.08460468 0.26096636 -0.086602844 0.17758259 -0.22727357 -0.040644377 0.20397371
0.18596995 0.19009362 -0.011454947 0.14400537 -0.28270158 0.12353158 0.21027952 -0.09062768
-0.28537878 -0.0030221788 0.07918767 -0.30887762 0.28513086 0.2695868 0.21615423 0.2830716
0.086260214 0.013040056 -0.06476687 0.28423634 -0.10425577 -0.46499956 0.18921553 0.0037983076
-0.17302762 -0.10186305 0.16668102 -0.15115163 -0.14619537 0.010571844 0.22845306 -0.21548983
-0.2608967 -0.34395418 0.04505061 0.29395 -0.20671105 -0.20898423 0.138726 0.21399659
0.17675418 0.0043139723 0.013149334 0.062024496 0.2289559 -0.034582872 -0.20309113 0.06515358
-0.2126866 -0.094107315 -0.13099965 -0.016471418 -0.1332908 0.09644081 0.6429679 0.29275888
-0.26422927 0.20969 -0.2163898 -0.28870192 -0.19345489 -0.67020434 0.0152891865 0.29872346
0.17275736 0.5359471 -0.25501993 -0.103900515 0.21777368 -0.23609385 -0.029939437 0.1014051
0.30288136 0.1851146 0.025155675 -0.29712865 -0.54260176 -0.27344757 0.2729209 0.06565024
-0.13353749 0.16933233 -0.107255176 -0.17051394 0.02553386 0.17048208 0.063591205 -0.5706433
0.10779256 0.22575 -0.042711873 0.11499657 0.28818324 0.2840773 -0.04909972 0.0044511813
0.34912223 -0.13993387 -0.18409228 0.15555894 0.28381833 -0.23447497 0.16644827 0.044096217
0.17375328 0.1896498 0.015680766 0.3084076 0.010177724 0.6549565 0.29876775 0.111627564
0.21461907 0.15148798 0.02860502 0.2631775 -0.06639319 -0.06864768 0.0169558 -0.1747305
0.14198011 0.17437139 -0.17779149 0.16582292 0.17363566 -0.15490015 0.037612684 -0.036394373
-0.1508531 0.18168102 -0.3521495 0.01931385 -0.58794457 -0.0077784862 0.17290919 -0.23583458
0.052653804 -0.07754228 0.0045285844 0.12831964 0.23324765 0.024839278 -0.046573702 -0.32075
-0.2916188 -0.05167842 -0.014579145 -0.047240507 0.025699535 -0.105728135 0.13069563 0.059728768
0.28580615 -0.3230876 0.35291484 -0.21767214 -0.26689208 -0.29847425 -0.22489697 -0.14819574
0.05592367 0.0118501885 0.070119105 0.053631205 -0.18709543 -0.5692032 0.0076259803 -0.024906022
0.14881475 -0.17440732 -0.26166752 -0.08227408 0.10403852 0.009300439 -0.07259156 0.24504839
0.3938259 0.023810195 -0.29208562 0.18258737 0.13360484 0.036354177 0.023559913 -0.15508524
-0.30368713 -0.08477337 0.34966892 -0.34808582 -0.17138746 -0.07400446 0.2634138 0.25756705
-0.016487464 -0.14034884 0.012479236 -0.050473697 -0.0058332775 -0.23337297 0.0164872 0.0752272
0.27044722 0.26082954 -0.12345247 -0.22102454 -0.115656145 -0.09136922 0.2596253 -0.11476921
-0.30385163 0.1773281 0.28862417 -0.22769196 -0.072257236 -0.110457905 -0.08341285 0.1754506
-0.05833509 0.09255196 0.0022525562 -0.3723127 -0.28606737 0.11253868 -0.094025545 0.06742524
-0.26001155 0.29999754 0.39545658 0.20319739 -0.19492364 -0.3887965 -0.46050817 0.08768483
0.285373 -0.19199242 0.23122296 -0.156938 0.0345663 -0.22274224 0.058150135 0.12611327

a2c_network.actor_mlp.0.bias f4 [128]
00000000: 8f90 023f 0796 4bbe 6183 d0be 1ba3 f63d
00000010: cac7 2cbe 99b7 623e 64fc d43e 38e2 92be
00000020: 1c25 bfbe eceb 183e dc4c a53e 50ee 2d3e
00000030: d978 08be 5dfc adbe bb0a f0be 4c9f 323e
00000040: ca60 20bf 33ff 423f c0b9 82be d3e7 2cbe
00000050: d81b 713e 3f5d e1be bafa 98bd 07ba 353e
00000060: e8c4 473d 6e3e c43c feea e43e a78c b33d
00000070: 562f a93e 00c8 983e 2b96 bcbd ab74 763c
00000080: 4339 8d3e 68c9 30be 45ee 6bbe 759b 893e
00000090: b7d5 733e a32a 383f cc01 993d 700d 3d3f
000000a0: 8143 adbe 131a b13e af93 a6be 37d9 02be
000000b0: 5601 f2be f3fb 9dbe 823b 993e b5d0 79be
000000c0: 22aa f53e 7c54 1e3e 1cf4 cf3e 74f9 8a3e
000000d0: ae0f 373e f40b 3bbd ffbf a73e 70fb 523d
000000e0: 0553 a73e 9ccc 39be 3e66 a53d 73f1 093f
000000f0: 2fa7 563e 3af4 163d dfe8 d93c a7e5 00bf
00000100: 1785 fdbe 5757 c2be 09d7 f4be 882e 203f
00000110: b588 fb3e 9909 b8be d835 313d 8122 e5be
00000120: 56fc b03e 8d89 ab3e e853 9cbe 576f 983e
00000130: 6e02 d13e 8fcc d03e 4b41 a1be 715a 9cbe
00000140: 86ab 1fbe f20c 75be 5b18 0e3e 3fef babe
00000150: b07f 9a3d a589 0bbf 216d a9be 4246 b63e
00000160: bf74 8f3e 0404 40bf 0840 00bf 8b66 a5be
00000170: 27a6 f0be 49e8 8a3e 4d84 fdbe 83f0 9ebe
00000180: 5ff0 bd3e d50f 4f3c 9e26 d3bd 201a d23e
00000190: 8a95 313f 4480 433e 4b09 c1bd 477d d6be
000001a0: 0865 f73c 0b11 23be 07df 80be 04d4 86be
000001b0: 703b 453e f8a4 cd3e 0e9a b33e 29ce 2b3e
000001c0: f05b b33e e55c 92be 1034 c03e 046f a9be
000001d0: 7103 083f 1f91 8b3c d93a 0cbf 00b3 193f
000001e0: 2758 893e 4787 9d3e f13c 063f 781b 033f
000001f0: 8dd6 923e cd71 15bc a3a8 49be 2ce3 9d3e
0.5100183 -0.1988145 -0.40725234 0.12042829 -0.16873088 0.2214035 0.4159881 -0.28688216
-0.37333 0.14933747 0.32285202 0.1698544 -0.1332735 -0.339816 -0.46883187 0.1744358
-0.6264769 0.76170653 -0.2553234 -0.16885309 0.23545778 -0.44016454 -0.07469697 0.17746745
0.04877177 0.02395555 0.44710535 0.08767062 0.33043927 0.29840088 -0.0920833 0.015042464
0.2758275 -0.1726433 -0.23040111 0.26876417 0.23811994 0.7194006 0.07471046 0.7384863
-0.33840564 0.34590206 -0.3253455 -0.12778173 -0.47266644 -0.30856284 0.29928213 -0.24396022
0.47981364 0.15461916 0.40615928 0.27143443 0.17877075 -0.045665696 0.3276367 0.05150932
0.32680526 -0.18144459 0.08076142 0.5388405 0.20962213 0.036854006 0.0266003 -0.5035042
-0.49515602 -0.3795726 -0.4782031 0.62571 0.49127737 -0.35944822 0.04326424 -0.44752887
0.34567517 0.3350338 -0.30532765 0.29772446 0.40822166 0.40781066 -0.31495127 -0.3053775
-0.15592775 -0.2393072 0.13876478 -0.36510655 0.07543886 -0.54506904 -0.3309107 0.35600477
0.28018758 -0.7500613 -0.50097704 -0.32304797 -0.47001764 0.27130345 -0.49515 -0.3104287
0.3709745 0.012638052 -0.103101 0.41035557 0.69368804 0.19091898 -0.094256006 -0.41892454
0.030199543 -0.1592447 -0.25170156 -0.2633363 0.19260955 0.40164924 0.35078472 0.16777863
0.3503108 -0.28586498 0.3753972 -0.3309251 0.5313025 0.017036973 -0.54777294 0.6003876
0.26825067 0.3076727 0.5243674 0.5121379 0.28679314 -0.0091213705 -0.19693236 0.3083738

a2c_network.actor_mlp.2.weight f4 [128, 128]
00000000: 5951 60be bc98 97bd e379 30bd 24bf f53e
00000010: 88ac 3f3e 496e febd f781 01bf 8c59 d8be
00000020: 896c c43e 9fcf c63e ca48 1a3e 5b81 74be
00000030: 842d 343d 7aaf 153e 473f 2cbd 6477 023d
00000040: f4fb 643e 3064 03be 2d3a 4dbe f6d7 cc3d
00000050: b9dd 833e a749 bf3e 16b1 ad3e c32f e53d
00000060: fade 353f e684 01bf f5af 1fbe 2967 8b3e
00000070: 85a0 7d3c 6366 2c3e ae64 3e3d d237 763d
00000080: 4469 2d3e 6cc9 8b3e c416 c8bd 8e57 143e
00000090: 3a3b 8d3d 9fd1 17be 1602 1f3e e3ed 0bbe
000000a0: 3718 a53c 9cba c4be 2793 ad3e 670a 3bbe
000000b0: 8f0b 913e 8abb 8b3e 0783 f7bd bc60 0f3d
000000c0: 017a 93be 0363 72be 360f 78be 3926 8cbc
000000d0: e9c6 9cbe ba21 f83e e35f 52be 621c 88be
000000e0: e068 b3be 7c79 21be 82ec 8d3e e3e8 5abe
000000f0: 0f60 12be af9d 44bf bcd6 d3be 58d2 943d
00000100: 8ad2 023e 7c52 67be 0cfd b93e 0629 b9bd
00000110: 4d66 fb3c 15e9 2b3e 7231 3bbe e920 a13e
00000120: cbdf 4f3e acc6 323e b12e ccbe 79ea b73e
00000130: 8a1f be3d 5947 c13d a731 b7be 4ca1 c53d
00000140: cea3 e1be ffea 01be 97a9 dd3c 2f94 d2be
00000150: d757 913e dac2 d73e 6fe9 bbbe 53c0 4f3e
00000160: a225 c73e eb14 01be 3c16 a23d e585 663d
00000170: 3d3c 6a3e 3495 a03e 30d5 8f3d e756 463e
00000180: 4245 93be 0675 0d3d f8dc 6fbe 5547 e4bd
00000190: be62 a0be 060b aebe 6121 60be 7ee7 413e
000001a0: 32d0 863d 6986 a7bd b4df 52ba 2fa8 8e3d
000001b0: 8c29 13bf 87a1 3d3e 022c 973e c218 b23e
000001c0: f29b 7b3e 937d d7bd e3ca 113e 6ead 26be
000001d0: 82c4 6dbd 66cb 273e 2669 d93e 631e 59be
000001e0: 02cb 47be 8fa6 4e3d 4f03 f43d cc54 95be
000001f0: 1937 a43e 2255 b93d 7e26 ddbe 4713 98be
00000200: 4fdb 4a3e e5e4 04bd d408 0fbd a40c 51bc
00000210: 2817 1b3e a901 a03e 6714 7e3e ebd3 983e
00000220: 497f 7bbe e0e4 053d b205 0fbd fb97 bebd
00000230: 6cf1 2dbe 9a97 173e 3117 1abe 52bf 82be
00000240: fdd8 15bf ff2d da3f 1d75 a73d a686 8dbc
00000250: 96a5 b8bd d7c5 5abe 2c0e 9ebe 5013 92be
00000260: c6be 26be 9a85 3ebb 6f80 f43c e60d 40be
00000270: 233c 65be 9cdd e9bd ae1c 37be 7068 813e
00000280: d6ef 553d f2a5 26bf 26c9 cfbe 4f38 18bd
00000290: 80b1 9abe 62bc 2b3e fa28 e6bd cebc 853f
000002a0: 575c 87be 34ae b33c d271 babd 8a54 be3b
000002b0: 2473 9ebe 0adb 51be f321 fa3d 51ca 3bbe
000002c0: b354 003f 7f2c a53e b381 b33e 1e30 30bd
000002d0: eb8f 663e 06d6 c5bd 5280 853e 91c7 0d3e
000002e0: 2766 7c3e a147 64bd 695b a9bd 9c22 cebd
000002f0: 3407 d4bd 7326 383e f058 8c3e 1195 a3be
00000300: aac4 8c3d 5088 48be aa54 da3d c06f 0e3f
00000310: a530 373e d9bf e0be 9570 b7be a09a 303e
00000320: 97ae 513e a2a7 f1bc f948 2c3e 65a9 be3d
00000330: f03a 6c3e 1143 053e 6fc3 4dbe 073f 56be
00000340: fdbd 4d3d 0879 debd a9e1 babd b51e fabd
00000350: 2023 7cbd aa22 15be a047 663e 8733 39be
00000360: d349 9fbd 9b2e 96bf 5685 3ebe bcb6 a23d
00000370: 4286 11bf 66df d13c b73c a3be a8e6 a9be
00000380: aa33 013f 7915 4a3e 73f9 803d 1a34 ff3d
00000390: e6e4 813f 3e97 3c3e 7f32 5abe d09b aebe
000003a0: 08b2 b83d ff43 663e 4b9b c1bd c469 f2be
000003b0: 0932 683d 2de6 bfbd 40ff 1e3e c21b b2bd
000003c0: c69c 84ba 56b8 5cbe 7076 a43e dc78 7abe
000003d0: 062c c93d 1dc5 51be 42a6 a8be 47bd 813d
000003e0: bc87 f83d 8990 c4bc 34d1 163f e19a f43e
000003f0: 6f20 543e a217 e63d 74af 713e 608b 16bd
-0.21906032 -0.07402179 -0.04308499 0.4799739 0.18718159 -0.12423379 -0.50588936 -0.4225582
0.38364056 0.38830277 0.1506683 -0.2387747 0.04398872 0.1461772 -0.042052533 0.03185214
0.22361737 -0.12831187 -0.20041724 0.10002129 0.25755098 0.3736088 0.33924168 0.111907504
0.7104336 -0.5059341 -0.15594466 0.27227142 0.015480165 0.16835932 0.046482734 0.06011183
0.16934687 0.2730211 -0.09769967 0.14486524 0.06896062 -0.14826058 0.1552814 -0.13664965
0.020153148 -0.38423622 0.3390133 -0.18265687 0.2832913 0.27291518 -0.12085538 0.035004362
-0.2880402 -0.23670582 -0.24224553 -0.01710807 -0.30620506 0.4846323 -0.2054439 -0.26584154
-0.3504095 -0.15768999 0.27719504 -0.21377902 -0.14294456 -0.76803106 -0.41374767 0.072666824
0.12775627 -0.22590059 0.36325872 -0.09041028 0.03068843 0.16788132 -0.1828058 0.3147042
0.20300214 0.174586 -0.39879373 0.35921076 0.09283359 0.094374366 -0.3578007 0.096499056
-0.44070286 -0.126873 0.027058406 -0.4112868 0.2838733 0.42140847 -0.36701533 0.2028821
0.388959 -0.12605636 0.07914397 0.056280036 0.22874542 0.31363833 0.07023084 0.19369088
-0.28763777 0.03453543 -0.23424137 -0.11146418 -0.31325334 -0.33992785 -0.21887733 0.18935964
0.06582679 -0.081799336 -0.00080441986 0.06965672 -0.5748527 0.18518649 0.29525763 0.34784514
0.24571207 -0.10521998 0.14237551 -0.16277096 -0.058048733 0.16386184 0.42463034 -0.21202998
-0.19511035 0.05045181 0.119146936 -0.29166257 0.32073286 0.09049441 -0.4319343 -0.29702207
0.19810222 -0.032444853 -0.03492053 -0.012759361 0.15145552 0.31251267 0.2481247 0.2984918
-0.24560274 0.032688975 -0.03491754 -0.09306332 -0.16986626 0.14803925 -0.1504791 -0.2553659
-0.5853422 1.7045287 0.081766345 -0.01727612 -0.09015958 -0.21364532 -0.30870187 -0.2853036
-0.16283712 -0.0029071332 0.029846398 -0.18755302 -0.22386222 -0.11419222 -0.17882034 0.25274992
0.05223068 -0.6509696 -0.40583152 -0.037163075 -0.30213547 0.16771081 -0.112382844 1.0448244
-0.26437637 0.021933652 -0.09103741 0.0058084177 -0.3094722 -0.20493713 0.122135065 -0.18338896
0.5012924 0.3226051 0.3505989 -0.043014638 0.22515838 -0.09659962 0.26074463 0.1384566
0.24648343 -0.055732373 -0.08269388 -0.10065195 -0.103529364 0.17983417 0.27411604 -0.31949666
0.06873448 -0.19583249 0.1066068 0.55639267 0.1788965 -0.43896368 -0.3582808 0.17246485
0.20476757 -0.029498879 0.16824712 0.09309653 0.23069358 0.13013865 -0.20094083 -0.2092248
0.050230015 -0.10862929 -0.091250725 -0.12212888 -0.061556935 -0.14564005 0.2248826 -0.18086062
-0.07777753 -1.1732973 -0.18605551 0.0794501 -0.56845486 0.02561922 -0.3188226 -0.3318379
0.5046946 0.19734754 0.06297579 0.124611095 1.0147979 0.1841707 -0.21308325 -0.3410325
0.09018332 0.22486876 -0.09453448 -0.47346318 0.056688342 -0.093700744 0.15527058 -0.08696701
-0.0010117523 -0.21554694 0.3212161 -0.24460167 0.0982285 -0.20485349 -0.32939345 0.0633493
0.12135264 -0.023994701 0.5891297 0.47774413 0.20715497 0.11234976 0.23602086 -0.036754012

a2c_network.actor_mlp.2.bias f4 [128]
00000000: 7917 653e ba9d d33e 05e3 933c 90f4 093e
00000010: ebc0 2f3b 6a38 1b3c 4814 ebbd b3ff 3b3e
00000020: 6ed9 7cbc 643b c03b ee4e f6be 664a 153e
00000030: 9ad1 68bc 4a4b 48bc f001 d53d 4df5 263d
00000040: ed7a 173c 068a 35bc 797e 193d 02fa 593e
00000050: 4aab b53d 983f a6be c521 19bc 0150 0e3d
00000060: b095 12bb 0be6 9a3c 6ba4 313e 2b80 4b3c
00000070: ae03 9bbd 6fcc ea3b 38b1 dcbd c28a e1bd
00000080: 8c26 803d a3db dbbd 6cb0 113e af93 213d
00000090: 22f3 973d 40b4 213d d1d2 a3bd e0b7 73bc
000000a0: 0046 383d 4943 f6b9 45c7 113e a671 b3bd
000000b0: 8867 933d 4dff 683d 5295 513c bdc5 23bf
000000c0: aaeb 3a3c 9ffe 9d3e 3f11 fd3e 4ff2 94bc
000000d0: e2d1 463e 2e43 1cbe 09bb 12be 2065 a43d
000000e0: f792 d23d 2994 8ebe e74e afbe 2110 1ebd
000000f0: cd89 6cbd 658c 8a3d 3687 e0be b0c6 be3e
00000100: 839e c23e 65fb 9eb8 105c ff3c a098 2ebc
00000110: f8eb e23c 00de 3cbd 6950 8bbe e369 323e
00000120: 0cb7 d6be 5f08 0b3d 3c26 0a3e 2b83 7f3d
00000130: 8e39 ac3d c168 7ebd 35d4 c53c afb5 bd3e
00000140: 13ce 6cba 65af 2c3c 43f1 2abd e903 31bf
00000150: 4d29 a9ba 4cea 883e 83f5 a03c d74d 323d
00000160: d6cd 80bd 40be 293d dea8 36bd 7f79 a53e
00000170: 0cb7 033c 0a1f 103c 4667 bd3d d995 65bc
00000180: 1292 54bd e06b 1cbd b466 dfbd 98e5 2b3e
00000190: e290 cf3d 1052 2dbd efff 91bc 378e cebd
000001a0: 6599 39be c549 e73c eac8 983e c649 0bbb
000001b0: 15b8 3d3d 33fb cdbd ac6f 89be 13b2 993e
000001c0: 4482 1fbd dd2a 823d e6c8 e33c fd25 96be
000001d0: fca5 28bd ea2a 713e 4753 86be af96 5939
000001e0: 0d1d 1a3d ec70 673c 5477 e7bb a278 68be
000001f0: 6ee1 42bc ab2f d13e 5b7a 5f3d a9e2 47bd
0.22372235 0.41331273 0.018052587 0.134722 0.002681787 0.009473899 -0.11478478 0.1835926
-0.015432699 0.005866455 -0.48107094 0.14579162 -0.014210129 -0.012224982 0.1040076 0.04076128
0.009245616 -0.011080271 0.03747413 0.21286777 0.088705614 -0.32470393 -0.00934643 0.034744266
-0.0022367053 0.018908521 0.17347877 0.012420694 -0.07569061 0.0071654837 -0.10775989 -0.11012794
0.06257352 -0.10735252 0.14227456 0.039447483 0.07419421 0.03947854 -0.079991944 -0.014875382
0.044988632 -0.00046970908 0.14236172 -0.08761911 0.071974814 0.0568841 0.012791948 -0.639736
0.011408726 0.30858323 0.4942722 -0.018181948 0.19416001 -0.15260002 -0.14329161 0.080271006
0.102819376 -0.27847412 -0.34239885 -0.0385896 -0.057748605 0.067650594 -0.43853158 0.37260962
0.3801156 -7.580853e-05 0.031171829 -0.010656506 0.02770041 -0.046110153 -0.27209786 0.17423205
-0.4193653 0.03394353 0.13491148 0.06238095 0.08409415 -0.06211162 0.02414904 0.37052676
-0.0009033393 0.010539864 -0.04173399 -0.6914659 -0.0012905985 0.26741254 0.01964832 0.043531265
-0.0628926 0.041441202 -0.044594638 0.32319257 0.008039247 0.008796463 0.092482135 -0.014012777
-0.051897116 -0.038188815 -0.10908261 0.16786802 0.10135056 -0.04231459 -0.017822234 -0.10085719
-0.18124922 0.028233418 0.29840785 -0.002125369 0.046318132 -0.10057678 -0.2684301 0.30018672
-0.03894259 0.06355832 0.027805757 -0.29325858 -0.04117392 0.23551527 -0.2623541 0.00020750867
0.03762536 0.014126044 -0.0070637856 -0.22702268 -0.011894567 0.4085668 0.054560047 -0.048800144

a2c_network.value.weight f4 [1, 128]
00000000: f6c8 d7bc 444a e33e 9f7b 6fbb 2c54 ebbe
00000010: f2ec 6dbc edde adbb c7de bb3c d215 14bc
00000020: cce8 223c 6e1e fbba a40a 863b 22d2 06bd
00000030: 8a8e 353b 1b37 08bb 66c7 a8be da79 053c
00000040: 3bb9 66bb 1e6b 29ba 9171 5c3d 2885 8c3d
00000050: b1c7 3ebc 0444 623c 1d9e 103c ef13 11bc
00000060: 2246 f2b9 1f72 6cbc c545 fb3a fa0c a13d
00000070: b8c8 623b d35e a6bc 8962 94bb aa17 7a3c
00000080: 9a5d 343a 34e7 88bc ebf1 bf3c 811b 9dbc
00000090: 5ba7 6fbb d175 a83b 1cdb 41bc 21da 76bc
000000a0: d9f0 acba 984f 9d3c 7b67 f6bc 54d8 73bc
000000b0: 6282 dfbc f3e8 b2ba 9972 3abc e43c e3be
000000c0: e694 debb f01c 3bbc 7a28 adbe 9afb 803b
000000d0: d9d8 6d3b 128c 293d 0ef4 86bd ba46 d83b
000000e0: 529d 46bd 6306 6c3d 149f 23bd 2158 67bb
000000f0: 1a02 573c 0477 07be 209f 9fbd 67af 1abe
00000100: 6680 4ebe d2eb 613c d508 97bc a4c6 01bc
00000110: eda3 d5bb c3a1 d23b fcdf a43e dbf4 e13b
00000120: 9e79 27be 6229 0fbc 08e3 a5bc de81 b0be
00000130: f5ce d63b 428a e63c 86ab 8f3b c0ca 973d
00000140: 2596 4bbc 62e7 023c 1e20 f1bb 2ba1 bdbc
00000150: 07d0 4f3c c855 cfbc f6f1 9237 3f68 e43b
00000160: 4682 48bc 53f7 873c cc26 a73c 383e 84bc
00000170: 5dba 8e3b 4594 0cbc 08ad 423c fc77 ddbb
00000180: 9e51 1e3c 043f 123c 222c 8bb8 23fd 43bd
00000190: 8ddd bcbb 6f28 bfbc 8479 30bc 972a 53ba
000001a0: 5db8 9dbd 4575 663c 79f5 9a3d e671 083e
000001b0: 504b c2bc eb62 8bbc d955 a2bc 2071 e0bc
000001c0: fa52 ecbb c73a 32bc 3787 1cba b503 12bf
000001d0: 7d9e 5c3b 44d3 183d 5acb d1bd b901 40bc
000001e0: 5b02 73bc 3b19 b5bc 6cbf cfbc d9d3 1ebc
000001f0: b090 07bd efd6 5f3e 9dc9 143c c9c5 47bb
-0.026340943 0.44392598 -0.003654219 -0.45962656 -0.014521824 -0.005306116 0.022933377 -0.0090384055
0.009943198 -0.0019158849 0.004090624 -0.032915242 0.0027703368 -0.0020784799 -0.3296463 0.008146727
-0.003520562 -0.00064628 0.053819243 0.06861335 -0.01164429 0.0138101615 0.00882676 -0.00885485
-0.0004621009 -0.014431505 0.0019170573 0.07863803 0.00346045 -0.020308888 -0.004528348 0.015264431
0.0006880403 -0.016711809 0.023430785 -0.019178154 -0.0036568257 0.005140998 -0.011832025 -0.015066654
-0.0013194337 0.019202992 -0.03007864 -0.01488312 -0.027283851 -0.0013649747 -0.011379861 -0.44382393
-0.0067926524 -0.011420473 -0.33819944 0.0039362432 0.0036292581 0.041393347 -0.065895185 0.006600228
-0.048489876 0.05762328 -0.03994663 -0.0035300332 0.01312306 -0.13228995 -0.077940226 -0.15105973
-0.20166168 0.013789134 -0.018436829 -0.007920895 -0.0065197856 0.006427975 0.32202137 0.006895644
-0.16354987 -0.008737894 -0.020249858 -0.3447408 0.006555433 0.028142098 0.004384461 0.07411718
-0.012425934 0.007989736 -0.007358565 -0.02314814 0.012683875 -0.025309458 1.7517228e-05 0.006970435
-0.012238091 0.016597426 0.020404242 -0.01614295 0.0043557123 -0.008580272 0.011882074 -0.006758688
0.009663014 0.008926157 -6.636257e-05 -0.04784883 -0.0057637156 -0.02333471 -0.010771159 -0.00080553576
-0.0770118 0.014066045 0.075663514 0.13324699 -0.023717552 -0.017014941 -0.019816326 -0.027397692
-0.00721204 -0.010878271 -0.00059710763 -0.57036906 0.0033663802 0.037310854 -0.10243864 -0.011719161
-0.014832105 -0.022106757 -0.025359832 -0.009694063 -0.03309697 0.21859334 0.0090812715 -0.003048288

a2c_network.mu.weight f4 [2, 128]
00000000: f4bf f3bc e08e 2cbd cd25 cdba 5b25 673b
00000010: 92e6 693a eb82 9f39 002b d539 5c00 a73a
00000020: 638a dd39 b325 8eb9 742d edbd 73f6 013d
00000030: 4dc2 0b3b 95da e039 67ed c7bb 297a 223b
00000040: ed23 8038 556e c13a bdef c93d 2e34 cd3d
00000050: 4a9f ba3a f100 0fbe ff8c 0fba 3fde d33a
00000060: 42ab 0f3b 523b 553a c30a 9dba 5d4b 71bd
00000070: 66c2 eab9 3cf8 463b b114 5439 1680 82ba
00000080: 345d b339 c4d5 473e ca34 a83c b2d7 4a3b
00000090: bff1 d33a 9dea d53a c457 04bb b1f2 023b
000000a0: 5b07 f9b9 5f6a f4ba ce8d b2bb b328 f83a
000000b0: 4e6f e93a 2528 9eba 63be 033b 1911 4fbc
000000c0: f462 cc3a b8d3 b03d 2c4a ad3d a52b 01bb
000000d0: 6c20 7fba ee77 adbd d329 4f3d 92d5 ae3c
000000e0: 48dd 7a3a ecae 51bb 511f d33c 979f ddb7
000000f0: 3196 c1ba 5535 57bb 7e34 86be 60ea eabc
00000100: 0b30 8abb e0ae b93a 42f7 58b9 4e02 d8ba
00000110: df8e f6ba 8e94 4bbb d0f2 18bd 3c7d eb39
00000120: e267 ab3d 925b bdba c075 383b 828a 823a
00000130: 0297 9d3a 51c7 0ebb 1db3 0fba 245a df3b
00000140: 4f9e abba 531c ecba e95b dc39 c691 e93d
00000150: 1e09 dfb9 caec f3bd 3ef0 13bb 2444 7dba
00000160: a2a6 7bba 279e 17bb 4beb ddba c808 8ebd
00000170: f749 1eba 67e4 a5b9 4f6b fcb9 01fb 983a
00000180: a52a 9db8 d2eb abba c356 ed3a 6a89 30be
00000190: c601 cf3a 3093 ef3a c4de 6e3b 65f9 9d3a
000001a0: ee6a b13b d148 10ba 7954 3d3e d2be c73c
000001b0: caf5 843d a0a1 e63a ab84 99bd fdc2 6b3e
000001c0: df0f c83a 3c90 33ba 0150 d239 05d1 ecbc
000001d0: dff1 8aba dd78 b53a 8a21 b6bc df52 17bb
000001e0: 0dd1 273b 2046 d339 fb95 633a 375e 1fbe
000001f0: 2fc9 cfba 9148 483e 5687 c33a a93c af3a
00000200: cb6c 31be d479 07bd 8242 aeba f4e3 093c
00000210: 86d6 7939 253d 71bb 139c 99b9 3e56 f939
00000220: 3033 89b9 d166 00bb 9eb2 023d 3c28 4dbe
00000230: c674 033a dbd5 1d3b c5a4 18bb b1aa df37
00000240: 85f1 fd3a 4d4c 23bb 6ab0 65bc b31b 81bc
00000250: 00ff c739 e47f 2d3c be67 d63a a1f1 cbb9
00000260: d218 08ba 429b 603a 9050 cc3a 4ed4 773c
00000270: 2a7a fbb9 8a92 db39 b95b 593a 3408 5c38
00000280: 8b2c d63a ae36 78bd 0249 1b3d 4e11 8db8
00000290: 906e 193b f99d 1b3b 1b4e 8a39 481a 0dbb
000002a0: 394e acba 5e97 be39 1964 b33d 3333 55b9
000002b0: 1843 96ba a214 383b d5a8 ce3a 20dd 1cbd
000002c0: 7815 cdba 28c5 66bb b89a 9b3d 2f86 62ba
000002d0: 7ab0 80bb bd27 dd3c 2a04 77bd 10e9 653d
000002e0: 77e0 c8ba ba5a d6bc 2fc5 82bd a8e1 233a
000002f0: 1cce edba 4737 6a3a bf7f 75bc 3bf8 d03c
00000300: 9c24 8e3c 9c33 a83b 1106 2ab9 189e 0bba
00000310: ab3f aaba 8dae 4e3b 88f1 4a3d 1d6e eeb9
00000320: 4a23 78bd f9a0 23bb c67e 2abb 33af a8b9
00000330: de3f 3ebb c266 88ba c696 afba 1613 943d
00000340: 1bfe af3a 108b 2d37 1fda a2ba b0c1 90be
00000350: ce9d 483b 990f bdbc 882e eb3a 2b9a a2ba
00000360: c2b3 fe3a 368c 8dba 777f 913a 16a6 a73c
00000370: 9b1a 153b 9865 72ba 83c5 943a bea6 ffba
00000380: 298c c43a 7544 833b 98c7 093b 4561 503c
00000390: b21b b0ba 1444 e039 36ec 40b9 3b39 633b
000003a0: 912b 0f3e 90c9 9639 05a8 933c b7b1 173c
000003b0: 18e8 dd3d 93c8 0a3a 8313 453d 0da7 393c
000003c0: 98da 1abb beb7 2138 1f5c aab8 cb12 6bbc
000003d0: e311 483b 204b 223b db42 9b3c 7819 763a
000003e0: 87f3 a839 3985 ecba 2591 15ba a6b5 9a3d
000003f0: 74fe f4ba 97c2 9abd 0d46 7cbb c7f5 f53a
-0.029754616 -0.042128444 -0.0015651524 0.0035270068 0.0008922602 0.00030424385 0.00040658563 0.0012741196
0.0004225551 -0.0002711244 -0.11580935 0.031729173 0.002132553 0.00042887466 -0.0061012986 0.0024792051
6.110207e-05 0.0014757613 0.098601796 0.10019718 0.0014238146 -0.13965203 -0.0005476027 0.0016164257
0.0021922146 0.00081341446 -0.0011981357 -0.058909763 -0.00044776796 0.0030360362 0.00020225604 -0.0009956385
0.00034210982 0.19515139 0.020532984 0.0030951318 0.0016170068 0.001632053 -0.0020193914 0.001998108
-0.0004749846 -0.0018647424 -0.0054490333 0.0018933028 0.0017809661 -0.0012066407 0.0020102493 -0.012638354
0.0015593455 0.08634132 0.08461413 -0.0019709852 -0.0009732309 -0.084701404 0.050576996 0.021342073
0.00095697166 -0.003199513 0.025771769 -2.6419568e-05 -0.0014769492 -0.0032838185 -0.26211923 -0.028676212
-0.004217153 0.0014166497 -0.00020691476 -0.0016480179 -0.001881089 -0.0031063887 -0.03734094 0.00044916
0.083694234 -0.0014446846 0.0028146356 0.0009959491 0.0012023153 -0.0021786282 -0.0005481707 0.0068161655
-0.0013093444 -0.0018013812 0.00042030148 0.11404757 -0.00042540667 -0.11910398 -0.0022573615 -0.0009661338
-0.00095997204 -0.0023135038 -0.0016931085 -0.06935269 -0.00060382433 -0.00031641425 -0.00048145137 0.0011671485
-7.4942865e-05 -0.0013116545 0.0018107522 -0.1723992 0.0015793375 0.0018278118 0.0036448697 0.0012052475
0.0054143583 -0.00055040146 0.18489255 0.024382982 0.06492193 0.0017595775 -0.074960075 0.23023601
0.0015263519 -0.00068498007 0.0004011393 -0.028908262 -0.0010600648 0.0013845224 -0.02223279 -0.0023090167
0.0025606782 0.00040297303 0.00086817116 -0.15563284 -0.0015852804 0.19558932 0.0014917653 0.0013369519
-0.17326657 -0.03307517 -0.0013294967 0.008416165 0.00023826407 -0.0036810127 -0.00029298718 0.00047557236
-0.00026168814 -0.0019592533 0.031908624 -0.2003488 0.0005014654 0.0024083767 -0.002329157 2.6663156e-05
0.0019374347 -0.0024917305 -0.014019111 -0.015760278 0.00038146228 0.0105895735 0.0016357822 -0.00038899205
-0.0005191687 0.0008568057 0.0015587974 0.015126301 -0.0004796547 0.00041880115 0.0008291561 5.2459727e-05
0.0016340179 -0.06059902 0.037911423 -6.726627e-05 0.0023411848 0.0023745282 0.00026379604 -0.0021530557
-0.0013145871 0.000363524 0.087593265 -0.00020332336 -0.0011464087 0.002808847 0.0015766869 -0.03829682
-0.0015646657 -0.003521273 0.0759787 -0.0008641211 -0.0039272876 0.026996488 -0.060306706 0.05613047
-0.0015325685 -0.026166309 -0.06385266 0.0006251582 -0.001814309 0.00089346286 -0.01498407 0.02550899
0.017351441 0.0051331054 -0.00016214723 -0.0005325987 -0.0012988945 0.0031537146 0.04954675 -0.00045476938
-0.06058053 -0.0024967773 -0.0026015504 -0.0003217399 -0.0029029767 -0.0010406601 -0.0013396374 0.07230203
0.001342717 1.0343982e-05 -0.0012424624 -0.28272772 0.0030611637 -0.023078727 0.0017942945 -0.0012405565
0.0019432234 -0.0010799232 0.001110061 0.020464938 0.0022751454 -0.0009246706 0.0011350367 -0.0019504649
0.0014995384 0.0040059634 0.0021023508 0.012718503 -0.0013435988 0.00042775332 -0.00018398542 0.0034671563
0.13981463 0.00028760405 0.018024454 0.009258679 0.10835284 0.000529417 0.04811431 0.011331332
-0.0023628827 3.8556514e-05 -8.1233906e-05 -0.014347742 0.003052824 0.0024764016 0.018952778 0.00093879504
0.000322249 -0.0018045075 -0.0005705527 0.07554178 -0.0018691556 -0.07556646 -0.0038493902 0.0018765264

a2c_network.mu.bias f4 [2]
00000000: 64c8 9b3e 8b60 8e3d
0.30426323 0.06952008

exp_avg f4 [2]
00000000: 8be3 9eba 6781 ddb9
-0.0012122256 -0.00042248817

exp_avg_sq f4 [2]
00000000: 0f39 c337 d116 d537
2.3272381e-05 2.5402203e-05

exp_avg f4 [128, 11]
00000000: fee6 b1b9 3c6d 2cba 4697 933a 2548 59ba
00000010: 1ec5 523a 091e 4f38 0000 0000 0000 0000
00000020: 0000 0000 0000 0000 0000 0000 8ecd bd37
00000030: 2417 003a 0c1b 9cb9 767a c539 84ab 90b8
00000040: f2f2 5fba 0000 0000 0000 0000 0000 0000
00000050: 0000 0000 0000 0000 ffd0 90ba 770d 643a
00000060: 5ee8 30ba e68c 46ba 1724 d8b9 9222 843a
00000070: 0000 0000 0000 0000 0000 0000 0000 0000
00000080: 0000 0000 3c4e 973a 5036 1839 8417 31ba
00000090: 3947 b13a 397d e2b9 cf12 8b38 0000 0000
000000a0: 0000 0000 0000 0000 0000 0000 0000 0000
000000b0: d82c 013a ac87 d838 17e1 23ba abc4 5539
000000c0: b083 b2b9 e1ac cfb8 0000 0000 0000 0000
000000d0: 0000 0000 0000 0000 0000 0000 c9c8 a9b9
000000e0: 94a5 f7b9 fac7 3c3a b0a1 edb7 5656 ce39
000000f0: 3cf6 cf39 0000 0000 0000 0000 0000 0000
00000100: 0000 0000 0000 0000 7271 2fba 3cb7 fab8
00000110: cb84 a13a 7d1d 8aba 4f43 833a 0c79 15ba
00000120: 0000 0000 0000 0000 0000 0000 0000 0000
00000130: 0000 0000 bd7a 4739 b16c 53ba c3d3 3e3a
00000140: 14ba ddb9 be35 f239 96e0 f8b9 0000 0000
00000150: 0000 0000 0000 0000 0000 0000 0000 0000
00000160: 12cb 9037 8eed d439 b37a 8dba dd5b 483a
00000170: 1ca8 44ba 3b7a f339 0000 0000 0000 0000
00000180: 0000 0000 0000 0000 0000 0000 9445 033b
00000190: 67c0 89b9 836e b0b9 ee6e c83a 6746 87b9
000001a0: bb6d 8339 0000 0000 0000 0000 0000 0000
000001b0: 0000 0000 0000 0000 3ce9 ae39 b984 26ba
000001c0: cc4c d339 77ad 69b3 09e7 bb39 2762 04b8
000001d0: 0000 0000 0000 0000 0000 0000 0000 0000
000001e0: 0000 0000 a6c2 8fba 9691 e2b9 92fe 363a
000001f0: 5eaa 20ba a04d c439 0684 7ab9 0000 0000
00000200: 0000 0000 0000 0000 0000 0000 0000 0000
00000210: 0cf3 283a 4a4d 94b8 405a 3938 3b95 083a
00000220: 3e14 0239 e0b9 98ba 0000 0000 0000 0000
00000230: 0000 0000 0000 0000 0000 0000 1767 afb8
00000240: 5321 ae39 181b 70ba 37db 67ba d334 d1b9
00000250: b5f0 c038 0000 0000 0000 0000 0000 0000
00000260: 0000 0000 0000 0000 4af2 abb9 1972 103a
00000270: eff9 15ba 65f5 33b9 4c63 0cba eaca 2c39
00000280: 0000 0000 0000 0000 0000 0000 0000 0000
00000290: 0000 0000 958f 523a 361d 27ba c5d7 0d3a
000002a0: c38a ac3a 37e1 f338 4a0e 82b8 0000 0000
000002b0: 0000 0000 0000 0000 0000 0000 0000 0000
000002c0: f015 5fb9 b670 203a 463a eeba 0bf9 f1b8
000002d0: 1a7a e1ba 5019 693a 0000 0000 0000 0000
000002e0: 0000 0000 0000 0000 0000 0000 7f39 fa39
000002f0: fde1 e2b9 a080 7a3a f569 583a 63a3 503a
00000300: 22af 7cb9 0000 0000 0000 0000 0000 0000
00000310: 0000 0000 0000 0000 e389 afba b544 043a
00000320: 86b9 a9b9 2c72 d2ba 1be1 2638 79a6 6739
00000330: 0000 0000 0000 0000 0000 0000 0000 0000
00000340: 0000 0000 c3c5 1a3a 0ae8 343a d7ac 6bba
00000350: b1bc 2f3a 3b92 08ba 8abc 7db9 0000 0000
00000360: 0000 0000 0000 0000 0000 0000 0000 0000
00000370: 35eb 7f3a 8ba4 a6b9 1481 b438 6159 373a
00000380: 50ef e338 2ba0 96b9 0000 0000 0000 0000
00000390: 0000 0000 0000 0000 0000 0000 7a55 1d37
000003a0: edfc 8139 7af5 7aba f6e0 e3b6 0962 61ba
000003b0: 4a88 6c3a 0000 0000 0000 0000 0000 0000
000003c0: 0000 0000 0000 0000 47d2 2738 7d07 483a
000003d0: 0670 98ba 6020 553a d261 21ba 162f b6b8
000003e0: 0000 0000 0000 0000 0000 0000 0000 0000
000003f0: 0000 0000 c188 a23a 8552 c1b9 e0b7 7239
-0.00033932173 -0.00065775565 0.0011260293 -0.00082886434 0.0008040237 4.938062e-05 0.0 0.0
0.0 0.0 0.0 2.2626275e-05 0.0004886261 -0.0002977479 0.0003766601 -6.898402e-05
-0.00085429766 0.0 0.0 0.0 0.0 0.0 -0.0011048614 0.0008699516
-0.00067484926 -0.0007574096 -0.0004122562 0.0010081104 0.0 0.0 0.0 0.0
0.0 0.0011543701 0.00014516083 -0.0006755518 0.0013525254 -0.00043199377 6.63154e-05 0.0
0.0 0.0 0.0 0.0 0.0004927642 0.000103249535 -0.00062514975 0.00020386527
-0.0003404892 -9.9027304e-05 0.0 0.0 0.0 0.0 0.0 -0.00032383788
-0.00047234877 0.00072014297 -2.8327893e-05 0.00039355707 0.00039665576 0.0 0.0 0.0
0.0 0.0 -0.0006692625 -0.00011955059 0.0012322901 -0.0010537353 0.0010014566 -0.00057019363
0.0 0.0 0.0 0.0 0.0 0.00019023842 -0.00080652075 0.000727948
-0.00042291044 0.00046197878 -0.00047469576 0.0 0.0 0.0 0.0 0.0
1.72607e-05 0.00040612783 -0.0010794014 0.0007643083 -0.0007501857 0.0004643964 0.0 0.0
0.0 0.0 0.0 0.0020030485 -0.00026274027 -0.00033651674 0.0015291849 -0.0002580166
0.00025068023 0.0 0.0 0.0 0.0 0.0 0.0003336164 -0.00063521747
0.00040302274 -5.4407305e-08 0.00035839554 -3.1562664e-05 0.0 0.0 0.0 0.0
0.0 -0.0010968044 -0.0004321455 0.0006980683 -0.00061289023 0.00037441868 -0.0002389104 0.0
0.0 0.0 0.0 0.0 0.0006444908 -7.071586e-05 4.419149e-05 0.00052102254
0.00012405307 -0.0011652075 0.0 0.0 0.0 0.0 0.0 -8.363852e-05
0.00033212695 -0.0009159311 -0.0008844616 -0.00039902944 9.2001086e-05 0.0 0.0 0.0
0.0 0.0 -0.0003279618 0.0005510166 -0.0005721142 -0.00017162187 -0.00053553726 0.0001647879
0.0 0.0 0.0 0.0 0.0 0.00080322596 -0.0006374897 0.00054108753
0.0013163913 0.000116290925 -6.2015446e-05 0.0 0.0 0.0 0.0 0.0
-0.0002127511 0.0006120311 -0.0018175326 -0.000115381634 -0.0017202527 0.00088920165 0.0 0.0
0.0 0.0 0.0 0.00047726554 -0.00043274453 0.000955591 0.0008255535 0.0007958917
-0.00024097835 0.0 0.0 0.0 0.0 0.0 -0.0013392534 0.00050456385
-0.00032372418 -0.0016055754 3.978713e-05 0.00022091893 0.0 0.0 0.0 0.0
0.0 0.00059041026 0.00069010316 -0.0008990294 0.00067038374 -0.00052097783 -0.00024198196 0.0
0.0 0.0 0.0 0.0 0.00097625266 -0.0003178458 8.6071115e-05 0.00069942145
0.00010868779 -0.00028729564 0.0 0.0 0.0 0.0 0.0 9.377831e-06
0.00024793242 -0.0009573322 -6.791316e-06 -0.0008597677 0.0009022994 0.0 0.0 0.0
0.0 0.0 4.001174e-05 0.00076305104 -0.0011630065 0.00081301294 -0.0006156239 -8.687207e-05
0.0 0.0 0.0 0.0 0.0 0.0012400375 -0.0003687331 0.00023147417

exp_avg_sq f4 [128, 11]
00000000: 676a 2238 069c a637 f33a bb37 4fbd f637
00000010: c6e6 2037 0c0f 4038 0000 0000 0000 0000
00000020: 0000 0000 0000 0000 0000 0000 93f9 2d37
00000030: b7cd 8036 c165 ac36 13b9 ff36 6889 8536
00000040: 7031 3637 0000 0000 0000 0000 0000 0000
00000050: 0000 0000 0000 0000 9f21 a737 8258 0d37
00000060: 237d 0637 14ea a337 6158 d136 4c94 0538
00000070: 0000 0000 0000 0000 0000 0000 0000 0000
00000080: 0000 0000 9145 8a38 93f6 b637 bc84 bc37
00000090: 8279 5138 805d f636 7a33 8238 0000 0000
000000a0: 0000 0000 0000 0000 0000 0000 0000 0000
000000b0: 3290 6f37 826f f636 6c85 0337 7477 3a37
000000c0: e812 c036 34dc 7537 0000 0000 0000 0000
000000d0: 0000 0000 0000 0000 0000 0000 9b29 4437
000000e0: f629 e836 ee2e 0537 b823 2c37 51e1 e736
000000f0: 90b7 8537 0000 0000 0000 0000 0000 0000
00000100: 0000 0000 0000 0000 047d c538 a545 0238
00000110: 179f f637 8692 8f38 b715 0237 4ae0 a338
00000120: 0000 0000 0000 0000 0000 0000 0000 0000
00000130: 0000 0000 6e44 ef37 7119 b737 44d4 bb37
00000140: 6c87 2e38 c4ca cd36 a245 8938 0000 0000
00000150: 0000 0000 0000 0000 0000 0000 0000 0000
00000160: b9dc 1338 1398 8537 7e96 9437 d50d f237
00000170: ebb5 b336 a917 2338 0000 0000 0000 0000
00000180: 0000 0000 0000 0000 0000 0000 101a 9f38
00000190: 81f8 0438 eb0a 0338 4d4c 8438 ebc0 e036
000001a0: e971 8438 0000 0000 0000 0000 0000 0000
000001b0: 0000 0000 0000 0000 3a4a 9737 7399 9736
000001c0: 61d1 b136 81fc 5a37 22d9 a836 a5d9 ca37
000001d0: 0000 0000 0000 0000 0000 0000 0000 0000
000001e0: 0000 0000 7200 1b38 5440 2937 b362 0d37
000001f0: 574f ec37 e241 0336 12bd 1038 0000 0000
00000200: 0000 0000 0000 0000 0000 0000 0000 0000
00000210: 926f 2c37 6d57 dd36 e804 dd36 bd29 2537
00000220: 51b0 7e36 599c 5a37 0000 0000 0000 0000
00000230: 0000 0000 0000 0000 0000 0000 e17b fb37
00000240: 8de6 f337 b30d 0c38 2ff6 1d38 d600 d437
00000250: 70f1 8238 0000 0000 0000 0000 0000 0000
00000260: 0000 0000 0000 0000 e075 8537 9de1 0337
00000270: c02a 0d37 80bc 4b37 f67a a436 96d3 a437
00000280: 0000 0000 0000 0000 0000 0000 0000 0000
00000290: 0000 0000 33f6 ca37 2ba4 b437 513c b837
000002a0: 1a18 1538 32b7 3a37 b75d 4438 0000 0000
000002b0: 0000 0000 0000 0000 0000 0000 0000 0000
000002c0: 0e3f 0a39 7c39 5e38 a2a3 6838 7501 c638
000002d0: dae4 1d38 b95f 2d39 0000 0000 0000 0000
000002e0: 0000 0000 0000 0000 0000 0000 94cf 8038
000002f0: 770a 0938 afcc 1b38 2a34 4c38 890a da37
00000300: fe12 ae38 0000 0000 0000 0000 0000 0000
00000310: 0000 0000 0000 0000 57da 5638 b313 0238
00000320: 3b0c 1038 a330 7338 92bd c037 7958 bd38
00000330: 0000 0000 0000 0000 0000 0000 0000 0000
00000340: 0000 0000 dccb 8037 efd1 3337 d328 6037
00000350: ac60 4f37 54cf c536 f713 9d37 0000 0000
00000360: 0000 0000 0000 0000 0000 0000 0000 0000
00000370: 5a94 de37 20d4 bd36 9c89 c136 37b4 9c37
00000380: 4847 8f36 85d9 cf37 0000 0000 0000 0000
00000390: 0000 0000 0000 0000 0000 0000 13be 3138
000003a0: ab87 8137 8cc9 7c37 953a ff37 4132 dc36
000003b0: 3ae8 2538 0000 0000 0000 0000 0000 0000
000003c0: 0000 0000 0000 0000 c0d5 0738 5475 4337
000003d0: 52a2 7537 507a c937 361e f936 fc81 2038
000003e0: 0000 0000 0000 0000 0000 0000 0000 0000
000003f0: 0000 0000 0c46 9d37 0f7b 5d37 3ac2 6b37
3.8722905e-05 1.9861396e-05 2.2319588e-05 2.9413639e-05 9.590474e-06 4.579038e-05 0.0 0.0
0.0 0.0 0.0 1.0369712e-05 3.8386456e-06 5.137845e-06 7.6211377e-06 3.979705e-06
1.0859556e-05 0.0 0.0 0.0 0.0 0.0 1.9923607e-05 8.424862e-06
8.016158e-06 1.9540115e-05 6.238974e-06 3.1847783e-05 0.0 0.0 0.0 0.0
0.0 6.5933105e-05 2.181091e-05 2.2473156e-05 4.9942646e-05 7.342256e-06 6.208471e-05 0.0
0.0 0.0 0.0 0.0 1.4279083e-05 7.3443525e-06 7.839273e-06 1.1114276e-05
5.724247e-06 1.4654408e-05 0.0 0.0 0.0 0.0 0.0 1.1692197e-05
6.9190237e-06 7.938344e-06 1.0260315e-05 6.9105668e-06 1.5940313e-05 0.0 0.0 0.0
0.0 0.0 9.416978e-05 3.1059277e-05 2.9399567e-05 6.8460635e-05 7.75366e-06 7.814223e-05
0.0 0.0 0.0 0.0 0.0 2.8522885e-05 2.1827147e-05 2.2390981e-05
4.1610954e-05 6.133081e-06 6.545639e-05 0.0 0.0 0.0 0.0 0.0
3.5253095e-05 1.592565e-05 1.7713053e-05 2.885509e-05 5.3557937e-06 3.8884264e-05 0.0 0.0
0.0 0.0 0.0 7.586565e-05 3.170269e-05 3.1243002e-05 6.3084626e-05 6.698179e-06
6.315468e-05 0.0 0.0 0.0 0.0 0.0 1.8035167e-05 4.5180145e-06
5.299386e-06 1.3052603e-05 5.0320677e-06 2.4181625e-05 0.0 0.0 0.0 0.0
0.0 3.6955294e-05 1.00881625e-05 8.427235e-06 2.8170338e-05 1.955887e-06 3.450836e-05 0.0
0.0 0.0 0.0 0.0 1.0277976e-05 6.596491e-06 6.5868844e-06 9.844484e-06
3.795158e-06 1.3030215e-05 0.0 0.0 0.0 0.0 0.0 2.9979217e-05
2.9075216e-05 3.339136e-05 3.7660993e-05 2.5272759e-05 6.243854e-05 0.0 0.0 0.0
0.0 0.0 1.5909725e-05 7.860738e-06 8.414208e-06 1.21436315e-05 4.9018954e-06 1.964885e-05
0.0 0.0 0.0 0.0 0.0 2.4194922e-05 2.1534119e-05 2.1962596e-05
3.5546815e-05 1.1129117e-05 4.681732e-05 0.0 0.0 0.0 0.0 0.0
0.00013184195 5.298246e-05 5.5465505e-05 9.441647e-05 3.764485e-05 0.00016534225 0.0 0.0
0.0 0.0 0.0 6.14218e-05 3.267309e-05 3.7145506e-05 4.868597e-05 2.5992531e-05
8.300504e-05 0.0 0.0 0.0 0.0 0.0 5.122492e-05 3.101276e-05
3.4343666e-05 5.798101e-05 2.297646e-05 9.0287016e-05 0.0 0.0 0.0 0.0
0.0 1.5353718e-05 1.071811e-05 1.3360946e-05 1.236067e-05 5.8951937e-06 1.8725155e-05 0.0
0.0 0.0 0.0 0.0 2.6533544e-05 5.6573335e-06 5.767868e-06 1.8680568e-05
4.2700303e-06 2.4777613e-05 0.0 0.0 0.0 0.0 0.0 4.237711e-05
1.5441174e-05 1.5067297e-05 3.0425648e-05 6.5623612e-06 3.9555343e-05 0.0 0.0 0.0
0.0 0.0 3.238558e-05 1.1650223e-05 1.4640931e-05 2.4018023e-05 7.4242953e-06 3.826803e-05
0.0 0.0 0.0 0.0 0.0 1.8748477e-05 1.3201278e-05 1.4052313e-05

exp_avg f4 [128]
00000000: a727 8fba ea23 8839 c024 4aba 3575 463a
00000010: b0a7 e139 f7b1 0aba 39f4 67ba f233 edb9
00000020: 7abc 143a 8a52 bd3a 165b 52b9 4928 21ba
00000030: 3cf4 18b9 9022 e0b9 cd36 fd38 1e9b 5c3a
00000040: 5204 eb39 8cfe 7bb9 6584 5bba 3c24 803a
00000050: 7af6 cd39 48a9 ed38 c2b4 373a 9299 813a
00000060: 18c8 e43a 8268 baba 3d9c 82ba 4371 9c3a
00000070: c574 633a a823 863a 1234 86b9 a913 dab8
00000080: 533b 6b3a 520c 0d3a bdec 0dba a7a1 033a
00000090: 772b 413a b970 9c39 39c7 40b9 6b76 16ba
000000a0: ce8b 2bba 02a7 c3b9 a0fe 823a 7ef9 8aba
000000b0: dd55 a338 32b6 9b3a 4d47 84b9 94fc 0d3a
000000c0: ab42 9aba 22dd bdba 0772 aeb8 7104 cf38
000000d0: 8e4b bfba 9a1f b53a 00b3 9cba c94a 68ba
000000e0: 6214 4bba 0349 80ba 1fd3 693a f032 b739
000000f0: 2592 8bba f27b a5ba 0a7f daba 9d2e 963a
00000100: 2d0e 04ba f701 22b9 c362 6fb8 c8ae f339
00000110: 4a68 8339 38f8 b73a e1fb 89ba e0ef e2b9
00000120: 1126 f738 cc4b 96b8 83aa 39b9 99da 883a
00000130: da5c 3dba 53ee 413a c4d9 24ba c52b 02ba
00000140: 3cf6 aeba d865 1dba f250 a639 c1f7 04ba
00000150: 5624 543a 8532 8a3a fd74 91ba 75d3 9139
00000160: e5a5 893a 678a ac38 14ce 2cba c70a e3b9
00000170: 6790 673a aa4a 9d39 6f21 a839 9574 a43a
00000180: d909 c6b9 de22 303a ab87 97b9 cdaf 88ba
00000190: 7488 c7ba 73fd a4ba e070 9eb9 e4ad 473a
000001a0: 9f5d bfb9 f535 e5b9 6243 b438 7815 e439
000001b0: 744c 8aba 7b1a 993a a7c6 2c3a 2075 e039
000001c0: d3c3 8039 d50b cbb8 e018 07b9 3072 f6b9
000001d0: e81f d139 8cfa 7b3a f620 b639 8332 e138
000001e0: 84cb 7dba 9ddc 513a 1f27 02b9 0040 5dba
000001f0: 3f48 2f3a 56b4 b339 37e9 f7b9 bf19 afb9
-0.0010921851 0.000259667 -0.00077111647 0.0007570566 0.0004304028 -0.0005290801 -0.00088483427 -0.00045242865
0.0005673837 0.0014444154 -0.00020061093 -0.00061476656 -0.00014586834 -0.0004275036 0.000120741875 0.0008415448
0.00044825912 -0.00024032051 -0.00083739153 0.0009776424 0.00039284286 0.00011332572 0.0007007831 0.0009887686
0.0017454652 -0.001422182 -0.0009964776 0.001193561 0.0008676763 0.0010234015 -0.00025597267 -0.00010398712
0.00089733786 0.0005380559 -0.0005414 0.00050213415 0.00073688425 0.00029838624 -0.00018384763 -0.00057396916
-0.0006543965 -0.0003731773 0.0009994097 -0.0010602919 7.788439e-05 0.001187986 -0.00025230125 0.000541636
-0.0011769136 -0.0014485458 -8.318206e-05 9.8713565e-05 -0.0014594661 0.0013818622 -0.0011955202 -0.00088612415
-0.0007746873 -0.0009787384 0.0008919704 0.0003494243 -0.0010648413 -0.001262544 -0.0016669941 0.0011457984
-0.0005037513 -0.00015450256 -5.707402e-05 0.00046478794 0.00025063968 0.0014035767 -0.0010527336 -0.000432848
0.00011784968 -7.166676e-05 -0.00017706495 0.0010441124 -0.0007223614 0.0007397879 -0.0006288553 -0.00049656286
-0.001334853 -0.00060042506 0.00031722296 -0.00050723186 0.00080925727 0.001054362 -0.0011097487 0.00027814103
0.0010501711 8.2273786e-05 -0.00065919873 -0.00043304844 0.00088334683 0.00030001003 0.00032068367 0.0012546951
-0.0003777284 0.0006719063 -0.00028902045 -0.0010428369 -0.0015223161 -0.0012587741 -0.00030220207 0.0007617159
-0.00036500112 -0.00043718485 8.59562e-05 0.00043503544 -0.0010551349 0.0011680865 0.0006590881 0.00042811874
0.00024559963 -9.681998e-05 -0.0001288387 -0.00047005853 0.00039887358 0.00096122245 0.00034738303 0.000107382446
-0.000968151 0.0008005591 -0.0001241234 -0.00084400177 0.0006686486 0.000342759 -0.0004728527 -0.00033397783

exp_avg_sq f4 [128]
00000000: 14ce 4338 3d8f 4337 95a2 f037 83b2 9338
00000010: aa3c 9237 e363 7837 35e0 c838 4d1a 7338
00000020: 14f9 2738 59e6 b538 96e0 ae37 0367 1f38
00000030: 6c74 6337 8b87 6d38 2cf0 9c37 7089 4e38
00000040: 5066 1c39 f2b2 a638 bc0c b638 7596 a037
00000050: 5dbf ec37 d032 3d38 81d5 1338 edc2 0938
00000060: a199 b939 38d8 cd38 e84a fa37 382b 6338
00000070: bbc1 c738 04e4 d438 c5e9 d536 0d19 4a36
00000080: c511 ef37 568d 0a38 a37f af37 a173 6138
00000090: 0de4 8037 6a5d 5738 1320 7437 7739 0a38
000000a0: 1c7c d537 dba0 2238 6843 2e38 62a2 b938
000000b0: 98ca 2d38 ae52 7238 2dbf 4237 2fb9 6537
000000c0: 8433 ad38 0a89 c138 6094 9e37 b9da 1137
000000d0: 30c3 db38 d327 b738 40ed 3f38 611c 8f38
000000e0: 6de5 3038 0893 8838 fc64 3638 5a10 2038
000000f0: 1e25 1938 0441 2039 d9bc 2b39 27bf 9937
00000100: 7061 0f38 363e ee37 347b 3c38 d885 9938
00000110: 5d37 6e38 89de 3738 49e3 c238 d608 3038
00000120: 579f ef38 daf3 8e37 75aa 3338 a071 6139
00000130: 6a64 0438 d44c ac38 7018 5c38 cae6 ed36
00000140: 53fe d638 7757 b837 68da 1237 1e38 2439
00000150: 0130 3038 5754 9f38 941a 6739 9713 5038
00000160: a278 9539 90ba b039 2c7b 3138 b2cd e437
00000170: 4e75 e938 90ad 4f38 3b7c 6d38 da96 6538
00000180: 7819 0a38 0f81 6937 891c ea37 7c28 bc37
00000190: 9a29 8b38 3ed0 3738 2b84 6b37 2de6 e437
000001a0: f455 9536 34ff df37 3d30 9037 41ee 9537
000001b0: de90 9b38 3ea8 7839 c3e4 2139 7b88 1738
000001c0: d8d3 4c38 3345 9937 bc6b cb37 e7c9 8938
000001d0: 53b9 7838 3a2b e937 b379 c238 9162 9b38
000001e0: 1396 1e38 ffd0 ea37 b602 a238 c104 1b38
000001f0: e121 5f38 7751 6737 f027 b138 7af6 f037
4.6683548e-05 1.1656256e-05 2.8685938e-05 7.0427566e-05 1.7432805e-05 1.4805209e-05 9.578505e-05 5.796021e-05
4.0047875e-05 8.673658e-05 2.0846997e-05 3.800449e-05 1.3557361e-05 5.6631437e-05 1.8708488e-05 4.9242226e-05
0.00014915434 7.948828e-05 8.680808e-05 1.9143548e-05 2.8222503e-05 4.5108434e-05 3.5246372e-05 3.2844884e-05
0.00035400412 9.8154356e-05 2.9837203e-05 5.4161268e-05 9.5251446e-05 0.00010151419 6.375109e-06 3.0114927e-06
2.8499295e-05 3.3033393e-05 2.0921061e-05 5.3751868e-05 1.5364983e-05 5.1346993e-05 1.4551001e-05 3.2955282e-05
2.5449372e-05 3.8773618e-05 4.154761e-05 8.8517336e-05 4.1435094e-05 5.7774298e-05 1.1607813e-05 1.369258e-05
8.2588784e-05 9.228483e-05 1.890416e-05 8.693599e-06 0.0001047909 8.733538e-05 4.5758905e-05 6.824057e-05
4.217534e-05 6.512372e-05 4.348623e-05 3.81622e-05 3.651261e-05 0.00015283009 0.00016378182 1.8328034e-05
3.4184603e-05 2.840078e-05 4.4937435e-05 7.320539e-05 5.6795183e-05 4.3837852e-05 9.292976e-05 4.19699e-05
0.000114260874 1.7041271e-05 4.2835676e-05 0.00021500001 3.156477e-05 8.2159095e-05 5.2474847e-05 7.090018e-06
0.00010251687 2.1975238e-05 8.75313e-06 0.00015661164 4.2006377e-05 7.59742e-05 0.00022039778 4.960931e-05
0.00028509373 0.00033708336 4.23148e-05 2.7275502e-05 0.000111321555 4.951429e-05 5.6620902e-05 5.4738346e-05
3.2925484e-05 1.3917931e-05 2.7908261e-05 2.2430198e-05 6.6357854e-05 4.382454e-05 1.4037864e-05 2.7286902e-05
4.4505523e-06 2.670251e-05 1.71886e-05 1.787313e-05 7.4179596e-05 0.00023713798 0.00015439377 3.6128313e-05
4.8834685e-05 1.8271245e-05 2.4249654e-05 6.570276e-05 5.9300404e-05 2.7795893e-05 9.273309e-05 7.4093354e-05
3.7809903e-05 2.7992295e-05 7.725267e-05 3.6959307e-05 5.3198895e-05 1.37876405e-05 8.447457e-05 2.8725004e-05
