kingfisher_rl/config/Capture_Nominal-DR0.pth (torch, 235259 bytes, 30 tensors)

value_mean_std.running_mean f8 [1]
0.15426247765452453
00000000: b157 4374 dfbe c33f

value_mean_std.running_var f8 [1]
0.008922666569731128
00000000: 2580 e108 0c46 823f

value_mean_std.count f8 []
29655041.0
00000000: 0000 0010 0048 7c41

running_mean_std.running_mean_std.state.running_mean f8 [11]
0.9303945772408099 0.507672847540002 -0.4078058027678172 0.5821851312187111 -0.06537476306667922 4.565853178209114 0.0 0.0
0.0 0.0 0.0
00000000: 3300 34d9 cac5 ed3f 4f0c a820 db3e e03f
00000010: 6e6f 8082 7d19 dabf 9da8 59b6 42a1 e23f
00000020: 30ea 5a85 66bc b0bf b4fb fa03 6f43 1240
00000030: 0000 0000 0000 0000 0000 0000 0000 0000
00000040: 0000 0000 0000 0000 0000 0000 0000 0000
00000050: 0000 0000 0000 0000

running_mean_std.running_mean_std.state.running_var f8 [11]
0.5987024959125755 0.3470437612746553 0.309264440798167 0.36453751919461796 0.29228838267380536 10.895748104874354 6.744215705376505e-08 6.744215705376505e-08
6.744215705376505e-08 6.744215705376505e-08 6.744215705376505e-08
00000000: 7a4c ff22 9228 e33f 8426 3d09 f735 d63f
00000010: 87ce c214 fdca d33f 5ac6 c62c 9554 d73f
00000020: 2b6c 2555 dab4 d23f 56c7 df7e 9fca 2540
00000030: ab5b 60f9 961a 723e ab5b 60f9 961a 723e
00000040: ab5b 60f9 961a 723e ab5b 60f9 961a 723e
00000050: ab5b 60f9 961a 723e

running_mean_std.running_mean_std.state.count f8 []
14827521.0
00000000: 0000 0020 0048 6c41

a2c_network.sigma f4 [2]
-1.9365846 -2.3329961
00000000: 01e2 f7bf cf4f 15c0

a2c_network.actor_mlp.0.weight f4 [128, 11]
0.20684065 0.15839028 -0.0036175554 0.40250927 -0.23418334 -0.020079393 -0.14679232 0.17707239
0.2657952 -0.22119722 0.2620725 0.15992078 0.054742143 0.121652 -0.15112577 -0.044929225
0.1972418 0.044566065 -0.14075753 0.076854736 -0.13891733 -0.035359096 0.13280831 0.4148304
-0.21281293 -0.39863542 -0.49875593 -0.46284452 0.028457582 -0.29779646 0.27229762 -0.25612432
0.23277502 -0.10231972 -0.058378313 0.049423847 0.43838733 0.46423268 0.36212653 -0.09508859
0.081011176 -0.08176368 0.12689333 0.269196 -0.07815999 -0.016470937 0.082426615 0.3005054
0.2930489 0.0810911 -0.29846862 -0.116492085 -0.2312661 0.24740179 0.08684472 0.12341062
0.1433709 0.17518683 0.42679933 -0.46314606 -0.21107131 -0.2057936 0.09297162 -0.103835166
0.09238798 -0.06281732 0.15210645 -0.22150835 -0.3844011 -0.11648721 0.34210253 0.44917437
0.2901295 -0.24883015 -0.2990619 -0.23589155 -0.20282339 -0.0355664 0.33446416 0.33858725
-0.18227004 -0.7087281 -0.011452299 -0.12187224 0.18299443 -0.071548834 0.17247833 -0.23426467
-0.20168653 -0.21477899 0.2886147 -0.08710991 0.24135181 -0.062004022 -0.218648 -0.16096732
0.27608246 -0.10173973 -0.106890716 -0.28821483 0.3600498 0.097349875 0.18595076 -1.1064378
-0.24507277 -0.20595683 -0.25580123 -0.16603103 -0.26388636 -0.19198374 0.4836098 0.3684721
0.09327692 -0.35248342 -0.40751126 -0.052325793 0.047147665 -0.26530626 -0.1299131 -0.18050537
0.00083556585 0.06634788 -0.008185259 -0.07839123 -0.21491565 -0.20049481 -0.2600879 -0.23797715
0.25280818 -0.05983916 0.25941938 0.09394553 -0.22449431 0.38465887 0.01587204 -0.11858114
-0.9161961 -0.49802345 0.0862656 -0.065863304 0.117385335 -0.24743934 0.22385082 -0.1479396
-0.20872496 -0.057244655 0.31494159 0.5520774 0.29141483 -0.23907502 0.075880535 -0.12968786
-0.033041064 -0.22567825 -0.09702388 -0.06908969 -0.0071150875 0.28824383 0.26523283 0.200406
0.2740592 0.06625724 0.038786437 -0.26570833 0.12657098 -0.28102773 0.22935188 0.3799758
0.38558903 -0.413502 0.04563134 -0.014398891 0.16835226 -0.07704634 -0.1720348 -0.103250414
-0.15969379 -0.0015876443 0.30518934 -0.60059947 -0.098514915 0.18230963 0.054672863 -0.10737562
0.15737148 0.15844819 0.1127433 -0.15944827 0.07834315 0.03007868 -0.024908822 0.026878027
0.38098305 0.2591187 -0.029848825 -0.067507446 0.004399741 -0.018002711 0.3036196 -0.21880072
-0.30057612 -0.4769616 0.3955368 -0.24390195 -0.014996443 -0.18178293 -0.18446617 -0.27008387
-0.09828137 0.21473251 0.4826835 0.0003228715 -0.187781 -0.37089115 0.09501752 0.29166687
0.043615874 -0.07808261 0.12473984 -0.114840105 -0.04544962 0.3133633 -0.43375745 0.02270643
-0.5320323 0.32982832 0.22843544 0.10988527 -0.21023609 -0.29757357 -0.24488117 -0.0022786045
-0.13234428 0.26167557 0.14240034 0.3834447 0.06291125 -0.2293012 -0.25832653 -0.2820182
0.12342728 -0.14803243 0.08375093 0.046751726 -0.19985585 -0.27728426 -0.36323252 0.062094573
-0.08960808 0.18613598 -0.09672748 -0.22117884 -0.053198338 -0.06306411 0.17181131 -0.4231843
00000000: 09ce 533e 1031 223e 8214 6dbb b215 ce3e
00000010: c2cd 6fbe 8a7d a4bc ba50 16be 7752 353e
00000020: 4f16 883e 8681 62be 5e2e 863e 46c2 233e
00000030: 4c39 603d af24 f93d b7c0 1abe b507 38bd
00000040: c1f9 493e e88a 363d be22 10be 0466 9d3d
00000050: 5840 0ebe b3d4 10bd e7fe 073e a664 d43e
00000060: a2eb 59be f119 ccbe f05c ffbe f5f9 ecbe
00000070: e01f e93c c778 98be 986a 8b3e ba22 83be
00000080: 935c 6e3e 008d d1bd 191e 6fbd a970 4a3d
00000090: 4e74 e03e e8af ed3e a668 b93e cfbd c2bd
000000a0: 30e9 a53d b773 a7bd 53f0 013e 0fd4 893e
000000b0: 5812 a0bd 0fee 86bc 49cf a83d d8db 993e
000000c0: 810a 963e 1713 a63d e1d0 98be 6793 eebd
000000d0: 05d1 6cbe e556 7d3e a5db b13d b5be fc3d
000000e0: d2cf 123e 2d64 333e 7185 da3e 7b21 edbe
000000f0: 1423 58be 8fbb 52be e867 be3d 88a7 d4bd
00000100: e935 bd3d 5ea6 80bd cbc1 1b3e 16d3 62be
00000110: 39d0 c4be d990 eebd 1028 af3e 2ffa e53e
00000120: db8b 943e 55cd 7ebe a41e 99be 8e8d 71be
00000130: efb0 4fbe 13ae 11bd e33e ab3e 4f5b ad3e
00000140: ffa4 3abe 346f 35bf 6ca2 3bbc 2798 f9bd
00000150: e462 3b3e 3288 92bd 299e 303e 14e3 6fbe
00000160: ea86 4ebe 06ef 5bbe 4ec5 933e ae66 b2bd
00000170: ee24 773e eef7 7dbd 43e5 5fbe 9ed4 24be
00000180: ae5a 8d3e eb5c d0bd 85e9 dabd e590 93be
00000190: 7358 b83e 5f5f c73d e069 3e3e c19f 8dbf
000001a0: 5bf4 7abe 59e6 52be 61f8 82be 0a04 2abe
000001b0: 1d1c 87be 6397 44be b49b f73e 60a8 bc3e
000001c0: f807 bf3d b578 b4be 51a5 d0be 9253 56bd
000001d0: e91d 413d 39d6 87be f107 05be 66d6 38be
000001e0: e009 5b3a 66e1 873d 771b 06bc 958b a0bd
000001f0: d912 5cbe 834e 4dbe 3e2a 85be 48b0 73be
00000200: 1370 813e e819 75bd 9ed2 843e 8466 c03d
00000210: d6e1 65be 02f2 c43e 1506 823c abda f2bd
00000220: d48b 6abf eefc febe 05ac b03d 57e3 86bd
00000230: b967 f03d bd60 7dbe 2639 653e 7a7d 17be
00000240: ffbb 55be 5f79 6abd 0640 a13e f254 0d3f
00000250: 5334 953e 15d0 74be 4167 9b3d e5cc 04be
00000260: 1156 07bd 3318 67be 75b4 c6bd e57e 8dbd
00000270: ae25 e9bb b294 933e 99cc 873e 3b37 4d3e
00000280: 7d51 8c3e e0b1 873d 87de 1e3d ec0a 88be
00000290: d39b 013e dee2 8fbe 38db 6a3e 308c c23e
000002a0: ed6b c53e 89b6 d3be eee7 3a3d 53e9 6bbc
000002b0: 8964 2c3e 79ca 9dbd e429 30be f474 d3bd
000002c0: c586 23be 8118 d0ba c741 9c3e e3c0 19bf
000002d0: 30c2 c9bd 60af 3a3e a7f0 5f3d c0e7 dbbd
000002e0: fd25 213e 3e40 223e f6e5 e63d 6846 23be
000002f0: 6072 a03d 9067 f63c 960d ccbc 4f2f dc3c
00000300: 3610 c33e 35ab 843e 8685 f4bc 5841 8abd
00000310: b42b 903b 6c7a 93bc 0774 9b3e 4c0d 60be
00000320: 1de5 99be 5034 f4be cd83 ca3e 6fc1 79be
00000330: a4b3 75bc 4e25 3abe b3e4 3cbe 6f48 8abe
00000340: be47 c9bd d7e2 5b3e 4b22 f73e 1447 a939
00000350: aa49 40be 72e5 bdbe 8c98 c23d 5c55 953e
00000360: 8fa6 323d c7e9 9fbd 9a77 ff3d 4a31 ebbd
00000370: 6129 3abd 2871 a03e 7515 debe d602 ba3c
00000380: 4533 08bf 42df a83e fbea 693e 870b e13d
00000390: 2148 57be 905b 98be 21c2 7abe a454 15bb
000003a0: 4285 07be 57fa 853e 65d1 113e dd52 c43e
000003b0: 9dd7 803d efcd 6abe 6043 84be b164 90be
000003c0: 71c7 fc3d d095 17be 9c85 ab3d bd7e 3f3d
000003d0: 03a7 4cbe 34f8 8dbe 9df9 b9be e156 7e3d
000003e0: 7184 b7bd 6e9a 3e3e 0f19 c6bd b57c 62be
000003f0: 80e6 59bd c227 81bd 4eef 2f3e 9dab d8be

a2c_network.actor_mlp.0.bias f4 [128]
-0.05562484 0.20688722 0.36948076 -0.20565337 0.40667394 -0.27441072 0.3601458 0.40856832
-0.53340465 0.36440167 0.49563155 -0.12651943 0.21074075 -0.24364454 0.055358317 0.25482985
0.3726965 0.67247283 -0.4952665 0.47894958 -0.17161602 -0.37568623 0.35192814 0.3291832
-0.51940924 0.503491 -0.60001844 0.46578854 0.10256062 -0.048201315 0.11779922 -0.09788818
0.13361254 -0.0044668103 -0.04228558 -0.016321037 0.33793023 0.14863296 0.5758395 0.24952145
-0.5679111 -0.41458625 0.11870404 0.31126598 0.29731247 0.6228805 0.20558171 -0.5368346
-0.37793696 0.04683522 -0.74766266 0.4386915 -0.44475654 0.29550016 0.15272492 -0.5206242
-0.4677064 0.291417 0.51699656 -0.1947029 -0.45076454 -0.2165445 -0.2454836 -0.47336757
0.4958886 0.63839424 -0.1483711 -0.6076377 0.1510018 0.36620262 0.6162972 0.37634727
0.30544597 -0.17095438 -0.2804461 0.08048796 0.18646824 -0.64356804 -0.6928881 -0.13126622
-0.24865988 -0.62324554 0.31429026 -0.3070577 -0.093153134 0.27489302 0.52292484 0.2329004
0.2813222 -0.648016 0.38272655 0.2242629 -0.25133163 -0.20494936 -0.44017905 -0.37008396
0.6490584 -0.4761911 -0.46382958 0.2692781 0.5451105 -0.07375746 0.24894904 -0.4931224
0.57298005 0.16352336 0.24861644 -0.7551813 0.49403313 -0.23420796 0.25087544 0.19828843
0.24611905 0.22442824 -0.6645618 0.582253 0.032920677 -0.25077197 -0.14621282 -0.18980843
0.45558396 -0.47578108 0.47833407 -0.15780212 0.3062339 -0.1680576 0.45814195 0.6066782
00000000: dfd6 63bd 3eda 533e 952c bd3e cc96 52be
00000010: 9137 d03e 907f 8cbe 0865 b83e de2f d13e
00000020: 358d 08bf db92 ba3e 6bc3 fd3e 4f8e 01be
00000030: 6ccc 573e f47d 79be 67bf 623d 0f79 823e
00000040: 13d2 be3e 2e27 2c3f 9293 fdbe e138 f53e
00000050: 1cbc 2fbe f259 c0be ed2f b43e b38a a83e
00000060: 01f8 04bf c9e4 003f cf9a 19bf d67b ee3e
00000070: 4d0b d23d be6e 45bd b840 f13d 9979 c8bd
00000080: bad1 083e 525e 92bb a533 2dbd b2b3 85bc
00000090: 3105 ad3e 3d33 183e 386a 133f 8d82 7f3e
000000a0: 9f62 11bf a644 d4be 1b1b f33d 415e 9f3e
000000b0: 5739 983e 1975 1f3f 0384 523e fe6d 09bf
000000c0: f480 c1be 4ad6 3f3d d266 3fbf 2c9c e03e
000000d0: 21b7 e3be cc4b 973e ec63 1c3e a147 05bf
000000e0: 3777 efbe 9c34 953e e359 043f 3260 47be
000000f0: 9cca e6be d7bd 5dbe 0e60 7bbe 3c5d f2be
00000100: 1ce5 fd3e ce6d 233f 98ee 17be 258e 1bbf
00000110: 37a0 1a3e e97e bb3e a7c5 1d3f 97b0 c03e
00000120: 6a63 9c3e aa0e 2fbe a296 8fbe dfd6 a43d
00000130: 88f1 3e3e e0c0 24bf 1d61 31bf a76a 06be
00000140: b2a0 7ebe 058d 1fbf a7ea a03e ab36 9dbe
00000150: 12c7 bebd c7be 8c3e 67de 053f 717d 6e3e
00000160: 7709 903e 60e4 25bf bcf4 c33e 2ca5 653e
00000170: 8aae 80be 3fde 51be 265f e1be a57b bdbe
00000180: b128 263f 52cf f3be 127b edbe d2de 893e
00000190: 5d8c 0b3f 270e 97bd 7fec 7e3e 8a7a fcbe
000001a0: d2ae 123f ab72 273e 4f95 7e3e 9053 41bf
000001b0: e9f1 fc3e 36d4 6fbe bf72 803e 1f0c 4b3e
000001c0: a206 7c3e 84d0 653e b920 2abf 880e 153f
000001d0: d5d7 063d 2f65 80be d0b8 15be 245d 42be
000001e0: 4d42 e93e 9499 f3be 34e8 f43e e196 21be
000001f0: b1ca 9c3e 4b17 2cbe 9591 ea3e 434f 1b3f

a2c_network.actor_mlp.2.weight f4 [128, 128]
-0.032250892 -0.022898871 0.022818925 -0.09354358 -0.06641139 0.022778392 -0.008512798 0.06835795
0.02710867 0.009516377 0.028558763 -0.072850615 -0.09513391 -0.019884534 -0.046203516 -0.010172882
0.068983525 0.11107954 0.1773905 -0.023500387 -0.014222114 -0.0117135 -0.08049393 -0.020920696
-0.03621973 0.08762045 0.08663787 -0.05492658 0.015662953 -0.040185872 -0.027111374 0.020265829
-0.021303985 0.06377243 0.056243457 -0.029651418 -0.00854783 -0.0688965 -0.07455067 -0.009317569
-0.05226435 0.06002962 -0.06822407 -0.076653846 -0.09903475 -0.10613549 -0.10488392 0.013833317
0.100883916 0.04793235 0.0051333923 -0.0031142058 0.016601646 0.050345797 0.005375192 0.06594298
0.04462051 -0.07148533 0.039322276 0.009866432 0.039088592 -0.106827594 -0.0066011506 0.02968743
-0.13264926 0.08206414 -0.048229504 -0.01398752 0.051112648 0.06592258 -0.079337314 0.05150419
-0.015952215 0.041844398 0.013356225 0.08696458 -0.025365343 -0.052500706 0.030487897 -0.04769267
0.042242862 -0.008603219 0.088360496 -0.009619145 -0.07518592 -0.00635607 0.0080750575 -0.059914175
0.048430413 0.019238979 0.09271952 -0.12102433 0.048120115 0.08067614 -0.029367762 -0.045581605
-0.045179904 0.039878596 -0.11040669 -0.015970092 -0.048498284 0.00984598 0.0085151745 0.044865962
-0.020700363 -0.014907188 0.01979538 -0.042682953 -0.017645847 -0.060398333 0.07341353 -0.10957196
-0.039595257 -0.08239209 -0.021571716 -0.04994286 -0.031431004 -0.033329878 0.047973946 -0.07428394
-0.054992978 -0.084558 0.081839964 -0.034490224 -0.05551208 0.0819604 0.070857495 0.053609297
-0.085765 0.0028322411 -0.028282128 0.024730137 0.030709408 -0.03466935 -0.027686719 0.009911263
-0.043382034 0.05550054 0.043671206 0.06468781 -0.009847922 -0.0815434 0.061022688 -0.06502359
-0.03383107 0.011127196 0.09737791 0.09566504 0.040848345 0.048291486 -0.09512569 0.0046395143
-0.10687177 -0.10555717 -0.1027911 -0.039131686 0.054279674 0.07076447 -0.03161695 -0.010511397
0.017833488 -0.0015951954 -0.010020078 -0.04066922 -0.052498728 0.023249231 0.12753193 -0.041574977
0.03265802 0.04764211 0.049144514 -0.02948206 -0.059009023 -0.004839563 0.056791935 0.08091386
-0.04638912 0.04513073 0.047182392 -0.057353463 0.005414822 -0.06947882 0.07932482 -0.02851534
0.049584948 0.018939244 -0.056414776 -0.037923705 -0.01492605 0.015180456 0.08556503 -0.07310035
0.015020648 -0.015167891 -0.036591608 0.061217 -0.021827864 -0.014962367 0.04236542 -0.01716273
0.053826228 -0.016768795 -0.06266103 0.07233308 0.02519818 -0.005244564 -0.06780022 -0.036638856
0.0663006 0.032968592 -0.0013661017 0.051037923 -0.024188885 -0.07253175 0.09055218 0.063034356
-0.029392306 0.035688754 0.07519515 -0.018751556 0.083176434 -0.020620825 0.029108414 0.09356337
-0.006968955 -0.048611186 -0.080929786 -0.04898459 -0.09926573 -0.030503046 -0.032155033 0.07937479
0.07325952 0.030852944 0.053014718 -0.09731399 -0.08888688 0.03867388 0.038387187 -0.0014136969
-0.028753111 -0.037533477 -0.05818049 -0.12821846 0.04054298 -0.028556403 -0.03911 0.02073803
-0.0069462275 -0.027506705 0.013451819 0.019655349 -0.12427032 -0.07714507 -0.009234079 -0.092163086
00000000: 8319 04bd 6a96 bbbc c1ee ba3c c793 bfbd
00000010: b202 88bd c099 ba3c 4379 0bbc 41ff 8b3d
00000020: 0013 de3c 94ea 1b3c 11f4 e93c b432 95bd
00000030: 91d5 c2bd e4e4 a2bc e63f 3dbd 29ac 26bc
00000040: 3c47 8d3d ab7d e33d dba5 353e e283 c0bc
00000050: df03 69bc fbe9 3fbc 00da a4bd e161 abbc
00000060: 245b 14bd 5a72 b33d 326f b13d b2fa 60bd
00000070: 984f 803c f199 24bd ac18 debc 8604 a63c
00000080: b285 aebc 1f9b 823d 8a5f 663d 88e7 f2bc
00000090: 330c 0cbc 9c19 8dbd 06ae 98bd b8a8 18bc
000000a0: 2513 56bd 9ee1 753d 10b9 8bbd b1fc 9cbd
000000b0: bbd2 cabd 905d d9bd 61cd d6bd 23a5 623c
000000c0: 3a9c ce3d b654 443d 0436 a83b b417 4cbb
000000d0: 2d00 883c 6537 4e3d 6122 b03b 1d0d 873d
000000e0: ffc3 363d e766 92bd 6510 213d d1a6 213c
000000f0: 5c1b 203d 6dc8 dabd 774e d8bb 0e33 f33c
00000100: 35d5 07be 3e11 a83d 4d8c 45bd e92b 65bc
00000110: 7f5b 513d 6b02 873d 9a7b a2bd 0ff6 523d
00000120: 38ae 82bc 0865 2b3d 11d4 5a3c 7c1a b23d
00000130: fbca cfbc fb0a 57bd c1c1 f93c 6459 43bd
00000140: da06 2d3d 84f4 0cbc 59f6 b43d 9e99 1dbc
00000150: 13fb 99bd 9446 d0bb 3f4d 043c 9168 75bd
00000160: f85e 463d 109b 9d3c bbe3 bd3d 9bdb f7bd
00000170: 9919 453d 8839 a53d a994 f0bc c7b3 3abd
00000180: 900e 39bd bd57 233d e71c e2bd b6d3 82bc
00000190: 23a6 46bd 0951 213c 3b83 0b3c 5fc5 373d
000001a0: cf93 a9bc 473d 74bc ec29 a23c 52d4 2ebd
000001b0: 068e 90bc 3e64 77bd d559 963d 4467 e0bd
000001c0: a32e 22bd 2fbd a8bd 2bb7 b0bc e290 4cbd
000001d0: ccbd 00bd e984 08bd 5480 443d 2e22 98bd
000001e0: 5140 61bd bf2c adbd b69b a73d 9f45 0dbd
000001f0: a360 63bd dbda a73d bc1d 913d 6c95 5b3d
00000200: 8fa5 afbd 1f9d 393b ecaf e7bc db96 ca3c
00000210: 4c92 fb3c 7301 0ebd 42cf e2bc da62 223c
00000220: 5cb1 31bd 8954 633d 94e0 323d 0b7b 843d
00000230: 2e59 21bc 3a00 a7bd edf2 793d 172b 85bd
00000240: 7392 0abd d84e 363c 126e c73d 08ec c33d
00000250: 9850 273d 4bcd 453d 42d1 c2bd 1107 983b
00000260: 96df dabd 5c2e d8bd 2484 d2bd 8c48 20bd
00000270: 5d54 5e3d f6ec 903d c680 01bd ff37 2cbc
00000280: 8917 923c e015 d1ba 412b 24bc c594 26bd
00000290: e808 57bd 2c75 be3c bb97 023e 864a 2abd
000002a0: 6ac4 053d 6024 433d c24b 493d 5c84 f1bc
000002b0: 72b3 71bd 3295 9ebb a99e 683d 2ab6 a53d
000002c0: 8502 3ebd 00db 383d 5342 413d 77eb 6abd
000002d0: d26e b13b e94a 8ebd 0d75 a23d 0199 e9bc
000002e0: 9619 4b3d 7926 9b3c 2e13 67bd e355 1bbd
000002f0: 648c 74bc 73b7 783c b83c af3d a3b5 95bd
00000300: 2a19 763c bf82 78bc 15e1 15bd adbe 7a3d
00000310: 59d0 b2bc b724 75bc 5d87 2d3d db98 8cbc
00000320: e478 5c3d b65e 89bc 6d54 80bd 5e23 943d
00000330: 6a6c ce3c 97da abbb d7da 8abd a012 16bd
00000340: 9cc8 873d 130a 073d c40e b3ba 240d 513d
00000350: c527 c6bc 878b 94bd 6c73 b93d 2818 813d
00000360: 22c8 f0bc 5f2e 123d eaff 993d dd9c 99bc
00000370: 6858 aa3d 01ed a8bc c574 ee3c 279e bf3d
00000380: d55b e4bb 861c 47bd 84be a5bd 11a4 48bd
00000390: d54b cbbd 86e1 f9bc ffb4 03bd 408f a23d
000003a0: 1609 963d 50bf fc3c f625 593d 8f4c c7bd
000003b0: 530a b6bd 8168 1e3d e23b 1d3d cc4b b9ba
000003c0: a58b ebbc b4bc 19bd aa4e 6ebd b34b 03be
000003d0: 6510 263d 1eef e9bc cf31 20bd cde2 a93c
000003e0: 2e9d e3bb be55 e1bc 0565 5c3c 4104 a13c
000003f0: 7081 febd 3cfe 9dbd 894a 17bc 00c0 bcbd

a2c_network.actor_mlp.2.bias f4 [128]
0.120070614 0.11973928 0.124142654 -0.07361433 0.2797835 -0.11628859 -0.070070125 0.300983
0.44886762 0.1719093 -0.14368844 -0.1024041 0.46225455 0.30759692 -0.18992195 0.112367995
0.09638756 0.33442497 0.06982772 -0.07861683 0.0467298 0.12904839 0.03946974 0.15371084
-0.0017514138 -0.027789405 -0.09868637 -0.42106843 0.13423963 0.0093450975 0.24166155 0.38360032
0.13783005 -0.019647092 -0.5301336 0.060540788 -0.33521515 -0.11183855 -0.11266166 0.07517716
-0.23165333 -0.03621489 0.4735502 0.08509933 -0.5967087 -0.10034961 0.11680517 -0.071929395
-0.7363961 -0.23909684 0.0727 -0.30193695 0.0073923683 -0.056646798 0.005092326 -0.053661928
-0.037565563 -0.51619226 -0.12858245 0.07304962 0.067647815 -0.12512597 0.0076466696 -0.0014667532
0.12183488 0.147122 -0.110278316 0.055987965 0.095113546 0.13213405 0.5851081 0.019528097
0.07841429 0.12074701 -0.022323363 -0.094675004 0.13867278 0.7054169 -0.18586907 0.086813055
0.111394286 -0.002226186 -0.26290357 0.3074925 -0.048058093 -0.55080074 0.12976958 0.11059123
-0.42976752 0.11463202 -0.014128029 0.023762612 -0.044850014 0.6565338 0.35126075 -0.2642892
0.1750554 0.018443543 -0.067419834 -0.5025311 -0.14282303 -0.5007701 -0.07330651 -0.35003546
0.006704663 -0.10882251 0.0009938892 0.012058884 -0.5447776 -0.06148443 0.5612134 0.15904802
-2.4620744e-05 -0.116398 0.06786295 -0.0028233202 -0.07287713 -0.09536365 0.057783186 -0.06597764
0.075957 -0.13698444 0.1344397 -0.13560441 0.0731929 -0.21826535 -0.21081902 0.14905861
00000000: 95e7 f53d de39 f53d 813e fe3d 1cc3 96bd
00000010: c83f 8f3e b628 eebd ed80 8fbd 721a 9a3e
00000020: fad1 e53e fe08 303e 1023 13be 3eb9 d1bd
00000030: a1ac ec3e 587d 9d3e e67a 42be 3121 e63d
00000040: d766 c53d c039 ab3e d601 8f3d dc01 a1bd
00000050: bf67 3f3d 4325 043e 06ab 213d 6066 1d3e
00000060: b28f e5ba 9ba6 e3bc 141c cabd 4896 d7be
00000070: 1d76 093e 2e1c 193c 2076 773e 4367 c43e
00000080: 5223 0d3e f0f2 a0bc d6b6 07bf 9ef9 773d
00000090: 52a1 abbe 9c0b e5bd 28bb e6bd 7cf6 993d
000000a0: 8836 6dbe 1156 14bd 2c75 f23e 8f48 ae3d
000000b0: e7c1 18bf 1984 cdbd 8d37 ef3d b84f 93bd
000000c0: 7484 3cbf cdd5 74be bde3 943d 7b97 9abe
000000d0: ae3b f23b 7906 68bd 87dd a63b 9ccc 5bbd
000000e0: 59de 19bd 2d25 04bf 1eab 03be 0a9b 953d
000000f0: f08a 8a3d 0621 00be ea90 fa3b 1240 c0ba
00000100: 9184 f93d 26a7 163e 99d9 e1bd a353 653d
00000110: e4ca c23d 264e 073e a5c9 153f 63f9 9f3c
00000120: ac97 a03d 354a f73d 7cdf b6bc f8e4 c1bd
00000130: 3d00 0e3e 3496 343f 7654 3ebe 0bcb b13d
00000140: b022 e43d 34e5 11bb 4c9b 86be a86f 9d3e
00000150: 90d8 44bd 4701 0dbf 51e2 043e a87d e23d
00000160: 7d0a dcbe 31c4 ea3d 4079 67bc cfa9 c23c
00000170: a6b4 37bd 9912 283f 73d8 b33e ea50 87be
00000180: b941 333e ea16 973c 6913 8abd e1a5 00bf
00000190: 3340 12be 7832 00bf b921 96bd d937 b3be
000001a0: cab2 db3b 56de debd 6345 823a a092 453c
000001b0: 8b76 0bbf 19d7 7bbd aeab 0f3f 7cdd 223e
000001c0: a588 ceb7 1362 eebd bbfb 8a3d 7407 39bb
000001d0: 9b40 95bd 044e c3bd 10ae 6c3d 491f 87bd
000001e0: 588f 9b3d a645 0cbe 90aa 093e e2db 0abe
000001f0: 29e6 953d f480 5fbe f1e0 57be d2a2 183e

a2c_network.value.weight f4 [1, 128]
-0.0065618195 -0.00949882 -0.04156678 -0.021715462 -0.013793778 -0.009702593 0.009683943 0.030819356
-0.006435367 0.2131708 -0.007090586 -0.007064355 0.08031331 0.07238028 0.004447135 -0.0106703825
0.0048500546 0.019148747 0.0015610985 0.004901883 -0.008844855 0.00889427 0.030414535 -0.0026780332
6.359963e-05 8.377056e-05 0.11955474 -0.24941535 -0.025729606 0.0049894694 0.052315537 -0.2652452
0.017254349 0.0016356327 0.060452238 -0.13726234 0.008878327 0.00035486935 -0.0083567165 -0.009017792
0.013096872 0.0076078516 0.008254528 0.015670871 0.009276986 0.011558893 -0.0011459655 -0.008902826
0.20311679 -0.5025462 0.022900093 0.035780095 -0.3819763 0.006419066 0.022832194 0.0037162197
-0.35261178 0.009091428 0.008219411 -0.008060166 0.0106170485 -0.0022675842 0.0051323324 -0.008329391
0.002253246 0.02863478 0.003405441 0.015234197 -0.003508939 0.014636614 0.034987662 -0.01036083
0.12631123 -0.09035023 0.006848614 0.33660033 -0.004716764 0.02925456 -0.07427604 -0.008214804
-0.014712361 0.0045609055 0.13993162 -0.097021945 0.00028078665 0.0018969001 -0.0009543292 -0.008105794
-0.05145473 -0.0048224386 0.0048196954 -0.02013543 -0.05069533 -0.010416351 0.066075586 0.030982805
0.017492604 0.0012546459 0.016585393 0.17094013 0.0041958047 -0.03615822 -0.0008119996 -0.0062869494
-0.01841853 -0.0072131674 -0.0017184203 0.0011035012 0.05188402 -0.007829494 -0.0076900204 0.028127404
-0.01577942 0.018296188 0.0066851764 -0.008553989 -0.011339341 0.054336656 -0.0059829564 -0.01843158
-0.005440606 0.008077151 -0.0049059526 -0.058143873 -0.0017896187 -0.07107693 -0.022647897 0.0028046495
00000000: 8804 d7bb f0a0 1bbc ee41 2abd a0e4 b1bc
00000010: 4cff 61bc a0f7 1ebc 67a9 1e3c e078 fc3c
00000020: c5df d2bb 7249 5a3e 2558 e8bb 1b7c e7bb
00000030: 4e7b a43d 1d3c 943d 46b9 913b d4d2 2ebc
00000040: 35ed 9e3b d5dd 9c3c c69d cc3a fa9f a03b
00000050: 03ea 10bc 46b9 113c e727 f93c f181 2fbb
00000060: cb60 8538 faad af38 1ed9 f43d bd66 7fbe
00000070: e5c6 d2bc b47e a33b d148 563d 38ce 87be
00000080: fe58 8d3c ba62 d63a c49c 773d 808e 0cbe
00000090: 6776 113c c20d ba39 9cea 08bc 5cbf 13bc
000000a0: 4394 563c 494b f93b 003e 073c 3360 803c
000000b0: 80fe 173c 8361 3d3c 3934 96ba 29dd 11bc
000000c0: d9fd 4f3e dea6 00bf fa98 bb3c 268e 123d
000000d0: 6692 c3be 0757 d23b 950a bb3c d28b 733b
000000e0: 8889 b4be 36f4 143c b5aa 063c c90e 04bc
000000f0: 21f3 2d3c c09b 14bb 202d a83b ff77 08bc
00000100: 32ab 133b 7c93 ea3c d22d 5f3b da98 793c
00000110: 3af6 65bb 69ce 6f3c 394f 0f3d 79c0 29bc
00000120: bb57 013e 8b09 b9bd 576a e03b e156 ac3e
00000130: 168f 9abb 42a7 ef3c 091e 98bd 6397 06bc
00000140: 1d0c 71bc a673 953b 3c4a 0f3e 71b3 c6bd
00000150: 8c36 9339 68a1 f83a f32b 7aba 2ace 04bc
00000160: 32c2 52bd 8c05 9ebb 89ee 9d3b 0ff3 a4bc
00000170: e8a5 4fbd 58a9 2abc a352 873d a7cf fd3c
00000180: a64c 8f3c ee72 a43a 17de 873c ee0a 2f3e
00000190: f67c 893b a41a 14bd 5fdc 54ba c102 cebb
000001a0: 75e2 96bc 6f5c ecbb 9e3c e1ba 5ba3 903a
000001b0: 5784 543d 4747 00bc 91fc fbbb 716b e63c
000001c0: d843 81bc e3e1 953c 530f db3b 0826 0cbc
000001d0: a5c8 39bc 1d90 5e3d ad0c c4bb d3fd 96bc
000001e0: 1c47 b2bb 0756 043c 1dc2 a0bb 4528 6ebd
000001f0: a491 eaba c890 91bd 1588 b9bc 36ce 373b

a2c_network.mu.weight f4 [2, 128]
0.005081069 -0.0008520879 -0.0021467756 0.0015117773 -0.038483776 0.00042543496 0.00078968215 -0.029581772
0.22587666 0.012352389 0.0012782591 -0.00095188175 -0.074900426 -0.04444431 0.00332155 -0.00012943232
-0.004503253 -0.33437887 0.0005823383 0.00065596064 -0.0037094355 -0.00043562104 -0.0008492647 -0.00058635726
-0.00067801855 -0.0024819758 0.006716059 -0.111098684 -0.0011461324 0.0018487088 -0.011518134 0.01123548
0.051465496 0.001195643 0.31011143 0.09688943 -0.019171793 0.0009844856 -0.0005414228 -0.003977874
0.029531838 0.07077546 0.318566 -0.0037986345 -0.14799339 0.0015425244 -0.0023829143 0.00055154733
-0.14849027 0.034666162 -0.0004138205 -0.032042325 -0.00063443603 0.0018449676 -0.034341518 0.0012140262
0.037095204 -0.017943963 -7.059524e-05 -0.0040075528 0.0029450026 -0.0005314584 -0.00045754196 -0.0006203294
0.0009193966 0.107943624 -0.003143584 -0.09068585 0.0009379598 -0.035433367 0.42994913 0.0020506177
-0.008548049 0.019945635 0.001846164 -0.03101696 -0.0060316203 0.14289264 -0.13148461 -0.0013689537
-0.00073738716 0.0019536782 0.022073742 0.06822274 -0.0049984343 -0.037212107 -0.0037373176 -0.09579425
0.015206751 -0.0047188625 -0.0034077403 0.10245922 -0.00033102118 -0.2850245 0.2195322 0.006367926
-0.058953747 0.0043083117 0.0006759287 -0.09784352 0.001298369 -0.34783885 0.0036309494 -0.02484497
-0.0027503984 -0.0018116792 0.0015898388 0.0014831156 -0.41579652 -0.0048092674 0.18857084 0.399658
-0.0027247304 -0.04976291 0.004801472 0.16712233 -0.00077748264 0.07188948 0.0006320936 -0.0005953039
-0.0032830387 0.0009804219 -0.00097348326 0.1257487 -0.001832015 -0.011939913 0.021901423 0.00304688
-8.753936e-05 -0.0013350991 0.0011431475 0.0008252718 0.1407005 -0.00018436366 -0.00017986988 -0.14481507
0.1033839 -0.008107143 0.00021562524 0.0015645182 0.09972837 0.051169563 0.00025635524 0.0013421922
-0.0015540496 0.05348882 -0.0002461012 -0.00094013417 -0.0010247694 -0.004617112 -0.0038156183 0.00012600773
0.000111481284 -0.00055156293 -0.07858415 0.038136642 -0.0007559008 0.00021327386 -0.0094150305 0.0005105098
0.053801544 -0.00016591945 -0.038589176 -0.021982776 0.060823176 0.0007024824 0.0024808778 0.0031346753
0.101812005 -0.07298445 -0.03700875 -0.0009431868 -0.024221031 -0.000498262 0.00012163715 0.00019406418
0.04822839 0.0022843822 -0.0029558109 0.070911355 -0.014976991 0.0018073835 -0.22541821 -0.0010357805
-0.00275263 -0.11967701 0.0029642151 -0.0023816684 0.0031740093 0.0012489414 -0.00069129636 -0.00032945833
0.09512451 -0.108897254 0.00067179074 -0.011179483 0.001661911 -0.29141495 0.086827934 0.0003374386
-0.00038610393 -0.16535807 0.0015666118 -0.0061166966 -0.00045076126 -0.043484118 0.182775 -0.0011561576
-0.0009904787 0.0021524408 0.07698177 0.15205239 -0.0020247884 -0.09268496 -0.0011342823 -0.07532762
-0.04641306 -0.0015001219 -0.002206005 -0.01969025 0.00014503933 -0.079732664 0.23127306 -0.05199214
0.15843499 0.0014658268 0.00029132984 -0.105031654 0.0011968246 0.0026901234 0.0008855029 -0.16229878
0.0008210574 -0.0007274283 0.0014237702 0.0011822822 -0.03431027 0.00194025 -0.054685425 0.08303408
0.001301868 -0.11088183 0.0016140998 0.08144052 0.0008394225 0.057967182 -0.0007271791 0.0016520307
-0.0010625607 0.0018974167 -0.0003313131 -0.14268157 0.00130404 -0.041403122 0.086262465 0.0010419704
00000000: 197f a63b a75e 5fba ebb0 0cbb d426 c63a
00000010: 2aa1 1dbd ea0c df39 ac02 4f3a 7955 f2bc
00000020: 364c 673e ad61 4a3c 428b a73a b487 79ba
00000030: 6565 99bd 3d0b 36bd 5dae 593b 39b8 07b9
00000040: 0690 93bb b533 abbe 10a8 183a c6f4 2b3a
00000050: 001a 73bb 1164 e4b9 30a1 5eba c5b5 19ba
00000060: 0ebd 31ba a5a8 22bb 6312 dc3b b587 e3bd
00000070: d239 96ba 6050 f23a 8eb6 3cbc 0515 383c
00000080: 7ccd 523d 1fb7 9c3a edc6 9e3e f76d c63d
00000090: 2a0e 9dbc db09 813a 45ee 0dba d358 82bb
000000a0: c1ec f13c b9f2 903d 151b a33e 83f2 78bb
000000b0: 948b 17be 882e ca3a ab2a 1cbb b795 103a
000000c0: d50d 18be 1bfe 0d3d 0cf6 d8b9 d03e 03bd
000000d0: 4850 26ba d7d2 f13a b1a9 0cbd f61f 9f3a
000000e0: 24f1 173d 38ff 92bc 880c 94b8 ca51 83bb
000000f0: f200 413b 9251 0bba 3ee2 efb9 9a9d 22ba
00000100: a903 713a 8c11 dd3d 9604 4ebb 81b9 b9bd
00000110: 6be1 753a 9422 11bd 4b22 dc3e a863 063b
00000120: 1e0d 0cbc 0765 a33c fcfa f13a 4817 febc
00000130: e6a4 c5bb 7352 123e e7a3 06be 776e b3ba
00000140: 374d 41ba 4809 003b fed3 b43c 5db8 8b3d
00000150: e8c9 a3bb b96b 18bd c9ed 74bb c72f c4bd
00000160: bd25 793c b0a0 9abb 6554 5fbb 24d6 d13d
00000170: e98c adb9 bbee 91be 0dcd 603e 09aa d03b
00000180: 7c79 71bd bd2c 8d3b cf30 313a 2f62 c8bd
00000190: 092e aa3a ef17 b2be 39f5 6d3b ae87 cbbc
000001a0: 0740 34bb de75 edba 2362 d03a 1a65 c23a
000001b0: 48e3 d4be 0f97 9dbb b718 413e f99f cc3e
000001c0: 6491 32bb 31d4 4bbd ab55 9d3b 1e22 2b3e
000001d0: facf 4bba cb3a 933d 15b3 253a 2b0e 1cba
000001e0: 4028 57bb 8081 803a 5b31 7fba 44c4 003e
000001f0: 3920 f0ba a09f 43bc 9d6a b33c 2aae 473b
00000200: 5695 b7b8 7efe aeba aad5 953a 0e57 583a
00000210: cb13 103e be51 41b9 749b 3cb9 674a 14be
00000220: f0ba d33d d3d3 04bc 7619 6239 8510 cd3a
00000230: 633e cc3d 2d97 513d 6b67 8639 7fec af3a
00000240: 40b1 cbba 1817 5b3d 2507 81b9 5673 76ba
00000250: 8e51 86ba 254b 97bb 740f 7abb f120 0439
00000260: 0fcb e938 c396 10ba baf0 a0bd 2b35 1c3d
00000270: a527 46ba 44a2 5f39 8041 1abc bcd3 053a
00000280: 025f 5c3d aafa 2db9 af0f 1ebd 3915 b4bc
00000290: b921 793d cc26 383a 3996 223b 206f 4d3b
000002a0: d082 d03d df78 95bd 7d96 17bd 3240 77ba
000002b0: 2f6b c6bc cc9d 02ba 7317 ff38 b57d 4b39
000002c0: 228b 453d 93b5 153b 47b6 41bb f939 913d
000002d0: 0e62 75bc bae5 ec3a 08d4 66be 07c3 87ba
000002e0: 7865 34bb 3819 f5bd 4743 423b c415 1cbb
000002f0: 0a03 503b 85b3 a33a 1d38 35ba 26bb acb9
00000300: a4d0 c23d 8605 dfbd 1d1b 303a 262a 37bc
00000310: 7bd4 d93a 5734 95be d8d2 b13d 3eea b039
00000320: fe6d cab9 a053 29be c556 cd3a 926e c8bb
00000330: 2754 ecb9 671c 32bd 5f29 3b3e 368a 97ba
00000340: f3d2 81ba f70f 0d3b 9ea8 9d3d 9fb3 1b3e
00000350: 50b2 04bb 9dd1 bdbd 33ac 94ba 5e45 9abd
00000360: 9f1b 3ebd bd9f c4ba 9f92 10bb 724d a1bc
00000370: b315 1839 e14a a3bd d8d2 6c3e b6f5 54bd
00000380: c83c 223e fc20 c03a a1bd 9839 d61a d7bd
00000390: c5de 9c3a c84c 303b 1821 683a a731 26be
000003a0: 3b3c 573a e3b0 3eba cd9d ba3a cff6 9a3a
000003b0: ed88 0cbd fd4f fe3a d3fd 5fbd c60d aa3d
000003c0: 71a3 aa3a 0316 e3bd 3490 d33a 4aca a63d
000003d0: b10c 5c3a ff6e 6d3d 2aa0 3eba f488 d83a
000003e0: 9f45 8bba bdb2 f83a 17b4 adb9 1e1b 12be
000003f0: 52ec aa3a 5296 29bd 60aa b03d ba92 883a

a2c_network.mu.bias f4 [2]
0.14607583 0.08624963
00000000: e794 153e a5a3 b03d

exp_avg f4 [2]
-0.0022474565 -0.0020815723
00000000: 104a 13bb fd6a 08bb

exp_avg_sq f4 [2]
3.2440363e-05 3.8822443e-05
00000000: 9310 0838 48d5 2238

exp_avg f4 [128, 11]
-0.00032088312 -0.00013811287 -0.00038637652 -5.530199e-05 -0.00069235516 0.00029960726 0.0 0.0
0.0 0.0 0.0 -0.0008081955 -0.00043197913 -0.00037541194 -0.00049991044 -0.0010124968
0.00078726205 0.0 0.0 0.0 0.0 0.0 -0.0006504232 -0.0006381394
0.00022360939 -0.00044921954 -0.00071392074 0.0007555945 0.0 0.0 0.0 0.0
0.0 0.000594293 0.0012434579 0.00012853697 0.0004886605 0.00096424355 -0.0007674903 0.0
0.0 0.0 0.0 0.0 0.00022689202 1.5493013e-05 9.070252e-05 0.00015365622
-0.00010212467 0.00018574232 0.0 0.0 0.0 0.0 0.0 -0.0005146447
-0.0002347216 -0.0005133666 -0.0004869243 -0.00081091566 0.0008322493 0.0 0.0 0.0
0.0 0.0 -4.071907e-06 2.6092324e-05 9.70795e-05 0.0003389866 0.00018229894 -0.000278876
0.0 0.0 0.0 0.0 0.0 -0.0016050898 -0.00048727298 -0.00051577325
-0.0009342185 -0.0011570028 0.0011737958 0.0 0.0 0.0 0.0 0.0
0.0008452394 0.00105279 1.1774835e-05 -0.00030827615 0.0018085783 -0.0009145202 0.0 0.0
0.0 0.0 0.0 -0.0011761753 -0.00091771537 -8.140224e-05 -0.00066568446 -0.00096396485
0.0009446762 0.0 0.0 0.0 0.0 0.0 -0.00046551897 -0.0006847413
-0.00031313166 -0.0005677218 -0.0013679616 0.000794989 0.0 0.0 0.0 0.0
0.0 -4.5240755e-05 -0.00027095302 -3.7537175e-05 -2.3620028e-06 5.268645e-07 -9.662494e-05 0.0
0.0 0.0 0.0 0.0 -0.0014676289 -0.0017075656 0.0003121744 -0.00044435158
-0.0018336808 0.002255124 0.0 0.0 0.0 0.0 0.0 0.000980699
0.0009110125 0.00033517124 0.00048581575 0.0013771238 -0.0013175218 0.0 0.0 0.0
0.0 0.0 0.00045775308 0.00017941225 5.160509e-05 0.00019377403 0.000104526815 -6.512639e-05
0.0 0.0 0.0 0.0 0.0 -0.00085271575 -0.00015484098 0.00044456567
-0.00023698117 -2.499842e-05 0.00035052656 0.0 0.0 0.0 0.0 0.0
-0.0008444524 -0.00010733665 1.8616698e-05 -0.0006342488 -0.00031134687 0.0005804693 0.0 0.0
0.0 0.0 0.0 -0.00047665424 -0.00058421545 0.00010357968 -0.00016579639 -0.0009114836
0.0014500138 0.0 0.0 0.0 0.0 0.0 0.00089398003 0.00075687876
-0.0006280547 0.00019095028 0.00047570228 -0.0011249819 0.0 0.0 0.0 0.0
0.0 -0.0015025501 -0.00097572705 -9.550656e-05 -0.00048056684 -0.001787408 0.0011500292 0.0
0.0 0.0 0.0 0.0 -0.00055479654 -0.00044508607 0.00014663921 9.0739486e-05
-0.0005141555 0.00023307354 0.0 0.0 0.0 0.0 0.0 0.000544788
0.0005730017 -0.000224371 0.00012983533 0.00056773756 -0.00058686093 0.0 0.0 0.0
0.0 0.0 -0.0006625371 -0.0004585199 3.0988453e-05 -0.00034921415 -0.00039031886 0.00023519671
0.0 0.0 0.0 0.0 0.0 -0.00050782977 -0.0006664127 0.00032317097
00000000: 343c a8b9 64d2 10b9 9492 cab9 0ff4 67b8
00000010: 2b7f 35ba 9b14 9d39 0000 0000 0000 0000
00000020: 0000 0000 0000 0000 0000 0000 15dd 53ba
00000030: 427b e2b9 f0d2 c4b9 6c0c 03ba c1b5 84ba
00000040: 4360 4e3a 0000 0000 0000 0000 0000 0000
00000050: 0000 0000 0000 0000 2981 2aba cf48 27ba
00000060: b078 6a39 3a85 ebb9 6926 3bba 1713 463a
00000070: 0000 0000 0000 0000 0000 0000 0000 0000
00000080: 0000 0000 54ca 1b3a 86fb a23a e1c7 0639
00000090: 7319 003a 4ac5 7c3a 6731 49ba 0000 0000
000000a0: 0000 0000 0000 0000 0000 0000 0000 0000
000000b0: dde9 6d39 fef6 8137 8b37 be38 c71e 2139
000000c0: c42b d6b8 d3c3 4239 0000 0000 0000 0000
000000d0: 0000 0000 0000 0000 0000 0000 39e9 06ba
000000e0: 9a1f 76b9 7393 06ba e049 ffb9 a193 54ba
000000f0: 4e2b 5a3a 0000 0000 0000 0000 0000 0000
00000100: 0000 0000 0000 0000 6aa1 88b6 d7e0 da37
00000110: 2997 cb38 03ba b139 8027 3f39 1a36 92b9
00000120: 0000 0000 0000 0000 0000 0000 0000 0000
00000130: 0000 0000 e061 d2ba ac78 ffb9 f534 07ba
00000140: 58e6 74ba 92a6 97ba 0dda 993a 0000 0000
00000150: 0000 0000 0000 0000 0000 0000 0000 0000
00000160: 0e93 5d3a c5fd 893a 888c 4537 20a0 a1b9
00000170: d10d ed3a 69bc 6fba 0000 0000 0000 0000
00000180: 0000 0000 0000 0000 0000 0000 e529 9aba
00000190: d692 70ba 7fb6 aab8 5481 2eba 96b2 7cba
000001a0: 26a4 773a 0000 0000 0000 0000 0000 0000
000001b0: 0000 0000 0000 0000 e610 f4b9 3680 33ba
000001c0: d22b a4b9 2ad3 14ba 2d4d b3ba cf66 503a
000001d0: 0000 0000 0000 0000 0000 0000 0000 0000
000001e0: 0000 0000 e4c0 3db8 b30e 8eb9 3c71 1db8
000001f0: e682 1eb6 da6d 0d35 1fa3 cab8 0000 0000
00000200: 0000 0000 0000 0000 0000 0000 0000 0000
00000210: 745d c0ba 65d0 dfba 57ab a339 dcf7 e8b9
00000220: 1e58 f0ba b4ca 133b 0000 0000 0000 0000
00000230: 0000 0000 0000 0000 0000 0000 cc8a 803a
00000240: 04d1 6e3a ecb9 af39 16b5 fe39 9b80 b43a
00000250: b2b0 acba 0000 0000 0000 0000 0000 0000
00000260: 0000 0000 0000 0000 94fe ef39 9c20 3c39
00000270: 8b72 5838 d22f 4b39 6835 db38 7794 88b8
00000280: 0000 0000 0000 0000 0000 0000 0000 0000
00000290: 0000 0000 c988 5fba cf5c 22b9 9814 e939
000002a0: 267e 78b9 b3b3 d1b7 e1c6 b739 0000 0000
000002b0: 0000 0000 0000 0000 0000 0000 0000 0000
000002c0: 3e5e 5dba ed19 e1b8 0e2b 9c37 b743 26ba
000002d0: 453c a3b9 a32a 183a 0000 0000 0000 0000
000002e0: 0000 0000 0000 0000 0000 0000 73e7 f9b9
000002f0: 0926 19ba eb38 d938 a1d9 2db9 a1f0 6eba
00000300: 640e be3a 0000 0000 0000 0000 0000 0000
00000310: 0000 0000 0000 0000 fc59 6a3a 4669 463a
00000320: 0aa4 24ba d339 4839 ae67 f939 2174 93ba
00000330: 0000 0000 0000 0000 0000 0000 0000 0000
00000340: 0000 0000 37f1 c4ba efc7 7fba b24a c8b8
00000350: 97f4 fbb9 7647 eaba 94bc 963a 0000 0000
00000360: 0000 0000 0000 0000 0000 0000 0000 0000
00000370: c46f 11ba 715a e9b9 2ac3 1939 644b be38
00000380: 64c8 06ba 3465 7439 0000 0000 0000 0000
00000390: 0000 0000 0000 0000 0000 0000 1bd0 0e3a
000003a0: 7e35 163a 2245 6bb9 6824 0839 39d4 143a
000003b0: 92d7 19ba 0000 0000 0000 0000 0000 0000
000003c0: 0000 0000 0000 0000 1dae 2dba 8065 f0b9
000003d0: 99f9 0138 bb16 b7b9 b6a3 ccb9 239f 7639
000003e0: 0000 0000 0000 0000 0000 0000 0000 0000
000003f0: 0000 0000 e11f 05ba 33b2 2eba 466f a939

exp_avg_sq f4 [128, 11]
6.2480362e-06 1.0186357e-05 3.1435313e-06 1.6693598e-06 1.9085286e-05 1.6845834e-05 0.0 0.0
0.0 0.0 0.0 9.261521e-06 1.6761433e-05 7.763605e-06 3.861124e-06 3.34367e-05
2.9875468e-05 0.0 0.0 0.0 0.0 0.0 4.755391e-05 6.201349e-05
3.0664658e-05 3.9505394e-05 5.979191e-05 7.717002e-05 0.0 0.0 0.0 0.0
0.0 5.6387864e-05 6.3400206e-05 3.4575645e-05 3.9204082e-05 8.501708e-05 9.5034644e-05 0.0
0.0 0.0 0.0 0.0 6.9218604e-06 9.112709e-06 2.4510646e-06 3.5107114e-06
1.3194147e-05 1.2943167e-05 0.0 0.0 0.0 0.0 0.0 3.1487223e-05
3.3937176e-05 7.036859e-06 1.0120922e-05 4.0081613e-05 4.1793704e-05 0.0 0.0 0.0
0.0 0.0 6.0988245e-05 7.092123e-05 2.6551224e-05 3.650448e-05 6.3689986e-05 8.2180486e-05
0.0 0.0 0.0 0.0 0.0 0.00019333439 0.00023991197 3.329971e-05
8.104607e-05 0.00027363017 0.00031606047 0.0 0.0 0.0 0.0 0.0
7.9949554e-05 0.00012575854 5.6843743e-05 3.8473358e-05 0.00011630929 0.00012330823 0.0 0.0
0.0 0.0 0.0 0.00023720459 0.000274675 2.6097101e-05 0.00010386774 0.00027994838
0.00034562204 0.0 0.0 0.0 0.0 0.0 4.158868e-05 8.207551e-05
6.716576e-05 3.845315e-05 7.948522e-05 8.909486e-05 0.0 0.0 0.0 0.0
0.0 5.7466277e-06 5.129912e-06 2.3119783e-06 3.246507e-06 9.53328e-06 1.1077532e-05 0.0
0.0 0.0 0.0 0.0 0.0003422226 0.00040538138 3.903798e-05 0.0001333529
0.00041359643 0.0004814112 0.0 0.0 0.0 0.0 0.0 3.295034e-05
4.5495275e-05 2.5664447e-05 2.2852877e-05 5.280623e-05 5.7140485e-05 0.0 0.0 0.0
0.0 0.0 8.332697e-06 8.168675e-06 1.9388526e-06 3.844205e-06 1.5971187e-05 1.7955555e-05
0.0 0.0 0.0 0.0 0.0 0.00021850287 0.00024743957 1.763562e-05
6.246867e-05 0.00032589826 0.0003527187 0.0 0.0 0.0 0.0 0.0
2.990102e-05 4.1476647e-05 1.3751903e-05 2.0624992e-05 4.4986104e-05 6.1418286e-05 0.0 0.0
0.0 0.0 0.0 0.0001154431 0.00014501241 2.9575738e-05 4.524556e-05 0.00021851696
0.00024285555 0.0 0.0 0.0 0.0 0.0 0.00049770996 0.00055504555
4.2597767e-05 0.00013761982 0.00074158085 0.0008001139 0.0 0.0 0.0 0.0
0.0 5.5161105e-05 7.964852e-05 4.0593644e-05 3.491577e-05 9.1440794e-05 0.00010347119 0.0
0.0 0.0 0.0 0.0 8.631663e-06 1.1338596e-05 2.8724307e-06 6.8735167e-06
7.784697e-06 1.1498287e-05 0.0 0.0 0.0 0.0 0.0 3.14512e-05
3.9989864e-05 7.098535e-06 1.3327876e-05 3.8095262e-05 4.7686444e-05 0.0 0.0 0.0
0.0 0.0 2.3384217e-05 2.8806267e-05 5.972653e-06 1.1271659e-05 3.105264e-05 4.0956613e-05
0.0 0.0 0.0 0.0 0.0 9.8400844e-05 0.000116623836 1.8138353e-05
00000000: 39a6 d136 12e6 2a37 75f5 5236 c40e e035
00000010: 5719 a037 2750 8d37 0000 0000 0000 0000
00000020: 0000 0000 0000 0000 0000 0000 ee61 1b37
00000030: e79a 8c37 6e40 0237 cd8e 8136 623e 0c38
00000040: 149d fa37 0000 0000 0000 0000 0000 0000
00000050: 0000 0000 0000 0000 9f74 4738 3d0d 8238
00000060: ed9d 0038 98b2 2538 13c9 7a38 57d6 a138
00000070: 0000 0000 0000 0000 0000 0000 0000 0000
00000080: 0000 0000 0282 6c38 baf5 8438 5105 1138
00000090: 106f 2438 334b b238 564d c738 0000 0000
000000a0: 0000 0000 0000 0000 0000 0000 0000 0000
000000b0: 5442 e836 cae2 1837 f87c 2436 9099 6b36
000000c0: 6e5c 5d37 7b26 5937 0000 0000 0000 0000
000000d0: 0000 0000 0000 0000 0000 0000 2611 0438
000000e0: c457 0e38 291e ec36 07cd 2937 4e1d 2838
000000f0: a64b 2f38 0000 0000 0000 0000 0000 0000
00000100: 0000 0000 0000 0000 a1cd 7f38 8cbb 9438
00000110: 52ba de37 631c 1938 4d91 8538 5058 ac38
00000120: 0000 0000 0000 0000 0000 0000 0000 0000
00000130: 0000 0000 ceb9 4a39 e190 7b39 4bab 0b38
00000140: 47f7 a938 0576 8f39 ebb4 a539 0000 0000
00000150: 0000 0000 0000 0000 0000 0000 0000 0000
00000160: 97aa a738 0dde 0339 816b 6e38 745e 2138
00000170: 13eb f338 4d4c 0139 0000 0000 0000 0000
00000180: 0000 0000 0000 0000 0000 0000 1fba 7839
00000190: 4102 9039 19eb da37 91d3 d938 09c6 9239
000001a0: 9b34 b539 0000 0000 0000 0000 0000 0000
000001b0: 0000 0000 0000 0000 816f 2e38 f41f ac38
000001c0: 58db 8c38 c148 2138 4db1 a638 70d8 ba38
000001d0: 0000 0000 0000 0000 0000 0000 0000 0000
000001e0: 0000 0000 28d3 c036 9c21 ac36 7c27 1b36
000001f0: 91de 5936 20f1 1f37 a3d9 3937 0000 0000
00000200: 0000 0000 0000 0000 0000 0000 0000 0000
00000210: 576c b339 5e89 d439 b6bc 2338 a6d4 0b39
00000220: f9d7 d839 eb65 fc39 0000 0000 0000 0000
00000230: 0000 0000 0000 0000 0000 0000 2834 0a38
00000240: 2ed2 3e38 fb49 d737 2eb4 bf37 427c 5d38
00000250: 21aa 6f38 0000 0000 0000 0000 0000 0000
00000260: 0000 0000 0000 0000 a9cc 0b37 310c 0937
00000270: 3c1d 0236 78fd 8036 ddf9 8537 439f 9637
00000280: 0000 0000 0000 0000 0000 0000 0000 0000
00000290: 0000 0000 eb1d 6539 c7ba 8139 35f0 9337
000002a0: 9d01 8338 53dd aa39 1aed b839 0000 0000
000002b0: 0000 0000 0000 0000 0000 0000 0000 0000
000002c0: f4d3 fa37 36f7 2d38 f9b7 6637 d503 ad37
000002d0: 76af 3c38 b1cd 8038 0000 0000 0000 0000
000002e0: 0000 0000 0000 0000 0000 0000 0b1a f238
000002f0: 790e 1839 6a19 f837 0dc6 3d38 b321 6539
00000300: 0aa7 7e39 0000 0000 0000 0000 0000 0000
00000310: 0000 0000 0000 0000 c078 023a 7a80 113a
00000320: 01ab 3238 0a4e 1039 a666 423a bcbe 513a
00000330: 0000 0000 0000 0000 0000 0000 0000 0000
00000340: 0000 0000 c95c 6738 f908 a738 1843 2a38
00000350: 8672 1238 e7c3 bf38 acfe d838 0000 0000
00000360: 0000 0000 0000 0000 0000 0000 0000 0000
00000370: b6d0 1037 e63a 3e37 fcc3 4036 0fa3 e636
00000380: 059b 0237 c4e8 4037 0000 0000 0000 0000
00000390: 0000 0000 0000 0000 0000 0000 78ea 0338
000003a0: caba 2738 f42f ee36 cb9a 5f37 7ac8 1f38
000003b0: ee02 4838 0000 0000 0000 0000 0000 0000
000003c0: 0000 0000 0000 0000 3929 c437 fda4 f137
000003d0: b368 c836 681b 3d37 853e 0238 d4c8 2b38
000003e0: 0000 0000 0000 0000 0000 0000 0000 0000
000003f0: 0000 0000 8d5c ce38 f293 f438 d127 9837

exp_avg f4 [128]
-0.00053615845 -0.0008134128 -0.0009688111 0.00091136835 -0.0002660178 -0.00096425164 0.0009303808 -0.0019112726
0.0010048064 -0.0016528873 -0.0012521739 8.1031656e-05 -0.0019159531 0.0013316671 4.6937007e-06 -0.00044990753
-0.0008242978 -0.0009921629 0.00079401 -0.0013361683 8.3453844e-05 0.00034953246 -0.00024861522 -0.0005037404
-0.0013583534 -0.001311398 0.00026637103 -0.00090901495 0.00014345621 0.0014002969 -0.00040566243 6.3636595e-05
-0.0006015629 -0.0024639792 0.00036266973 0.0003409521 -0.0009160019 0.00051000126 -0.0017210428 -8.747168e-05
0.0014622887 0.000622296 -0.001680391 -0.0008625743 0.0018257818 -0.0017718901 9.828109e-05 0.0007187044
1.9661065e-05 0.0019015078 0.0006303522 -0.0006266332 0.00017956272 -0.0013077657 0.0013369048 0.00069877505
0.0013914588 7.507002e-05 0.0006570339 0.0004326721 0.0009936915 0.0006292782 0.00025666266 0.0008252519
-0.00075735274 -0.00048606045 0.0007807891 0.0006247296 -0.0021774985 -0.00071698986 -0.00057808857 -0.001827505
-0.0013215769 0.00132652 0.0003035101 -0.00024800916 0.00017483205 -0.0007338011 0.00028671653 -0.0005245812
0.000987867 0.0013982223 -0.0013645627 -0.00077579723 9.69744e-05 -0.00060234097 -0.0015209783 -0.002244061
-0.00030733325 0.0020648527 0.00035327376 -0.0009359245 -0.00038529877 -0.0010891616 0.00053595897 -0.00027512942
-0.0012499405 0.00041315137 8.2959225e-05 -0.000514794 -0.00050021324 8.99637e-05 0.000915422 0.0005582691
0.0005847071 -0.0005799776 -0.00056784507 -6.689826e-05 -0.00021466582 0.0020284085 -3.5257894e-05 -0.00075372
-0.0018774609 -0.001676508 0.0004804418 -0.0016510459 -0.0002184854 0.0007550659 -0.0006203671 5.437939e-05
-0.0020958444 0.000820869 -0.0010905353 0.00014965453 0.0019863665 0.0007334209 -0.0009802365 -0.0007798378
00000000: fc8c 0cba 353b 55ba d0f7 7dba e5e8 6e3a
00000010: 4e78 8bb9 d5c5 7cba cce4 733a ab83 faba
00000020: b5b3 833a b2a5 d8ba fc1f a4ba 8aef a938
00000030: b820 fbba 558b ae3a 957e 9d36 91e1 ebb9
00000040: b015 58ba 760b 82ba 1c25 503a 5e22 afba
00000050: f103 af38 7441 b739 9258 82b9 720d 04ba
00000060: c70a b2ba 37e3 abba b7a7 8b39 f64a 6eba
00000070: bc6c 1639 2b8a b73a 17af d4b9 a374 8538
00000080: 34b2 1dba b67a 21bb b524 be39 d1c1 b239
00000090: d91f 70ba 9bb1 053a 9d94 e1ba 0071 b7b8
000000a0: 44aa bf3a 9421 233a 9140 dcba 621e 62ba
000000b0: 124f ef3a c43e e8ba 421c ce38 7067 3c3a
000000c0: d1ed a437 043c f93a 383e 253a a444 24ba
000000d0: 0049 3c39 5669 abba 153b af3a 002e 373a
000000e0: 9c61 b63a e96e 9d38 cc3c 2c3a 44d8 e239
000000f0: c13e 823a 25f6 243a ae90 8639 b855 583a
00000100: 1589 46ba eed5 feb9 dfad 4c3a e5c4 233a
00000110: 5db4 0ebb 60f4 3bba de8a 17ba e488 efba
00000120: c338 adba a0de ad3a 7020 9f39 3a07 82b9
00000130: 1f53 3739 8f5c 40ba 7152 9639 0c84 09ba
00000140: 517b 813a 8e44 b73a 20db b2ba df5e 4bba
00000150: bc5e cb38 6be6 1dba 905b c7ba 1911 13bb
00000160: 9221 a1b9 7b52 073b 9a37 b939 d458 75ba
00000170: ed01 cab9 33c2 8eba 997f 0c3a 3f3f 90b9
00000180: 0bd5 a3ba 3d9c d839 65fa ad38 3ef3 06ba
00000190: be20 03ba e5aa bc38 eef8 6f3a ce58 123a
000001a0: 0747 193a a309 18ba 70db 14ba bb4b 8cb8
000001b0: eb17 61b9 0cef 043b e0e1 13b8 4b95 45ba
000001c0: 2215 f6ba 46be dbba cfe3 fb39 e867 d8ba
000001d0: 3a19 65b9 9def 453a 22a0 22ba 6d15 6438
000001e0: 6f5a 09bb 962f 573a 4bf0 8eba 95ec 1c39
000001f0: b32d 023b 0b43 403a 477b 80ba 076e 4cba

exp_avg_sq f4 [128]
1.0701531e-05 1.8970188e-05 0.00010155022 0.000117711286 9.484566e-06 4.0416464e-05 0.00010996256 0.00030116504
0.000105224004 0.00034730483 0.00010439241 1.1701885e-05 0.00046511623 6.680452e-05 1.4010449e-05 0.00028266985
6.4896114e-05 0.0001920559 0.0006252999 9.064364e-05 1.5939453e-05 4.066599e-05 3.5159625e-05 0.00011109973
9.834186e-05 0.0005026212 9.365098e-05 8.041719e-05 8.563413e-05 5.041291e-05 2.9151359e-05 8.491372e-06
2.5832394e-05 0.00032710165 9.446696e-06 5.7456033e-05 9.4197945e-05 0.00012472393 0.00029887003 1.7515365e-05
0.00014560456 2.9573865e-05 0.00014246492 7.628947e-05 0.00013572513 0.0001159795 1.27541125e-05 3.5702134e-05
1.8365112e-05 0.00024076462 0.00010823122 3.4440436e-05 3.1414696e-05 9.032833e-05 4.0961157e-05 5.019226e-05
6.9067064e-05 5.518308e-05 3.3862943e-05 0.00012279405 6.314508e-05 9.2745504e-05 0.00025136836 8.7877685e-05
0.0003000237 9.7022115e-05 6.093828e-05 9.073152e-05 0.0004515927 3.95387e-05 9.6802236e-05 0.00018348897
0.0001360278 0.0001420275 2.7205e-05 4.499435e-05 1.187455e-05 7.7507386e-05 0.00018588889 2.6125574e-05
9.078515e-05 0.00013749643 4.5061053e-05 0.00014736794 3.1241576e-05 0.00012593874 0.0004780377 0.00022462818
1.163818e-05 0.00035232064 2.6242704e-05 7.609835e-05 2.1328198e-05 7.399207e-05 7.5124255e-05 2.553142e-05
0.0002072967 5.9140846e-05 1.1833807e-05 2.1241982e-05 0.00020706619 1.1801594e-05 0.00035783966 4.131764e-05
4.5018274e-05 2.031009e-05 3.79787e-05 0.00012970612 3.3876568e-06 0.00016886779 3.5781868e-05 8.71595e-05
0.00023244292 0.00014254151 5.8590533e-05 7.4935015e-05 6.3080893e-06 4.250017e-05 9.897219e-05 1.9539704e-05
0.0008545718 0.00017907484 0.00014947366 0.0003615012 0.00020314827 6.3094114e-05 0.00012317457 0.00023554546
00000000: ba8a 3337 2b22 9f37 5cf7 d438 c4db f638
00000010: e71f 1f37 d984 2938 b39b e638 b0e5 9d39
00000020: b5ab dc38 7716 b639 40ed da38 3753 4437
00000030: d8da f339 6719 8c38 6c0e 6b37 4e33 9439
00000040: d618 8838 9d62 4939 2aeb 233a ef17 be38
00000050: b7b5 8537 c690 2a38 5c78 1338 37fe e838
00000060: e23c ce38 56c2 033a 7d66 c438 a6a5 a838
00000070: 7996 b338 7372 5338 118a f437 2a76 0e37
00000080: a5b2 d837 d77e ab39 407d 1e37 f2fc 7038
00000090: 238c c538 53c8 0239 a8b1 9c39 f6ed 9237
000000a0: 6dad 1839 6415 f837 a362 1539 99fd 9f38
000000b0: 7051 0e39 053a f338 7ffa 5537 e0be 1538
000000c0: c70e 9a37 c375 7c39 32fa e238 2374 1038
000000d0: 46c3 0338 a76e bd38 b5cd 2b38 8785 5238
000000e0: 19d8 9038 6274 6738 0f08 0e38 47c2 0039
000000f0: c26c 8438 5d80 c238 17ca 8339 f94a b838
00000100: 804c 9d39 5a78 cb38 fb97 7f38 1d47 be38
00000110: bfc3 ec39 5bd6 2538 4e02 cb38 f266 4039
00000120: afa2 0e39 37ed 1439 4b36 e437 51b8 3c38
00000130: ce38 4737 768b a238 2beb 4239 3e28 db37
00000140: e863 be38 eb2c 1039 f0ff 3c38 c886 1a39
00000150: 6309 0338 6c0e 0439 22a1 fa39 2b8a 6b39
00000160: 9a41 4337 adb7 b839 c723 dc37 fe96 9f38
00000170: f5e9 b237 312c 9b38 078c 9d38 4f2c d637
00000180: c95d 5939 000e 7838 d089 4637 cf30 b237
00000190: e81f 5939 76ff 4537 6d9c bb39 7a4c 2d38
000001a0: 01d2 3c38 965f aa37 524b 1f38 b901 0839
000001b0: 8057 6336 1a12 3139 7d14 1638 66c9 b638
000001c0: ecbb 7339 3277 1539 1bbf 7538 6e26 9d38
000001d0: 13aa d336 3642 3238 4a8f cf38 32e9 a337
000001e0: 5805 603a 09c6 3b39 08bc 1c39 df87 bd39
000001f0: 3304 5539 6551 8438 6c28 0139 c1fc 7639
