kingfisher_rl/config/Capture_Nominal-DR50.pth (torch, 235303 bytes, 30 tensors)

value_mean_std.running_mean f8 [1]
0	0x3fc2b3cd6bd8a82b	0.14611213460858727

value_mean_std.running_var f8 [1]
0	0x3f7ea9a387b20292	0.007485998906418561

value_mean_std.count f8 []
0	0x4178380010000000	25395201.0

running_mean_std.running_mean_std.state.running_mean f8 [11]
0	0x3fee726c745d4077	0.9514677307834195
1	0x3fd41406f6d97b3f	0.3137223635330208
2	0xbfd0ad3a4cdc5acd	-0.26057298189099926
3	0x3fe500b15cfd4492	0.6563345733831218
4	0xbfabbe73d7eaec13	-0.05418741236413651
5	0x4010ef12a0d4a1af	4.233469498613359
6	0x0000000000000000	0.0
7	0x0000000000000000	0.0
8	0x0000000000000000	0.0
9	0x0000000000000000	0.0
10	0x0000000000000000	0.0

running_mean_std.running_mean_std.state.running_var f8 [11]
0	0x3fe48bf224d373c9	0.6420832366235284
1	0x3fd5cfea9e891c85	0.34081521493903494
2	0x3fdaf381ac6c8581	0.42111245954773585
3	0x3fd3e5a07cea3533	0.31089031408994855
4	0x3fd059006bdf99dd	0.2554322293712213
5	0x402579c106d613c5	10.737800801880335
6	0x3e752401365140c4	7.875503412022466e-08
7	0x3e752401365140c4	7.875503412022466e-08
8	0x3e752401365140c4	7.875503412022466e-08
9	0x3e752401365140c4	7.875503412022466e-08
10	0x3e752401365140c4	7.875503412022466e-08

running_mean_std.running_mean_std.state.count f8 []
0	0x4168380020000000	12697601.0

a2c_network.sigma f4 [2]
0	0xbff6d4f2	-1.9283736
1	0xc00d9941	-2.2124789

a2c_network.actor_mlp.0.weight f4 [128, 11]
0	0x3ed4759e	0.41495985
1	0x3e8648c3	0.26227388
2	0x3e634627	0.2219473
3	0x3ed9be8c	0.42528188
4	0xbe2d8967	-0.16946946
5	0xbd893bb5	-0.06700841
6	0xbe1650ba	-0.14679232
7	0x3e355277	0.17707239
8	0x3e88164f	0.2657952
9	0xbe628186	-0.22119722
10	0x3e862e5e	0.2620725
11	0x3d2183fe	0.03943252
12	0x3e1e1e62	0.15441278
13	0x3e112140	0.1417284
14	0xbdbd3d75	-0.092402376
15	0xbea59932	-0.3234344
16	0xbcc2e47f	-0.023790596
17	0x3d368ae8	0.044566065
18	0xbe1022be	-0.14075753
19	0x3d9d6604	0.076854736
20	0xbe0e4058	-0.13891733
21	0xbd10d4b3	-0.035359096
22	0x3dcbe1f3	0.09955206
23	0x3e9895ad	0.29801694
24	0xbdd5c14d	-0.1043726
25	0xbee7568a	-0.45183212
26	0xbf10e709	-0.5660253
27	0xbf1c180a	-0.6097418
28	0x3ce91fe0	0.028457582
29	0xbe9878c7	-0.29779646
30	0x3e8b6a98	0.27229762
31	0xbe8322ba	-0.25612432
32	0x3e6e5c93	0.23277502
33	0xbe0666f1	-0.13125207
34	0xbe2e3f1f	-0.17016266
35	0xbc8eddd4	-0.01743976
36	0x3ec03442	0.3753987
37	0x3f42dcff	0.76118463
38	0x3edc5d99	0.4304016
39	0xbdc2bdcf	-0.09508859
40	0x3da5e930	0.081011176
41	0xbda773b7	-0.08176368
42	0x3e01f053	0.12689333
43	0x3e89d40f	0.269196
44	0xbd162bbf	-0.036662813
45	0x3d9a5830	0.07536352
46	0x3daa47aa	0.0831445
47	0x3d0e98d5	0.03481372
48	0x3e146ea2	0.14495328
49	0x3d92a9cb	0.07161292
50	0xbe98d0e1	-0.29846862
51	0xbdee9367	-0.116492085
52	0xbe6cd105	-0.2312661
53	0x3e7d56e5	0.24740179
54	0x3db1dba5	0.08684472
55	0x3ca8f4c5	0.020624528
56	0x3e885fe0	0.26635647
57	0x3dd1da89	0.102467604
58	0x3ea98bd7	0.33114502
59	0xbf0e5139	-0.55592686
60	0xbe1e8e2f	-0.15483926
61	0xbe52bb8f	-0.2057936
62	0x3dbe67e8	0.09297162
63	0xbdd4a788	-0.103835166
64	0x3dbd35e9	0.09238798
65	0xbd80a65e	-0.06281732
66	0x3d5fdb0b	0.054652255
67	0xbea8a4e7	-0.3293831
68	0xbe8cfa6a	-0.275348
69	0xbdb03818	-0.08604449
70	0x3ec88329	0.39162567
71	0x3ea62e13	0.32457027
72	0x3e948bdb	0.2901295
73	0xbe7ecd55	-0.24883015
74	0xbe991ea4	-0.2990619
75	0xbe718d8e	-0.23589155
76	0xbe4fb0ef	-0.20282339
77	0x3d76fa46	0.060297273
78	0x3ebe7fbe	0.37206835
79	0x3e750251	0.23926665
80	0xbd89cee9	-0.06728918
81	0xbf358e8f	-0.7092065
82	0x3e4f6812	0.20254543
83	0xbdf99827	-0.12187224
84	0x3e3b62e4	0.18299443
85	0xbd928832	-0.071548834
86	0x3e309e29	0.17247833
87	0xbe6fe314	-0.23426467
88	0x3b8b0109	0.0042420668
89	0x3c240485	0.010010843
90	0x3d1fa971	0.03897995
91	0xbcba6d7d	-0.022757286
92	0x3ec80002	0.39062506
93	0x3d5276cf	0.051382836
94	0xbe5fe543	-0.218648
95	0xbe24d49e	-0.16096732
96	0x3e8d5aae	0.27608246
97	0xbdd05ceb	-0.10173973
98	0xbddae985	-0.106890716
99	0xbeaf50bf	-0.34241292
100	0x3ebd9880	0.3703041
101	0xbb663273	-0.0035125285
102	0x3eddb5ae	0.43302673
103	0xbedbf33e	-0.42959017
104	0x3e90895b	0.28229794
105	0xbe52e659	-0.20595683
106	0xbe82f861	-0.25580123
107	0xbe2a040a	-0.16603103
108	0xbe871c1d	-0.26388636
109	0xbe449763	-0.19198374
110	0x3e872cbd	0.2640132
111	0x3e6c6046	0.230836
112	0x3e15a226	0.14612636
113	0xbed68d9a	-0.41904908
114	0xbf196491	-0.5991908
115	0xbe266469	-0.16249241
116	0x3d411de9	0.047147665
117	0xbe87d639	-0.26530626
118	0xbe0507f1	-0.1299131
119	0xbe38d666	-0.18050537
120	0x3a5b09e0	0.00083556585
121	0x3c872305	0.01649619
122	0x3dd1d2e6	0.10245304
123	0x3be8b4a8	0.007101614
124	0xbd8172ff	-0.06320762
125	0xbeb1a8c3	-0.34699067
126	0xbe2a401e	-0.16626021
127	0xbe73b048	-0.23797715
128	0x3e817013	0.25280818
129	0xbd7519e8	-0.05983916
130	0x3e84d29e	0.25941938
131	0x3dc06684	0.09394553
132	0xbeb79a98	-0.35860133
133	0x3f399f18	0.7250838
134	0xbe0a9baa	-0.13535944
135	0xbe0e5467	-0.13899384
136	0xbf30af1a	-0.69017184
137	0xbf2be9f8	-0.67153883
138	0x3db0ac05	0.0862656
139	0xbd86e357	-0.065863304
140	0x3df067b9	0.117385335
141	0xbe7d60bd	-0.24743934
142	0x3e653926	0.22385082
143	0xbecb14d6	-0.39664334
144	0xbf293587	-0.660973
145	0xbdb9a48c	-0.09064588
146	0x3e35eda2	0.17766431
147	0x3f1616e7	0.58628696
148	0x3edafb37	0.42769787
149	0xbe74d015	-0.23907502
150	0x3d9b6741	0.075880535
151	0xbe04cce5	-0.12968786
152	0xbd075611	-0.033041064
153	0xbe671833	-0.22567825
154	0xbde10902	-0.10988046
155	0xbdc0c29b	-0.09412118
156	0xbdc7aee0	-0.09750152
157	0x3e965a83	0.2936593
158	0x3e6f53e9	0.23371853
159	0x3e6e2623	0.23256736
160	0x3e8c517d	0.2740592
161	0x3d87b1e0	0.06625724
162	0x3d1ede87	0.038786437
163	0xbe880aec	-0.26570833
164	0x3e019bd3	0.12657098
165	0xbdfa72ad	-0.12228904
166	0x3e2eda4c	0.17075461
167	0x3dfa6ef4	0.12228194
168	0xbdd89c82	-0.105767265
169	0xbe354bb6	-0.17704663
170	0x3c867c42	0.016416673
171	0xbc6be953	-0.014398891
172	0x3e2c6489	0.16835226
173	0xbd9dca79	-0.07704634
174	0xbe3029e4	-0.1720348
175	0xbdd374f4	-0.103250414
176	0xbe61f8f5	-0.22067626
177	0x3eaeaee8	0.34117818
178	0x3e91a62a	0.28447086
179	0xbeca54f8	-0.3951795
180	0x3c8681fd	0.016419405
181	0x3e9e56b2	0.30925518
182	0x3d5ff0a7	0.054672863
183	0xbddbe7c0	-0.10737562
184	0x3e2125fd	0.15737148
185	0x3e22403e	0.15844819
186	0x3de6e5f6	0.1127433
187	0xbe468449	-0.193864
188	0x3dd9f12d	0.10641704
189	0xbd07d9a1	-0.03316653
190	0xbdd9f425	-0.1064227
191	0xbe75e6a5	-0.24013765
192	0x3eea54d1	0.45767835
193	0x3e84ab35	0.2591187
194	0xbcf48586	-0.029848825
195	0xbd8a4158	-0.067507446
196	0x3b902bb4	0.004399741
197	0xbc937a6c	-0.018002711
198	0x3e56f02f	0.2099006
199	0xbd3e11c8	-0.046403676
200	0xbd1e7920	-0.038689733
201	0xbe561e2c	-0.20909947
202	0x3ecfd424	0.40591538
203	0x3d18986c	0.037254736
204	0xbc75b3a4	-0.014996443
205	0xbe3a254e	-0.18178293
206	0xbe3ce4b3	-0.18446617
207	0xbe8a486f	-0.27008387
208	0xbdc947be	-0.09828137
209	0x3d4a4747	0.04938438
210	0x3ef8b214	0.48573363
211	0x3e7d57e0	0.24740553
212	0xbd73e097	-0.059540357
213	0xbf2a82aa	-0.6660563
214	0x3e1b09e5	0.15140493
215	0x3e95555c	0.29166687
216	0x3d32a68f	0.043615874
217	0xbd9fe9c7	-0.07808261
218	0x3dff779a	0.12473984
219	0xbdeb314a	-0.114840105
220	0xbd330664	-0.043707266
221	0x3dfde8ca	0.123979166
222	0xbe2ff1a4	-0.17182022
223	0x3e990dbd	0.29893294
224	0xbe8cd6d4	-0.2750765
225	0x3e03dbe4	0.1287685
226	0x3e69eafb	0.22843544
227	0x3de10b87	0.10988527
228	0xbe574821	-0.21023609
229	0xbe985b90	-0.29757357
230	0xbe7ac221	-0.24488117
231	0xbd33b094	-0.04386957
232	0x3dc48d1f	0.09597229
233	0x3f204356	0.62602746
234	0xbdf8b595	-0.12144009
235	0xbd307201	-0.043077473
236	0xbe12eaeb	-0.14347427
237	0xbe6acdef	-0.2293012
238	0xbe844360	-0.25832653
239	0xbe9064b1	-0.2820182
240	0x3dfcc771	0.12342728
241	0xbe1795d0	-0.14803243
242	0x3c93674d	0.017993594
243	0x3dc9f880	0.09861851
244	0xba0e6469	-0.00054318324
245	0xbe814d32	-0.25254208
246	0xbf0c133c	-0.5471685
247	0xbd0de2ad	-0.034640003
248	0xbdb78471	-0.08960808
249	0x3e3e9a6e	0.18613598
250	0xbdc6190f	-0.09672748
251	0xbe627cb5	-0.22117884
252	0xbd59e680	-0.053198338
253	0x3c4da640	0.012551844
254	0x3d53dd9b	0.05172501
255	0xbdf1cf61	-0.118071325

a2c_network.actor_mlp.0.bias f4 [128]
0	0xbc8084ef	-0.015688388
1	0x3e0722a6	0.13196811
2	0xbe340ed8	-0.17583787
3	0xbd32b765	-0.04363193
4	0x3eb1a88a	0.34698898
5	0xbe3c03fb	-0.18360893
6	0x3e9dece0	0.30844784
7	0x3e980e86	0.2969858
8	0xbeaf0db7	-0.3419015
9	0x3ea57c96	0.32321614
10	0x3dcc1788	0.09965426
11	0xbe269f7e	-0.16271779
12	0xbe179a6b	-0.14805
13	0xbddc9692	-0.107709065
14	0x3e295740	0.1653719
15	0x3e84347b	0.2582129
16	0x3efd140d	0.4942936
17	0x3f0f65d0	0.5601473
18	0xbf00df62	-0.50340855
19	0x3ea95622	0.33073527
20	0xbe6411a3	-0.22272353
21	0x3ebfbd2c	0.37449014
22	0x3e726d38	0.23674476
23	0xbe4d4925	-0.20047434
24	0xbe5e1366	-0.21687087
25	0x3f183c82	0.5946733
26	0xbebd9dce	-0.37034458
27	0x3ead087b	0.33795533
28	0x3b97256f	0.0046126167
29	0x3d3f3938	0.046685427
30	0xbcf9e4b1	-0.030504556
31	0xbf1ae9fa	-0.6051327
32	0xbd9e662c	-0.077343315
33	0x3e021ff6	0.12707505
34	0x3d950b1f	0.07277512
35	0xbda508e0	-0.080583334
36	0x3e80a749	0.25127628
37	0x3ebea8a2	0.37238032
38	0x3ef68e4d	0.48155442
39	0x3e06e985	0.13175018
40	0xbea083af	-0.31350467
41	0xbe89780e	-0.26849407
42	0x3d415f88	0.047210246
43	0x3e337450	0.17524838
44	0x3e9cb719	0.30608442
45	0x3edd6b9b	0.4324616
46	0x3e93a1f7	0.28834507
47	0xbe5bad8f	-0.21452926
48	0xbe8edfb5	-0.2790505
49	0x3d5f2174	0.054475263
50	0xbf0b1e3a	-0.54343
51	0x3c3a57a6	0.011373436
52	0xbea5899e	-0.32331556
53	0x3d6e16aa	0.058127083
54	0x3d35d7bc	0.044395193
55	0xbe255683	-0.16146283
56	0xbec1537b	-0.37759003
57	0x3e429bf2	0.19004801
58	0x3ee35416	0.4440009
59	0xbe2a886e	-0.16653606
60	0xbe94271d	-0.2893609
61	0x3e25f2b4	0.16205865
62	0xbe40e9d5	-0.188392
63	0xbebe7acc	-0.37203062
64	0x3eccfb7c	0.40035617
65	0x3ecbc90b	0.3980182
66	0xbe9b66d3	-0.30351886
67	0xbd9399be	-0.07207058
68	0x3e5fd6a7	0.21859227
69	0x3d64ff12	0.055907317
70	0x3e9604b8	0.29300475
71	0x3e883324	0.26601517
72	0x3e505968	0.20346606
73	0xbdce090e	-0.10060321
74	0xbeae7071	-0.3407016
75	0xbd0b0801	-0.03394318
76	0x3e9055e4	0.2819053
77	0xbea8e01d	-0.32983485
78	0xbe8b654a	-0.27225715
79	0x3ea17cea	0.31540614
80	0xbd7548fd	-0.05988406
81	0xbee41b4a	-0.4455207
82	0x3e5bb124	0.21454293
83	0xbe85106c	-0.2598909
84	0xbf00f335	-0.50371104
85	0x3e1d62ee	0.1536977
86	0x3ee7d24b	0.45277628
87	0x3e8344a0	0.25638294
88	0x3e65da3b	0.2244653
89	0xbdb4b528	-0.08823615
90	0x3eb3d7e9	0.35125664
91	0x3e41db67	0.18931352
92	0xbe005d8b	-0.12535684
93	0xbd3e2040	-0.046417475
94	0xbe885a21	-0.26631263
95	0xbdcfa73a	-0.10139318
96	0x3ee79e99	0.45238188
97	0xbeafd8c8	-0.34345078
98	0xbea36faf	-0.31921145
99	0x3eb34ee5	0.3502113
100	0x3eb97895	0.3622481
101	0x3d3cbd79	0.046079133
102	0x3e2de432	0.16981581
103	0xbeded032	-0.43518215
104	0x3e31fd8b	0.17381875
105	0x3eb2b673	0.34904823
106	0xbe5a6b09	-0.21329893
107	0xbeb9fb26	-0.36324424
108	0x3e9d8843	0.30768022
109	0xbe65d4d7	-0.22444473
110	0x3e18976a	0.1490151
111	0xbc020856	-0.007936558
112	0x3f0b5b11	0.5443583
113	0x3e0b61ea	0.1361157
114	0xbe6da429	-0.23207153
115	0x3e6788a9	0.22610725
116	0x3e2cdadd	0.16880365
117	0xbc39c536	-0.011338523
118	0xbe9ef0c4	-0.31043065
119	0x3dcb7292	0.09933962
120	0x3ef9043d	0.48636046
121	0xbefebac0	-0.49751854
122	0x3ec83443	0.39102373
123	0xbe7782ca	-0.24170986
124	0x3e731734	0.2373932
125	0xbd9491af	-0.072543494
126	0x3ea8a964	0.32941735
127	0x3eb1e644	0.3474599

a2c_network.actor_mlp.2.weight f4 [128, 128]
0	0x3dda9459	0.10672826
1	0x3d63854a	0.055547036
2	0x3f13c02c	0.57715106
3	0xbf60eb6d	-0.8785923
4	0x3e6e8b2f	0.23295282
5	0xbe7fda6b	-0.24985664
6	0xbd8ecfe5	-0.069732465
7	0x3cbb6b76	0.02287839
8	0xbe4cb842	-0.19992164
9	0xbe957697	-0.2919204
10	0x3f2d47a8	0.67687464
11	0xbe4e467f	-0.2014408
12	0x3f07c938	0.5304141
13	0xbefc75e4	-0.49308693
14	0xba87eadd	-0.0010369677
15	0x3e166a87	0.14689074
16	0x3e49d4f6	0.19710144
17	0xbe77ba83	-0.24192242
18	0xbe0d733c	-0.1381349
19	0xbd1f8d37	-0.038953032
20	0xbee72682	-0.45146567
21	0x3e9d3f2b	0.30712256
22	0x3d40c994	0.04706724
23	0xbeedc9fe	-0.4644317
24	0x3e951d2f	0.29123828
25	0x3e83e152	0.25757843
26	0x3e7ea0a2	0.24865964
27	0x3de184bf	0.110116474
28	0xbddbeb2f	-0.10738217
29	0xbdb37f78	-0.08764547
30	0x3e7733ff	0.24140929
31	0xbeb95206	-0.3619539
32	0x3dd83d14	0.10558525
33	0x3f6c8d0d	0.92402726
34	0x3d0b5907	0.03402045
35	0xbeabdcb7	-0.3356683
36	0x3e71490a	0.23563018
37	0xbf1cb9bf	-0.61220926
38	0xbe5afd43	-0.21385674
39	0x3e1ec924	0.15506417
40	0xbd5814d7	-0.05275425
41	0xbf01e856	-0.5074514
42	0x3eccdd9d	0.40012828
43	0x3f1653f0	0.5872183
44	0xbefedd7a	-0.49778348
45	0x3e149dec	0.14513367
46	0x3e916c40	0.284029
47	0xbe84dbee	-0.25949043
48	0xbd300ad7	-0.042979088
49	0xbf7cb860	-0.98718834
50	0x3e2c264f	0.16811489
51	0x3e96d13f	0.29456517
52	0x3ae86aee	0.0017732063
53	0x3f0070bd	0.50172025
54	0x3cc98a7c	0.024602167
55	0xbeba796e	-0.36420768
56	0xbe571f4b	-0.21008031
57	0x3dcea0c8	0.1008926
58	0xbeb15fab	-0.346433
59	0xbee631c5	-0.44959846
60	0x3c6312a9	0.013859429
61	0x3e9337e6	0.28753585
62	0xbc8a48db	-0.016880443
63	0x3e05d235	0.13068469
64	0xbe39c957	-0.18143211
65	0x3dc9402b	0.09826692
66	0x3d122e5f	0.035688754
67	0xbcedf57d	-0.029047722
68	0x3f60765c	0.876806
69	0x3f0ce3a7	0.5503487
70	0xbddc209b	-0.107484065
71	0x3e96bdda	0.2944172
72	0x3f018e40	0.5060768
73	0xbf102353	-0.563039
74	0xbe7e506e	-0.24835369
75	0xbe5897ac	-0.21151608
76	0x3cbaf0b9	0.022819864
77	0x3edfa18b	0.43677935
78	0x3e85ccef	0.26132914
79	0x3e63ac88	0.22233784
80	0xbeecfba6	-0.46285743
81	0x3ede4d7b	0.43418488
82	0x3ee6ab79	0.45052698
83	0x3f0f3cb3	0.55951995
84	0xbeaf0bf6	-0.34188813
85	0x3e1ec79b	0.15505831
86	0x3db73a3b	0.089466535
87	0x3cb5bd3e	0.022184964
88	0x3e427b29	0.18992294
89	0xbd8ddb3b	-0.069265805
90	0x3e846e7f	0.25865552
91	0x3de89f15	0.113584675
92	0xbe633373	-0.22187595
93	0xbddeb48d	-0.10874281
94	0x3e21bb1b	0.15794031
95	0xbd1d66a1	-0.038427953
96	0xbe9df33c	-0.30849636
97	0x3d0baed0	0.03410226
98	0xbec72496	-0.388951
99	0x3dbffb20	0.0937407
100	0xbea9031b	-0.33010182
101	0x3ca3284a	0.019916672
102	0xbde08440	-0.10962725
103	0x3dbfb4a9	0.0936063
104	0xbdc0d6da	-0.0941598
105	0x3f0d2cea	0.5514666
106	0x3ec20bfb	0.37899765
107	0x3e80bc5c	0.25143707
108	0x3e6cf8b9	0.23141755
109	0xbeb1cd0d	-0.34726754
110	0x3ea9a859	0.33136252
111	0xbf35343e	-0.7078284
112	0xbea3dfb4	-0.3200661
113	0x3e9ff7af	0.31243655
114	0x3ca48088	0.02008082
115	0x3ea45f08	0.32103753
116	0x3f0db0d2	0.5534793
117	0xbeed0be9	-0.4629815
118	0x3ead5cd6	0.3385989
119	0xbe9dbcaa	-0.30808002
120	0x3ef063b5	0.4695107
121	0xbdd98c53	-0.10622468
122	0xbef5df7d	-0.4802207
123	0x3eadd5b4	0.33952105
124	0xbf01853a	-0.5059391
125	0xbecee1e7	-0.40406725
126	0x3e563ba2	0.20921186
127	0x3e973904	0.29535687
128	0xbe238759	-0.159696
129	0x3c604e7b	0.013690586
130	0xbd895ec1	-0.06707526
131	0x3d915936	0.07097094
132	0xba946493	-0.0011321477
133	0x3badc36a	0.005302836
134	0xbd812674	-0.063061625
135	0x3a0763f8	0.0005164738
136	0xbcf5fd6d	-0.03002807
137	0xbc39a43e	-0.011330662
138	0x3d844c44	0.06459859
139	0x3dab8971	0.08375824
140	0xbcc8bdf6	-0.024504643
141	0xbdccbb0d	-0.099966146
142	0x3d254afe	0.04035472
143	0xbbdb9f53	-0.0067023425
144	0xbdab605f	-0.08367991
145	0xbd4dc810	-0.050239623
146	0x3dd325d6	0.10309951
147	0x3d9fe7a0	0.07807851
148	0x3c954294	0.018220223
149	0x3ce2eab9	0.027699815
150	0xbd712a90	-0.05887848
151	0x3c42f361	0.011898846
152	0xbdf06cf4	-0.11739531
153	0x3d1390e1	0.03602684
154	0xbe17ca82	-0.14823344
155	0x3b9ce489	0.0047879857
156	0x3dbfc8f0	0.09364498
157	0x3d81fa57	0.06346577
158	0x3b568b79	0.003273694
159	0xbc83476e	-0.016025271
160	0xbbccdff2	-0.0062522823
161	0xbcff592c	-0.03117045
162	0xbd9b16ec	-0.075727314
163	0xbd6ef8d0	-0.058342755
164	0xbd496b3e	-0.04917454
165	0xbba76d58	-0.0051094703
166	0x3d76c763	0.060248744
167	0xbcd69d79	-0.026198136
168	0x3cf21927	0.02955301
169	0x3dbeb4d3	0.09311833
170	0x3d375ac7	0.044764306
171	0xbd0489b5	-0.03235789
172	0x3d380c28	0.044933468
173	0x3cb94a92	0.022618566
174	0x3d210dc0	0.039319754
175	0x3df9f94c	0.12205753
176	0x3bde9950	0.0067931786
177	0x3da5ef28	0.08102256
178	0x3e0143f5	0.1262358
179	0x3b1cd6d7	0.0023931765
180	0x3c7a020b	0.015259276
181	0xbd131523	-0.03590883
182	0x3d063d9e	0.032773606
183	0xbd3c0a86	-0.045908473
184	0x3c7e4d80	0.015521407
185	0x3c8e5e62	0.01737899
186	0xbddbf326	-0.10739736
187	0xbcbf3e33	-0.023345089
188	0xbd805813	-0.06266799
189	0x3d967859	0.07347173
190	0x3d503094	0.050827578
191	0xbe0ef2cc	-0.13959807
192	0x3cb0fd9d	0.021605307
193	0x3d525cbd	0.051357973
194	0xbd3c1401	-0.045917515
195	0xbc7f490f	-0.015581383
196	0x3d7fd6f5	0.06246086
197	0xbd583afb	-0.052790623
198	0x3d95fd34	0.07323685
199	0xbbb4e2b8	-0.005520191
200	0xba54d7d1	-0.00081193174
201	0xbc2efa77	-0.010679833
202	0xbde96da3	-0.11397865
203	0x3dbbc823	0.091690324
204	0x3db4efe2	0.088348165
205	0xbc4aa99e	-0.012369541
206	0xbc86e6df	-0.01646751
207	0x3d36b491	0.044605795
208	0x3d3d34c8	0.046192914
209	0x3cac874c	0.021060608
210	0xbcb24465	-0.021761129
211	0x3e1fcac3	0.15604691
212	0xbc71739e	-0.014737038
213	0x3d29ad1b	0.041424852
214	0x3d3719e9	0.044702444
215	0x3e1dfbdf	0.15428112
216	0xbd8a7583	-0.06760695
217	0x3d002bad	0.031291652
218	0x3dd0bada	0.10191889
219	0xbaf88708	-0.0018961141
220	0x3d94050f	0.07227527
221	0xba81f53a	-0.0009915002
222	0xbc480ff3	-0.012210834
223	0x3de418be	0.11137532
224	0xbdae52ad	-0.08511863
225	0xbd12d797	-0.035850134
226	0xbd7c76e4	-0.06163682
227	0xbbaadbf6	-0.0052142097
228	0xbde58dd9	-0.11208696
229	0x3c7037a1	0.0146617
230	0x3d221cc7	0.039578225
231	0x3d426771	0.04746193
232	0x3e238076	0.15966973
233	0x3d4fed9c	0.05076371
234	0x3d898214	0.067142636
235	0xbd7157de	-0.058921687
236	0xbdbc7aa3	-0.092030786
237	0x3cd6d4f6	0.026224595
238	0x3de409d6	0.111346886
239	0x3c8aeca7	0.016958548
240	0xbda52572	-0.08063783
241	0xbd753c89	-0.059872184
242	0xbd22ff23	-0.0397941
243	0xbdeeeff9	-0.11666865
244	0x3d51911e	0.051163785
245	0xbdb94b12	-0.09047522
246	0xbda7d4ab	-0.0819486
247	0x3be4469e	0.006966426
248	0xbc378c17	-0.011202834
249	0xbc95605d	-0.018234426
250	0x3ce4a4dd	0.027910644
251	0x3dda69f4	0.1066474
252	0xbd9d3eb6	-0.07677977
253	0xbda7bcb0	-0.08190286
254	0xbcaee4d9	-0.021349357
255	0xbdca7788	-0.0988608

a2c_network.actor_mlp.2.bias f4 [128]
0	0x3edf2f7e	0.4359092
1	0x3d579e58	0.052641243
2	0x3dd89b91	0.10576547
3	0xbde2bdd5	-0.11071364
4	0x3cb5f108	0.02220966
5	0xbdc72f53	-0.09725823
6	0xbd9330fc	-0.071870774
7	0x3ca1ff32	0.019775007
8	0x3ed096d9	0.40740088
9	0x3e50c959	0.20389308
10	0xbe0ae4f9	-0.13563909
11	0xbd8328a4	-0.06404236
12	0x3dd66dee	0.10470186
13	0x3df7eff5	0.12106315
14	0xbe1649a9	-0.14676537
15	0x3def447f	0.116829865
16	0x3dd2435a	0.102667525
17	0xbd21ce68	-0.039503485
18	0xbbb2a73b	-0.0054520643
19	0xbd9dc30e	-0.07703219
20	0xbc9115b3	-0.017710542
21	0x3ed342a9	0.41261795
22	0x3daebb52	0.08531822
23	0x3e12a7f7	0.14321886
24	0x3cc8b1db	0.02449887
25	0xbcdbde3b	-0.026839366
26	0xbdae638a	-0.08515079
27	0xbf2e32ff	-0.68046564
28	0x3e6499d7	0.2232431
29	0x3d07ef7e	0.033187382
30	0x3de33573	0.11094179
31	0x3ecf06e6	0.4043495
32	0x3f046eec	0.51731753
33	0x3cae8c96	0.021307271
34	0xbd92c9e3	-0.07167413
35	0xbcc0ea8b	-0.023549339
36	0xbd8599b2	-0.06523456
37	0xbd7de6b7	-0.061987605
38	0xbdc2f63c	-0.09519622
39	0x3dab38a9	0.083604164
40	0xbe8fb57a	-0.28068143
41	0x3d8a46a2	0.067517534
42	0x3d92f695	0.07175938
43	0x3e0ed534	0.13948518
44	0xbc9122e8	-0.01771684
45	0xbdbc5a09	-0.0919686
46	0x3e0aedff	0.13567351
47	0xbde0b8f1	-0.10972775
48	0xbef95ba1	-0.4870272
49	0xbe90b051	-0.2825952
50	0x3da3aa17	0.079914264
51	0xbd2127c0	-0.03934455
52	0xbc73ebbd	-0.014887747
53	0x3bf8b27e	0.0075896373
54	0xbbb0bad9	-0.0053933677
55	0xbd610a4c	-0.05494146
56	0x3f01d765	0.5071929
57	0xbeef5d4a	-0.4675086
58	0xbda82afa	-0.08211322
59	0x3c922d6e	0.017843928
60	0x3deccbcc	0.11562309
61	0xbe1fc4b6	-0.15602383
62	0xbcc82039	-0.024429427
63	0xbe1bc65e	-0.1521239
64	0xbe001cd6	-0.12511
65	0x3dfb04c2	0.12256767
66	0xbdaeef60	-0.08541751
67	0x3e0c5da2	0.13707593
68	0x3d7041b5	0.058656413
69	0xbea1830e	-0.315453
70	0x3e7df4a9	0.24800362
71	0xbc3be7a6	-0.0114688035
72	0x3e52987c	0.2056598
73	0xbe931752	-0.2872873
74	0xbd23d93b	-0.04000209
75	0xbe2bcb04	-0.16776663
76	0x3de45cd3	0.11150517
77	0x3f0618e6	0.5238174
78	0x3f3637cd	0.71178895
79	0x3ce1ad8d	0.027548576
80	0x3dcfae90	0.10140717
81	0x3deb36ea	0.114850834
82	0xbd344587	-0.04401162
83	0x3e76182e	0.24032661
84	0x3f072bc4	0.52801156
85	0xbec00e15	-0.37510744
86	0x3ddf6e3d	0.10909698
87	0x3dec026f	0.11523902
88	0xbe2a3535	-0.1662186
89	0x3dc836a9	0.097760506
90	0x3bf8fa90	0.0075982288
91	0xbce8e721	-0.028430523
92	0xbea72742	-0.3264714
93	0x3e048a08	0.1294328
94	0x3ef460f0	0.47730207
95	0xbe7e43db	-0.24830572
96	0x3e528014	0.2055667
97	0x3d2251c0	0.039628744
98	0xbdf59bb7	-0.11992591
99	0xbdfa039a	-0.12207718
100	0xbf22afe1	-0.6354962
101	0xbe846f11	-0.25865987
102	0xbd9d3a13	-0.076770924
103	0x3d63bbb6	0.055598937
104	0xbd67a14b	-0.056550305
105	0xbdbcf3e2	-0.092262045
106	0xbec8e958	-0.39240527
107	0x3d37ad70	0.044843137
108	0xbe6fbfb8	-0.23412979
109	0x3bc42782	0.005986155
110	0x3d1d65fd	0.03842734
111	0x3eec15c5	0.4611036
112	0xbe2533b6	-0.16133007
113	0xbf0ef8a6	-0.5584816
114	0x3dcfcbb3	0.101462744
115	0x3dd19d7f	0.10235118
116	0xbd5825ac	-0.0527703
117	0xbde1b05d	-0.11019967
118	0xbc98ce60	-0.018653095
119	0xbea9b7e7	-0.3314812
120	0x3de057cf	0.10954248
121	0xbe207311	-0.15668894
122	0x3dba213f	0.090883724
123	0xbe182b39	-0.14860238
124	0x3f03e6ca	0.5152403
125	0xbdf1efb3	-0.11813297
126	0xbe240f33	-0.16021423
127	0x3e22d4c5	0.15901478

a2c_network.value.weight f4 [1, 128]
0	0x3ce17181	0.027519943
1	0xbb5a1b68	-0.0033280496
2	0xbba8e1b5	-0.0051538595
3	0x3aef64c6	0.0018264286
4	0x3ca5e6d2	0.020251665
5	0xbd2afc20	-0.04174435
6	0x3bc3c160	0.00597398
7	0xbd4aedf0	-0.04954332
8	0x3d672d3b	0.05643962
9	0x3cf4cb5b	0.029882124
10	0xbbc3f1b3	-0.0059797405
11	0x3c09c5f8	0.008409016
12	0x39ec75bc	0.00045101147
13	0xbc8a0870	-0.016849726
14	0xbc5e571d	-0.013570574
15	0xbd047ad9	-0.03234372
16	0x3c9c8119	0.019104527
17	0x3caba41c	0.020952277
18	0x3afbc8b8	0.0019209599
19	0xbb84d4c2	-0.004053683
20	0xbcc8ff3e	-0.024535771
21	0x3d89e2d6	0.06732719
22	0xbccea6be	-0.025225993
23	0x3c4478af	0.011991664
24	0xbca65057	-0.02030198
25	0xbc60c670	-0.013719186
26	0xbb94339b	-0.0045227534
27	0xbe09ad5e	-0.1344504
28	0xbe81a577	-0.25321552
29	0x3beea483	0.007282795
30	0x3cb2dcbf	0.021833776
31	0x3b66c335	0.0035211567
32	0xbc25c9bf	-0.010118901
33	0x3c1c888c	0.00955404
34	0x3e985a4f	0.297564
35	0xbcbb2e20	-0.022849143
36	0x3c679ddb	0.014136757
37	0xbba7ffff	-0.0051269527
38	0xbaf830bc	-0.0018935422
39	0xbc321a47	-0.010870523
40	0xbcae70b6	-0.02129398
41	0x3ca849d3	0.020543015
42	0xbc2fe857	-0.0107365465
43	0x3c480855	0.012209018
44	0x3e878881	0.26471332
45	0xbae9c7d7	-0.0017836046
46	0x3c9ece5f	0.019385515
47	0xbbf95250	-0.0076086894
48	0x3c8cf4e2	0.017206613
49	0xbeb76b3b	-0.35823998
50	0x3bd6585d	0.0065412954
51	0xbe83ecf0	-0.25766706
52	0x3b9dca87	0.004815403
53	0xbc8c081b	-0.017093709
54	0x3d0d1bb0	0.034450233
55	0xbcc40826	-0.023929667
56	0x3d1e9120	0.03871262
57	0x3d7cc183	0.061707985
58	0x3ce2ea0b	0.027699491
59	0xbaf7eeef	-0.0018915812
60	0x3cce25d8	0.02516453
61	0xbcb62324	-0.022233553
62	0xbc17b9d7	-0.009260616
63	0xbb42c94a	-0.0029722028
64	0xbd312589	-0.043248687
65	0xbda522b6	-0.08063261
66	0xbb18e13b	-0.0023327607
67	0xbcfb3667	-0.03066559
68	0x3bbc5f9e	0.005748703
69	0xbcc28aba	-0.02374779
70	0x3cb16a43	0.021657115
71	0x3c0a2a2e	0.008432908
72	0x3dd9784a	0.106186464
73	0x3dcca877	0.099930696
74	0xbc675d92	-0.01412143
75	0xbbdcd532	-0.006739282
76	0xbb6da825	-0.0036263552
77	0x3d6ba01d	0.057525743
78	0x3cb5181e	0.022106227
79	0xbefb6002	-0.49096686
80	0x3bcb6a21	0.00620772
81	0xbccb3227	-0.024804188
82	0xbb68261e	-0.003542311
83	0x3af96a18	0.0019028811
84	0x3d975361	0.0738895
85	0x3c9d76db	0.019221714
86	0xbc47bccc	-0.012191009
87	0xbe83bb5f	-0.2572889
88	0x3c025866	0.007955646
89	0xbc3287a6	-0.010896599
90	0xbc887e51	-0.016661795
91	0xbd12fc61	-0.03588522
92	0x3e9d5227	0.3072674
93	0x3b56d25f	0.00327792
94	0x3d9ccdda	0.076564506
95	0x3b535a48	0.0032249857
96	0x3c9aec21	0.018911423
97	0x3cb04247	0.021515979
98	0x3c3a5b09	0.011374244
99	0x3ccc5681	0.024943592
100	0xbe2629b7	-0.1622685
101	0xbd8ebda7	-0.06969767
102	0x3c64750a	0.01394392
103	0x3ee565c9	0.44804218
104	0xbd4ba083	-0.049713623
105	0xbc569ace	-0.013098432
106	0x3c6722ac	0.0141073875
107	0xbc1dfc10	-0.009642616
108	0x3dfe647a	0.12421508
109	0x3d168ce1	0.036755446
110	0x3dcd5ddd	0.100276686
111	0x3d1d29c4	0.03836991
112	0xbdd30772	-0.103041545
113	0x3cdc066a	0.026858527
114	0x3d19dfd5	0.03756698
115	0x3c67ede8	0.014155842
116	0x3a85fb10	0.0010221917
117	0x3cf9d8bf	0.03049886
118	0x3c460b3d	0.01208764
119	0x3def9de7	0.11700039
120	0x3b045898	0.0020194408
121	0xbbc04032	-0.0058670277
122	0x3c014eb8	0.007892303
123	0xbcb5de20	-0.022200644
124	0x3dd20373	0.10254564
125	0xbbe3dc69	-0.006953765
126	0xbb81b419	-0.003958237
127	0x3b315160	0.002705656

a2c_network.mu.weight f4 [2, 128]
0	0x3c233c50	0.00996311
1	0xba9eae79	-0.001210644
2	0xba6ed7fa	-0.00091111625
3	0xba2177d2	-0.0006159517
4	0xb9489630	-0.00019129436
5	0x3ca03692	0.019557271
6	0x39998235	0.00029279446
7	0x3d568dcb	0.052381318
8	0x3e4144ac	0.18873852
9	0x3d39e09a	0.045380212
10	0xbacfaa7b	-0.0015843654
11	0xba561e13	-0.00081679336
12	0x3a15eafe	0.00057189155
13	0x3b0573a4	0.0020363117
14	0x39d7b53d	0.0004114303
15	0x3de33d7e	0.11095713
16	0x3b0e4189	0.0021706542
17	0x3b391306	0.0028240099
18	0x3a9281db	0.0011177616
19	0xba436afb	-0.0007454601
20	0xbb33a168	-0.0027409438
21	0xbe2b7d27	-0.1674696
22	0xba7ebff3	-0.0009717934
23	0xba36f103	-0.00069786626
24	0x392cab36	0.0001646698
25	0xbaf3472b	-0.0018560638
26	0x39d5e240	0.00040795095
27	0xbe5ea03f	-0.21740817
28	0x3c8a2589	0.016863601
29	0x3a74d086	0.0009338934
30	0x3b8a6f9e	0.0042247316
31	0x3e1743bd	0.14771934
32	0x3d27b464	0.04094352
33	0xbafe3a89	-0.0019396107
34	0x3cd263d9	0.025682377
35	0xbdb1ca7d	-0.086812
36	0x3881055f	6.1522e-05
37	0xbb3702a4	-0.0027925158
38	0xb8c824cf	-9.543599e-05
39	0x3ac7aa7f	0.0015233307
40	0x3e4702dc	0.19434685
41	0xbe1e9620	-0.15486956
42	0x3e3e3c2b	0.1857764
43	0x3aa247b0	0.0012380984
44	0xbcc758c4	-0.024334319
45	0x395acd7d	0.0002086665
46	0x39f2df2c	0.00046324113
47	0x3b4cbaf0	0.0031239353
48	0xbd79456f	-0.060857233
49	0x3cb58f07	0.022162927
50	0xbb0e1b3d	-0.0021683716
51	0xbe1d7e9a	-0.15380326
52	0xbabb3a47	-0.0014284336
53	0xbb0f0f75	-0.0021829281
54	0x3b87dd6e	0.0041462695
55	0xbb98b7b9	-0.0046605733
56	0x3d8915bf	0.06693601
57	0xbcbf842d	-0.023378456
58	0x39e926aa	0.0004447003
59	0xb936de0c	-0.00017439591
60	0x3ad758b5	0.0016429635
61	0xbab9d448	-0.0014177645
62	0xb98fc7e4	-0.00027424016
63	0xbd812754	-0.06306329
64	0xbb3107dc	-0.0027012741
65	0xbbbf908a	-0.005846088
66	0x3a33dec7	0.00068615045
67	0xbbd9883d	-0.0066385553
68	0x3b26d62e	0.002545725
69	0xbe0d9548	-0.13826478
70	0x3e5507f5	0.20803817
71	0xbabe96e3	-0.0014540817
72	0xbce0c2d4	-0.027436651
73	0xbd0b9df6	-0.03408619
74	0x3afb8bc4	0.0019191434
75	0xbaa2771c	-0.0012395117
76	0xbad1447b	-0.0015965843
77	0x3e37d875	0.17953666
78	0x3d2c1d77	0.042020287
79	0x3b486c1d	0.0030582019
80	0xbafffe84	-0.0019530808
81	0xbd84c6a9	-0.06483204
82	0x3da88bc2	0.08229782
83	0x3dea80b9	0.11450333
84	0x3e014bc7	0.12626563
85	0xbe69dcf8	-0.22838199
86	0xba8aaf8a	-0.0010580879
87	0x3c86dedd	0.016463691
88	0x3d5b1176	0.05348345
89	0xbaa239bb	-0.0012376824
90	0xbb07cd0f	-0.002072159
91	0x3e227212	0.15863827
92	0x3d655ac5	0.055994768
93	0xbb3ca440	-0.0028784424
94	0xb9fd78da	-0.00048345962
95	0xbd0f47b4	-0.03498049
96	0x3b000972	0.001953688
97	0x3af1cf35	0.0018448593
98	0x3a0c0caa	0.0005342463
99	0x3d18139d	0.03712808
100	0xbd63a134	-0.055573657
101	0xbcbe837a	-0.023256052
102	0x3a94e17e	0.0011358706
103	0xbd0d24a4	-0.03445877
104	0xbbeee69f	-0.007290676
105	0xbaf9c97e	-0.0019057242
106	0x3d8266c9	0.06367261
107	0xba5837db	-0.0008248069
108	0xbc772aae	-0.015085859
109	0xb8e6f6f0	-0.0001101325
110	0xbd547386	-0.051867984
111	0x3d866291	0.06561769
112	0xba825f89	-0.0009946685
113	0xbb9a5699	-0.0047100303
114	0x3b218c17	0.002465015
115	0x3ab7a146	0.0014009855
116	0xb9c64775	-0.00037818743
117	0x3e0d287c	0.13784975
118	0x394a9f59	0.00019323583
119	0xb71b3e82	-9.253274e-06
120	0xbb57b974	-0.0032916935
121	0xb9fe5956	-0.00048513216
122	0x3ac5a67a	0.0015079521
123	0x3df90059	0.121582694
124	0xbd85e979	-0.06538672
125	0x3b01eb79	0.001982419
126	0x3ad3364a	0.0016114202
127	0xba568d06	-0.0008184466
128	0xbe905ef5	-0.28197446
129	0xba9a60bc	-0.0011778097
130	0xb98b824c	-0.00026609225
131	0xb99062cf	-0.00027539438
132	0xbaeb6b01	-0.0017960967
133	0xbdfc2d3e	-0.12313317
134	0x37c41d97	2.33788e-05
135	0x3d911b2e	0.07085262
136	0x3de45575	0.11149112
137	0x3ca61324	0.020272799
138	0x39d1775a	0.0003995251
139	0x3b33d418	0.002743965
140	0x3b29eb55	0.0025927622
141	0xbb09280d	-0.0020928413
142	0x3814d825	3.548725e-05
143	0xbcd37cff	-0.025816439
144	0xba132859	-0.0005613617
145	0xba609dfa	-0.0008568462
146	0xbb2cd397	-0.0026371235
147	0xba80fb35	-0.000984049
148	0x3a96093c	0.0011446844
149	0x3e27833b	0.16358654
150	0xbb91d291	-0.0044501503
151	0xb983f704	-0.00025170308
152	0xbafa1603	-0.0019080046
153	0x3a7c3725	0.0009621254
154	0x3b33a682	0.0027412479
155	0xbe212363	-0.15736155
156	0xbbb3166d	-0.00546532
157	0x3a40b6a0	0.0007351432
158	0xbb361ae4	-0.0027787024
159	0x3d3a921b	0.045549493
160	0x3de0d650	0.10978377
161	0xba89343b	-0.0010467836
162	0xbc11a0ab	-0.008888404
163	0x3b876dd1	0.004132964
164	0xbb0c9c8b	-0.0021455612
165	0xbabe2dba	-0.0014509477
166	0xbb1219d1	-0.002229322
167	0xb93b5098	-0.00017863733
168	0xbe5f2c8a	-0.21794334
169	0xbd24cd98	-0.040235132
170	0xbd27d62a	-0.040975727
171	0xba5a215f	-0.0008321013
172	0x3e019c08	0.12657177
173	0x38b73774	8.736449e-05
174	0xb9e96cc2	-0.00044522254
175	0xbb0d4b9c	-0.002155996
176	0xbd2e7e5c	-0.042600974
177	0x3cbedb7b	0.023298016
178	0x3ad96871	0.0016586912
179	0x3d52d5a5	0.05147328
180	0xbb185417	-0.002324348
181	0xba1ec856	-0.0006057074
182	0xbe312ae2	-0.17301515
183	0x3a58bc0f	0.0008267769
184	0xbdeffae3	-0.11717775
185	0xbdb483c5	-0.088141955
186	0x3ab9a80f	0.0014164465
187	0xbb3a3218	-0.0028411206
188	0x3b10684d	0.0022034824
189	0xbad77d0d	-0.0016440466
190	0xbaa2f050	-0.0012431238
191	0x3de896ce	0.11356889
192	0xbba434dc	-0.005011184
193	0xbb529ffa	-0.003213881
194	0x3acb9a20	0.0015533604
195	0xbe181508	-0.14851773
196	0x3ab375ae	0.0013691687
197	0xbe272fd3	-0.16326837
198	0x3dbe7d23	0.09301212
199	0x3a84f518	0.0010143844
200	0x3b84a927	0.004048485
201	0xbc43e47c	-0.01195633
202	0x3a03260e	0.0005002924
203	0x3b3ba48d	0.0028632015
204	0xb9e0af8c	-0.00042855402
205	0xbe13f869	-0.1445023
206	0x3dd4ccba	0.10390611
207	0xbbfa1386	-0.007631722
208	0x3b0bfd45	0.0021360677
209	0xbde6a92d	-0.112627365
210	0x3db1f7f7	0.08689874
211	0xbd6dec6e	-0.058086805
212	0x3d0924b7	0.03348228
213	0x3d97f484	0.074196845
214	0xbb1a6ac1	-0.0023562165
215	0xbbf70194	-0.00753803
216	0x3c7516cb	0.014959048
217	0xbaee067e	-0.0018159894
218	0x3a6432b1	0.00087050634
219	0xbe352019	-0.17688026
220	0x3d8f9533	0.07010879
221	0x39cf9166	0.00039590447
222	0x3d9f821e	0.0778849
223	0xbd9e9351	-0.07742942
224	0x39dee480	0.00042513385
225	0xba45dbe4	-0.000754772
226	0x3a10317e	0.0005500539
227	0x3ddf446f	0.109017245
228	0x3d56c0fb	0.052430134
229	0xbe055f05	-0.13024528
230	0x3b016b78	0.0019747894
231	0xbc834902	-0.016026024
232	0x3b33feca	0.0027465099
233	0xbaeb013d	-0.0017929446
234	0xbe4553ad	-0.19270201
235	0xbb58744b	-0.00330283
236	0x3c8e0016	0.017334025
237	0x3b3f2483	0.002916605
238	0x3d5fdd52	0.054654427
239	0xbb68d21e	-0.003552563
240	0xbb491108	-0.0030680317
241	0xbdd53a83	-0.10411551
242	0x3a317f86	0.00067710166
243	0xba95fccd	-0.0011443138
244	0xba46860e	-0.0007573076
245	0xbdfe0f5b	-0.124052726
246	0xba7d18e4	-0.0009654893
247	0xbcd20a99	-0.025639819
248	0xb9759349	-0.00023419889
249	0x3b966e54	0.004590789
250	0xba8a32ad	-0.0010543667
251	0xbd2752f3	-0.04085059
252	0xbe382be9	-0.179855
253	0x3aac779a	0.0013158203
254	0x3a5a6a07	0.00083318393
255	0xbaa86bc6	-0.0012849502

a2c_network.mu.bias f4 [2]
0	0x3ec21f08	0.379143
1	0x3db8c977	0.09022801

exp_avg f4 [2]
0	0xba1b71a0	-0.0005929712
1	0xba0710a8	-0.0005152323

exp_avg_sq f4 [2]
0	0x38169b14	3.5907215e-05
1	0x382b5c71	4.085567e-05

exp_avg f4 [128, 11]
0	0xb9042d05	-0.00012605272
1	0x38026bdc	3.1094867e-05
2	0x393c6f9d	0.00017970656
3	0x39dc4a4a	0.0004201702
4	0x39d95526	0.00041452906
5	0x3a000778	0.00048839254
6	0x00000000	0.0
7	0x00000000	0.0
8	0x00000000	0.0
9	0x00000000	0.0
10	0x00000000	0.0
11	0xb909f65f	-0.00013157119
12	0x3957d504	0.00020583352
13	0xb9382a71	-0.00017563418
14	0xb81ced71	-3.7414433e-05
15	0x38b5dea4	8.6722226e-05
16	0xb9de7442	-0.00042429758
17	0x00000000	0.0
18	0x00000000	0.0
19	0x00000000	0.0
20	0x00000000	0.0
21	0x00000000	0.0
22	0x3b0bd5db	0.0021337185
23	0x3a1bb01b	0.00059390225
24	0x39b087a6	0.00033670402
25	0xb9e7500b	-0.0004411939
26	0x3a5694fb	0.0008185652
27	0x3a46a32a	0.0007577414
28	0x00000000	0.0
29	0x00000000	0.0
30	0x00000000	0.0
31	0x00000000	0.0
32	0x00000000	0.0
33	0xbb032f27	-0.0020017119
34	0xba752e9a	-0.00093529525
35	0xb8eab3f6	-0.0001119151
36	0x39d86853	0.00041276458
37	0xbaaf76da	-0.0013386861
38	0xb9bb913c	-0.00035775627
39	0x00000000	0.0
40	0x00000000	0.0
41	0x00000000	0.0
42	0x00000000	0.0
43	0x00000000	0.0
44	0xb9106f8f	-0.00013774469
45	0xb8f7a673	-0.000118088814
46	0x399df950	0.00030131126
47	0xb8b1f780	-8.486118e-05
48	0x37fb3cb3	2.9949797e-05
49	0x3988666a	0.00026016246
50	0x00000000	0.0
51	0x00000000	0.0
52	0x00000000	0.0
53	0x00000000	0.0
54	0x00000000	0.0
55	0x3925c922	0.00015810554
56	0x3a3c6e4e	0.00071880675
57	0xb9ea98f2	-0.0004474591
58	0x39cb76bb	0.00038807638
59	0x3a0f6372	0.00054698356
60	0xb9a2ef51	-0.00031077352
61	0x00000000	0.0
62	0x00000000	0.0
63	0x00000000	0.0
64	0x00000000	0.0
65	0x00000000	0.0
66	0xb985151c	-0.00025383465
67	0xba455ef2	-0.00075291016
68	0x396a19fa	0.00022325656
69	0xb72a7feb	-1.0162573e-05
70	0xb9c44147	-0.0003743267
71	0xb9803c08	-0.0002445879
72	0x00000000	0.0
73	0x00000000	0.0
74	0x00000000	0.0
75	0x00000000	0.0
76	0x00000000	0.0
77	0xb8888f43	-6.51167e-05
78	0x3a9ffbd1	0.0012205784
79	0xb92e0cd2	-0.00016598709
80	0xba055022	-0.0005085488
81	0x3a722ddb	0.00092384004
82	0xb973f4ae	-0.00023265436
83	0x00000000	0.0
84	0x00000000	0.0
85	0x00000000	0.0
86	0x00000000	0.0
87	0x00000000	0.0
88	0xb927fd2b	-0.00016020674
89	0x38e40b2c	0.00010873968
90	0x36f7e605	7.3879514e-06
91	0xb7ba42c5	-2.220402e-05
92	0xb8a03158	-7.6385855e-05
93	0x39991526	0.0002919819
94	0x00000000	0.0
95	0x00000000	0.0
96	0x00000000	0.0
97	0x00000000	0.0
98	0x00000000	0.0
99	0xb9486701	-0.00019111858
100	0x39ef4132	0.00045634207
101	0xb9333dd3	-0.00017093802
102	0xb8cc2e95	-9.7361546e-05
103	0x38e19ddd	0.000107582404
104	0xb9f92b4a	-0.00047525234
105	0x00000000	0.0
106	0x00000000	0.0
107	0x00000000	0.0
108	0x00000000	0.0
109	0x00000000	0.0
110	0x3a93ebc1	0.001128547
111	0x3a3efdd5	0.0007285749
112	0xb76a1cf8	-1.3954232e-05
113	0xba24fb25	-0.0006293527
114	0x3ac36d00	0.0014909804
115	0x3927b14c	0.0001599241
116	0x00000000	0.0
117	0x00000000	0.0
118	0x00000000	0.0
119	0x00000000	0.0
120	0x00000000	0.0
121	0x39cb141b	0.00038734157
122	0x39115efe	0.00013863665
123	0xb99eefd1	-0.00030314786
124	0x39570b7d	0.00020508278
125	0x375756c4	1.28352e-05
126	0xb94618dc	-0.00018892012
127	0x00000000	0.0
128	0x00000000	0.0
129	0x00000000	0.0
130	0x00000000	0.0
131	0x00000000	0.0
132	0x3ab9d3cd	0.0014177501
133	0x3a82adea	0.0009970043
134	0x3908345d	0.00012989478
135	0x38b8271e	8.78109e-05
136	0x3a51e047	0.0008006137
137	0x3a2c5044	0.000657324
138	0x00000000	0.0
139	0x00000000	0.0
140	0x00000000	0.0
141	0x00000000	0.0
142	0x00000000	0.0
143	0xba371770	-0.00069843885
144	0xba6c47a3	-0.000901336
145	0xb9df1753	-0.00042551252
146	0x3a1b5525	0.0005925468
147	0xba66030e	-0.0008774259
148	0xba918262	-0.0011101479
149	0x00000000	0.0
150	0x00000000	0.0
151	0x00000000	0.0
152	0x00000000	0.0
153	0x00000000	0.0
154	0xb99664e1	-0.0002868539
155	0xb961b449	-0.00021524834
156	0x3908dcc7	0.00013052217
157	0x394abfd0	0.00019335677
158	0xb9618cf6	-0.00021510184
159	0xb857222f	-5.129183e-05
160	0x00000000	0.0
161	0x00000000	0.0
162	0x00000000	0.0
163	0x00000000	0.0
164	0x00000000	0.0
165	0xb9c07b24	-0.0003671284
166	0x39972c93	0.00028834175
167	0x38b76015	8.744017e-05
168	0xb929fecc	-0.00016212015
169	0xb8ba6d18	-8.8894914e-05
170	0xb8e5402c	-0.00010931524
171	0x00000000	0.0
172	0x00000000	0.0
173	0x00000000	0.0
174	0x00000000	0.0
175	0x00000000	0.0
176	0xb9089950	-0.00013027084
177	0x3a619a48	0.00086060585
178	0xb965452d	-0.00021864912
179	0xba3f0ed4	-0.00072882813
180	0x3906dae0	0.00012860773
181	0xb879443b	-5.942977e-05
182	0x00000000	0.0
183	0x00000000	0.0
184	0x00000000	0.0
185	0x00000000	0.0
186	0x00000000	0.0
187	0xb9e2a28d	-0.0004322719
188	0x3a6bc18e	0.00089933805
189	0xba482337	-0.0007634642
190	0xb831833d	-4.2322314e-05
191	0x39aee067	0.0003335506
192	0xba42078f	-0.0007401639
193	0x00000000	0.0
194	0x00000000	0.0
195	0x00000000	0.0
196	0x00000000	0.0
197	0x00000000	0.0
198	0x3988a1eb	0.0002606058
199	0xb9be7da0	-0.00036333222
200	0x393d3ebb	0.00018047814
201	0x388a1d44	6.585804e-05
202	0xb8a2d4b5	-7.764382e-05
203	0x399c8250	0.0002985173
204	0x00000000	0.0
205	0x00000000	0.0
206	0x00000000	0.0
207	0x00000000	0.0
208	0x00000000	0.0
209	0x39db36f1	0.0004181187
210	0x3aa06530	0.0012237187
211	0x371a0e9b	9.182516e-06
212	0xb98dce9f	-0.0002704756
213	0x3a89631f	0.0010481811
214	0xb96104cd	-0.0002145946
215	0x00000000	0.0
216	0x00000000	0.0
217	0x00000000	0.0
218	0x00000000	0.0
219	0x00000000	0.0
220	0xb994a44a	-0.00028351165
221	0x39cd6060	0.00039172452
222	0xba0bad08	-0.0005328213
223	0xb8dda761	-0.00010569278
224	0xb937858a	-0.00017501987
225	0xb98316b0	-0.0002500317
226	0x00000000	0.0
227	0x00000000	0.0
228	0x00000000	0.0
229	0x00000000	0.0
230	0x00000000	0.0
231	0xb992694d	-0.00027925745
232	0x390fe47f	0.00013722664
233	0x3973e540	0.00023259688
234	0xb701c993	-7.735932e-06
235	0x3962bbfd	0.0002162307
236	0x3a11a743	0.0005556235
237	0x00000000	0.0
238	0x00000000	0.0
239	0x00000000	0.0
240	0x00000000	0.0
241	0x00000000	0.0
242	0x39a5f49c	0.000316535
243	0x39079c12	0.00012932744
244	0xb977b08b	-0.00023621523
245	0x37182c28	9.070187e-06
246	0x399404f7	0.0002823246
247	0xba6b512a	-0.0008976633
248	0x00000000	0.0
249	0x00000000	0.0
250	0x00000000	0.0
251	0x00000000	0.0
252	0x00000000	0.0
253	0x38b38d54	8.5617095e-05
254	0x39669754	0.00021990883
255	0xb9ce6e5c	-0.00039373606

exp_avg_sq f4 [128, 11]
0	0x36f8315a	7.3967212e-06
1	0x37481ff0	1.1928365e-05
2	0x370e89ca	8.495941e-06
3	0x36a47979	4.901722e-06
4	0x36e600a9	6.854611e-06
5	0x376003d7	1.33523345e-05
6	0x00000000	0.0
7	0x00000000	0.0
8	0x00000000	0.0
9	0x00000000	0.0
10	0x00000000	0.0
11	0x37e2ea65	2.7050448e-05
12	0x374d8926	1.22508845e-05
13	0x37205476	9.556408e-06
14	0x37510015	1.245739e-05
15	0x370d2e00	8.414965e-06
16	0x37a5111d	1.9677502e-05
17	0x00000000	0.0
18	0x00000000	0.0
19	0x00000000	0.0
20	0x00000000	0.0
21	0x00000000	0.0
22	0x399c599f	0.00029821412
23	0x3924ad77	0.0001570488
24	0x38acf2a9	8.246798e-05
25	0x39043974	0.00012609904
26	0x38cfe4e5	9.913164e-05
27	0x399dc6a4	0.00030093372
28	0x00000000	0.0
29	0x00000000	0.0
30	0x00000000	0.0
31	0x00000000	0.0
32	0x00000000	0.0
33	0x3a0db77f	0.0005406066
34	0x39942c77	0.0002826189
35	0x3930da4d	0.00016865991
36	0x397f25a6	0.0002433272
37	0x39101b7b	0.00013743147
38	0x39f8d9fe	0.00047464663
39	0x00000000	0.0
40	0x00000000	0.0
41	0x00000000	0.0
42	0x00000000	0.0
43	0x00000000	0.0
44	0x37466939	1.1826219e-05
45	0x370081b1	7.659591e-06
46	0x36a1a146	4.8169486e-06
47	0x369998b0	4.5775305e-06
48	0x36a1d3ef	4.822846e-06
49	0x37390317	1.1027579e-05
50	0x00000000	0.0
51	0x00000000	0.0
52	0x00000000	0.0
53	0x00000000	0.0
54	0x00000000	0.0
55	0x386509e1	5.4607055e-05
56	0x37a156cd	1.9233115e-05
57	0x376b02b3	1.400772e-05
58	0x37a59aed	1.9741676e-05
59	0x3781581b	1.5419026e-05
60	0x38194d46	3.655001e-05
61	0x00000000	0.0
62	0x00000000	0.0
63	0x00000000	0.0
64	0x00000000	0.0
65	0x00000000	0.0
66	0x38046f95	3.157517e-05
67	0x37642e4d	1.3600639e-05
68	0x37347155	1.0755223e-05
69	0x37613ea5	1.3425631e-05
70	0x36f0fe26	7.182144e-06
71	0x37eb5343	2.8052955e-05
72	0x00000000	0.0
73	0x00000000	0.0
74	0x00000000	0.0
75	0x00000000	0.0
76	0x00000000	0.0
77	0x3991c502	0.00027803337
78	0x395af787	0.00020882311
79	0x39254861	0.0001576259
80	0x39307b61	0.0001683063
81	0x3898212a	7.254102e-05
82	0x3994b87d	0.00028366214
83	0x00000000	0.0
84	0x00000000	0.0
85	0x00000000	0.0
86	0x00000000	0.0
87	0x00000000	0.0
88	0x383abeb1	4.452345e-05
89	0x37f6d6c8	2.94255e-05
90	0x37e27b94	2.6998845e-05
91	0x37ab8650	2.0447333e-05
92	0x37bd8dec	2.2596643e-05
93	0x3839d994	4.4310073e-05
94	0x00000000	0.0
95	0x00000000	0.0
96	0x00000000	0.0
97	0x00000000	0.0
98	0x00000000	0.0
99	0x38c06591	9.174192e-05
100	0x3885514a	6.3570755e-05
101	0x38676bde	5.517515e-05
102	0x385a03f4	5.1978932e-05
103	0x38030620	3.123854e-05
104	0x38ca6fd2	9.652939e-05
105	0x00000000	0.0
106	0x00000000	0.0
107	0x00000000	0.0
108	0x00000000	0.0
109	0x00000000	0.0
110	0x397228dd	0.00023094141
111	0x396d17b1	0.00022610907
112	0x38e73fed	0.000110268455
113	0x390802fb	0.00012971081
114	0x38c913f7	9.5881456e-05
115	0x3997118d	0.0002881404
116	0x00000000	0.0
117	0x00000000	0.0
118	0x00000000	0.0
119	0x00000000	0.0
120	0x00000000	0.0
121	0x37cb7f5b	2.425879e-05
122	0x370a8b80	8.257921e-06
123	0x36924158	4.358746e-06
124	0x3710006f	8.58317e-06
125	0x36b557ee	5.4044567e-06
126	0x378d6fbe	1.6860544e-05
127	0x00000000	0.0
128	0x00000000	0.0
129	0x00000000	0.0
130	0x00000000	0.0
131	0x00000000	0.0
132	0x392feb28	0.00016776903
133	0x38b117da	8.4444604e-05
134	0x38617359	5.3751606e-05
135	0x38c66154	9.4595045e-05
136	0x38887daa	6.508392e-05
137	0x3963202f	0.00021660396
138	0x00000000	0.0
139	0x00000000	0.0
140	0x00000000	0.0
141	0x00000000	0.0
142	0x00000000	0.0
143	0x390b19e6	0.00013265721
144	0x38e6ca63	0.00011004952
145	0x3885f0b2	6.386767e-05
146	0x38b26b45	8.507682e-05
147	0x384fb6f5	4.9523038e-05
148	0x395231df	0.00020045739
149	0x00000000	0.0
150	0x00000000	0.0
151	0x00000000	0.0
152	0x00000000	0.0
153	0x00000000	0.0
154	0x37d3288e	2.5172045e-05
155	0x3774c0f1	1.4588456e-05
156	0x370cf10b	8.4007725e-06
157	0x3726525f	9.91355e-06
158	0x36cbde6f	6.075766e-06
159	0x37a7dfef	2.0012229e-05
160	0x00000000	0.0
161	0x00000000	0.0
162	0x00000000	0.0
163	0x00000000	0.0
164	0x00000000	0.0
165	0x3792f477	1.7518394e-05
166	0x37299ecf	1.01101605e-05
167	0x36fdd073	7.5642542e-06
168	0x370efbbf	8.522474e-06
169	0x36f99018	7.437553e-06
170	0x3788e8f6	1.6320944e-05
171	0x00000000	0.0
172	0x00000000	0.0
173	0x00000000	0.0
174	0x00000000	0.0
175	0x00000000	0.0
176	0x3843739d	4.6599296e-05
177	0x38582414	5.1532013e-05
178	0x381e7cc2	3.7786325e-05
179	0x38089e59	3.25724e-05
180	0x37d761bf	2.5675514e-05
181	0x388b0021	6.6280605e-05
182	0x00000000	0.0
183	0x00000000	0.0
184	0x00000000	0.0
185	0x00000000	0.0
186	0x00000000	0.0
187	0x38ca8b29	9.658031e-05
188	0x3897fd37	7.247406e-05
189	0x3881c18b	6.1872495e-05
190	0x386ef8db	5.6975387e-05
191	0x3818ea17	3.6457637e-05
192	0x38d84a73	0.0001031355
193	0x00000000	0.0
194	0x00000000	0.0
195	0x00000000	0.0
196	0x00000000	0.0
197	0x00000000	0.0
198	0x38b05bbc	8.409421e-05
199	0x383fc400	4.5720488e-05
200	0x380a26ed	3.2938016e-05
201	0x38028ff5	3.1128486e-05
202	0x380b23fa	3.317369e-05
203	0x389871e8	7.2691415e-05
204	0x00000000	0.0
205	0x00000000	0.0
206	0x00000000	0.0
207	0x00000000	0.0
208	0x00000000	0.0
209	0x3982105b	0.00024807718
210	0x393b4909	0.00017860917
211	0x39092615	0.00013079525
212	0x3914cdb0	0.00014191004
213	0x389c6709	7.4578515e-05
214	0x39898f06	0.00026237237
215	0x00000000	0.0
216	0x00000000	0.0
217	0x00000000	0.0
218	0x00000000	0.0
219	0x00000000	0.0
220	0x36a812a4	5.00896e-06
221	0x36a663df	4.958812e-06
222	0x363d7aa7	2.8234588e-06
223	0x35dc264d	1.6402424e-06
224	0x3693f7f4	4.409807e-06
225	0x36cec1fe	6.161862e-06
226	0x00000000	0.0
227	0x00000000	0.0
228	0x00000000	0.0
229	0x00000000	0.0
230	0x00000000	0.0
231	0x374f6954	1.2362685e-05
232	0x36a6c5a0	4.970192e-06
233	0x36193554	2.2829818e-06
234	0x368d3937	4.208788e-06
235	0x36a58b73	4.933617e-06
236	0x374894a5	1.1955538e-05
237	0x00000000	0.0
238	0x00000000	0.0
239	0x00000000	0.0
240	0x00000000	0.0
241	0x00000000	0.0
242	0x38d1c54f	0.00010002648
243	0x38432437	4.652535e-05
244	0x381999a1	3.662112e-05
245	0x384fe726	4.956792e-05
246	0x37d612b2	2.5519494e-05
247	0x38a08a65	7.6551725e-05
248	0x00000000	0.0
249	0x00000000	0.0
250	0x00000000	0.0
251	0x00000000	0.0
252	0x00000000	0.0
253	0x3761db41	1.3462094e-05
254	0x36ec6b87	7.045866e-06
255	0x368c2444	4.176547e-06

exp_avg f4 [128]
0	0x3a066b26	0.00051276607
1	0x39a2e950	0.0003107288
2	0xb90b3e14	-0.00013279199
3	0xba0628c7	-0.00051177706
4	0x390e6f6a	0.0001358368
5	0x39a02e60	0.0003055213
6	0x39adb875	0.00033134563
7	0xb98de2b3	-0.0002706252
8	0xba0ff11d	-0.0005490946
9	0xba36b06c	-0.0006969038
10	0x3a812bb7	0.0009854947
11	0x3882128b	6.202337e-05
12	0xb9852f2f	-0.0002540289
13	0x39ab6eb6	0.00032698148
14	0x38d9121c	0.000103507395
15	0xba0cf004	-0.0005376341
16	0xba706e1b	-0.00091716804
17	0xb9c6d1d9	-0.00037921852
18	0xb90dcd69	-0.00013523329
19	0x392752c7	0.00015957198
20	0xb9ec3fbf	-0.00045060922
21	0xb98749b3	-0.00025804117
22	0xb7e05f98	-2.6747395e-05
23	0x390057ee	0.00012239788
24	0xba175fda	-0.0005774476
25	0x389bdc3c	7.431998e-05
26	0xb9003f91	-0.00012230712
27	0xb88a6df2	-6.600832e-05
28	0xb9a77d36	-0.00031946012
29	0xb87d5dc6	-6.0407234e-05
30	0x3a260037	0.00063324295
31	0x392f5b52	0.0001672332
32	0x3a617f92	0.00086020783
33	0x3a4aae6f	0.0007731681
34	0xb968eac0	-0.00022212695
35	0x3a8120a0	0.0009851642
36	0xba39710b	-0.00070740347
37	0xba219044	-0.000616316
38	0xba040d2b	-0.00050373626
39	0x39db9d0a	0.00041887938
40	0x3a0552d1	0.0005085888
41	0x3aa0b2fc	0.0012260373
42	0x3a0c6c96	0.0005356757
43	0x39b4e957	0.00034506127
44	0x3955239e	0.00020326531
45	0xb877b0c9	-5.9054033e-05
46	0x39117617	0.0001387227
47	0xba1076bc	-0.0005510857
48	0xb9c52dbf	-0.00037608852
49	0xb9e8e5f1	-0.00044421808
50	0x39ee4d4e	0.00045452494
51	0x397fa28c	0.00024379248
52	0xb9a70005	-0.00031852737
53	0x3aa933f2	0.0012909158
54	0xba11c86d	-0.0005561177
55	0xba09c867	-0.00052559975
56	0x39fe3c54	0.00048491603
57	0x39423c2d	0.00018523699
58	0xbaa0be53	-0.0012263752
59	0xba330f68	-0.0006830604
60	0xb79bae54	-1.8558618e-05
61	0xba14db1c	-0.0005678402
62	0x39ae7a40	0.0003327895
63	0x3a926406	0.0011168725
64	0x395051b9	0.0001986687
65	0x38b23aa9	8.498628e-05
66	0x3991de0f	0.00027822002
67	0xba0360c3	-0.0005011672
68	0xb8a855f0	-8.0268714e-05
69	0x3a8e1299	0.0010839283
70	0x39c477f8	0.00037473417
71	0xbab82481	-0.0014048965
72	0x3a0f402c	0.00054645794
73	0x39d2c9c3	0.00040204645
74	0xb8aa6063	-8.124185e-05
75	0x37c07eaa	2.2947166e-05
76	0xba34ab20	-0.00068919547
77	0x39857aa4	0.0002545911
78	0x398fea61	0.0002744971
79	0xba518b66	-0.0007993489
80	0xb9d17dbf	-0.00039957275
81	0xb85c9314	-5.2589065e-05
82	0x3a20e929	0.0006138259
83	0x392e6037	0.00016629776
84	0x3a6a1f52	0.00089310587
85	0xba0cf4d3	-0.0005377058
86	0x3a01cc17	0.0004951371
87	0xb9b68889	-0.00034815472
88	0xb9b4f3d0	-0.0003451393
89	0x3a7aae4e	0.00095627166
90	0xb9770a62	-0.00023559624
91	0xb9c68815	-0.00037866892
92	0xb88fbaef	-6.8535905e-05
93	0x39af8a97	0.0003348186
94	0x3a21199b	0.0006145478
95	0xb9aa240f	-0.00032451793
96	0xba2b6267	-0.00065377954
97	0x39f4230c	0.0004656542
98	0xb9d115b3	-0.00039879754
99	0xba21dec3	-0.00061748567
100	0xba4dfc1a	-0.00078576955
101	0xb9e38e30	-0.00043402752
102	0xb9dcd810	-0.0004212265
103	0xb9f8e172	-0.00047470216
104	0x3817720b	3.6107416e-05
105	0x39d48538	0.00040535047
106	0x39ea0110	0.0004463275
107	0xb833dd84	-4.2883228e-05
108	0x39133080	0.0001403708
109	0xba44a5d4	-0.0007501517
110	0xb99375de	-0.00028125843
111	0xb7c05424	-2.2927365e-05
112	0xba433ed6	-0.0007448023
113	0x399d8a9c	0.00030048646
114	0xb77163b8	-1.4387937e-05
115	0x3a62d976	0.000865362
116	0x3a755bbd	0.00093596784
117	0xba089045	-0.0005209486
118	0x3a516435	0.00079876493
119	0xba75809e	-0.0009365174
120	0x3a0800b6	0.0005188094
121	0xb96f1220	-0.00022799568
122	0x39ae1e6d	0.00033210535
123	0x3911f025	0.00013917738
124	0xba2f9fa7	-0.000669951
125	0xb9e69881	-0.00043982643
126	0xba3e93aa	-0.00072699285
127	0x3a04f6b5	0.00050721626
