kingfisher_rl/config/test.pth (torch, 235685 bytes, 36 tensors)

value_mean_std.running_mean f8 [1]
0	0x3fe4c1d991f85a97	0.6486633158663889

value_mean_std.running_var f8 [1]
0	0x3fb08c022a4f0cce	0.06463635952882216

value_mean_std.count f8 []
0	0x4197980004000000	98959361.0

running_mean_std.running_mean_std.masks.running_mean f8 [2]
0	0x0000000000000000	0.0
1	0x0000000000000000	0.0

running_mean_std.running_mean_std.masks.running_var f8 [2]
0	0x3e55b35e9294ba3f	2.0210316230615915e-08
1	0x3e55b35e9294ba3f	2.0210316230615915e-08

running_mean_std.running_mean_std.masks.count f8 []
0	0x4187980008000000	49479681.0

running_mean_std.running_mean_std.state.running_mean f8 [10]
0	0x3fe420851a6ab766	0.6289697185472789
1	0x3fe6b65a1c1230c6	0.7097597645056559
2	0x3f59f0df0ce541c4	0.0015833070970821964
3	0x3f65d73d3160e4e4	0.002666110532143594
4	0xbf88cce20683f060	-0.012109533141931361
5	0x0000000000000000	0.0
6	0xbfa46d4ca3a0df90	-0.039896388029261876
7	0xbfb6c8ff2346718b	-0.08900446521005827
8	0x0000000000000000	0.0
9	0x0000000000000000	0.0

running_mean_std.running_mean_std.state.running_var f8 [10]
0	0x3fb39ced4cb6e265	0.07661326525602304
1	0x3f989aa599b80973	0.024027431018120503
2	0x3f9d48492eae94cd	0.028596061205139734
3	0x3fa0080b9779edc0	0.03131138061595662
4	0x3f8e5915314f002a	0.014818349425581873
5	0x3e55b35e9294ba3f	2.0210316230615915e-08
6	0x3ff05657f52bfaa3	1.0210799767516299
7	0x3fef0fa9b84e2ced	0.9706619834627453
8	0x3e55b35e9294ba3f	2.0210316230615915e-08
9	0x3e55b35e9294ba3f	2.0210316230615915e-08

running_mean_std.running_mean_std.state.count f8 []
0	0x4187980008000000	49479681.0

running_mean_std.running_mean_std.transforms.running_mean f8 [2, 5]
0	0x0000000000000000	0.0
1	0x0000000000000000	0.0
2	0x0000000000000000	0.0
3	0x0000000000000000	0.0
4	0x0000000000000000	0.0
5	0x0000000000000000	0.0
6	0x0000000000000000	0.0
7	0x0000000000000000	0.0
8	0x0000000000000000	0.0
9	0x0000000000000000	0.0

running_mean_std.running_mean_std.transforms.running_var f8 [2, 5]
0	0x3e55b35e9294ba3f	2.0210316230615915e-08
1	0x3e55b35e9294ba3f	2.0210316230615915e-08
2	0x3e55b35e9294ba3f	2.0210316230615915e-08
3	0x3e55b35e9294ba3f	2.0210316230615915e-08
4	0x3e55b35e9294ba3f	2.0210316230615915e-08
5	0x3e55b35e9294ba3f	2.0210316230615915e-08
6	0x3e55b35e9294ba3f	2.0210316230615915e-08
7	0x3e55b35e9294ba3f	2.0210316230615915e-08
8	0x3e55b35e9294ba3f	2.0210316230615915e-08
9	0x3e55b35e9294ba3f	2.0210316230615915e-08

running_mean_std.running_mean_std.transforms.count f8 []
0	0x4187980008000000	49479681.0

a2c_network.sigma f4 [2]
0	0xc03e6ec7	-2.9755113
1	0xc030231a	-2.7521424

a2c_network.actor_mlp.0.weight f4 [128, 10]
0	0x3f2809c3	0.65639895
1	0x3c320f9e	0.010867981
2	0xbddc2589	-0.10749347
3	0x3e842d67	0.2581589
4	0xbd9ffb60	-0.07811618
5	0x3d82afc5	0.06381182
6	0xbf05dc5a	-0.52289355
7	0x3f0f0337	0.5586428
8	0x3e8ebaba	0.27876836
9	0xbe6d8fba	-0.23199359
10	0x3f04652d	0.5171688
11	0xbd69aa7c	-0.057047352
12	0x3e8650f1	0.26233628
13	0x3e46e07e	0.19421574
14	0x3d320bc0	0.043468237
15	0xbd36e15d	-0.044648517
16	0x3e9c5347	0.30532286
17	0xbe939535	-0.28824773
18	0xbe172bba	-0.14762774
19	0x3da514b8	0.080605924
20	0xbeb71420	-0.35757542
21	0xbcc7e7f2	-0.024402592
22	0xbe07f822	-0.13278249
23	0x3e83ead7	0.25765106
24	0xbe86a29c	-0.26295936
25	0xbe154879	-0.14578427
26	0xbdb9b2ed	-0.090673305
27	0xbe64a614	-0.22328979
28	0x3cf480c8	0.029846564
29	0xbe9fe9ec	-0.31233156
30	0x3f039ce8	0.51411295
31	0xbf0502d9	-0.5195747
32	0x3e5671a4	0.20941788
33	0x3de2e3c9	0.11078603
34	0xbe00e41f	-0.12587021
35	0x3e481a54	0.19541293
36	0xbde6b25b	-0.11264487
37	0x3ed47c5d	0.41501132
38	0x3d0d9930	0.03456992
39	0xbdcc3f1d	-0.099729754
40	0x3e57f0f8	0.21088016
41	0x3c2ceaae	0.010553999
42	0xbddb35e9	-0.10703642
43	0x3e7338d4	0.23752147
44	0x3d6e3085	0.05815174
45	0xbe0d9062	-0.13824609
46	0x3e92af1b	0.2864922
47	0x3d771d98	0.060330957
48	0x3e24721c	0.16059154
49	0xbe455e45	-0.19274242
50	0xbedd2303	-0.43190774
51	0xbdb46fc7	-0.08810382
52	0xbea56447	-0.32303068
53	0x3ec05629	0.37565735
54	0xbd2a3251	-0.04155189
55	0x3e062126	0.13098583
56	0x3ebae711	0.36504415
57	0xbdc9ba5a	-0.09849997
58	0x3e7d6c0b	0.24748246
59	0xbe661398	-0.22468412
60	0x3ee7a30d	0.45241585
61	0xbdc0f502	-0.094217315
62	0xbd71c44b	-0.05902509
63	0x3d10daaf	0.035364803
64	0xbd84a3a9	-0.06476528
65	0xbd86eddb	-0.06588336
66	0x3f19580b	0.5989997
67	0xbeca82ce	-0.3955292
68	0xbe411fbb	-0.1885976
69	0xbe4122b7	-0.18860899
70	0x3eb3c7d1	0.35113385
71	0x395d2e59	0.00021093468
72	0x3ec3281e	0.38116544
73	0xbe99655e	-0.2996015
74	0xbe9ec43f	-0.310091
75	0xbe7d57c6	-0.24740514
76	0xbf2b5518	-0.6692672
77	0x3f08d382	0.53447735
78	0x3de7e6fb	0.11323353
79	0x3e8688a8	0.26276135
80	0xbf24c7e0	-0.64367485
81	0xbe0008f7	-0.1250342
82	0x3a329c25	0.00068134285
83	0x3d14c61d	0.036321748
84	0x3d8f7979	0.07005591
85	0xbd99af1f	-0.07504105
86	0x3f00674a	0.50157607
87	0xbf88c813	-1.0686058
88	0xbe236a0f	-0.15958427
89	0x3dc572d0	0.09641039
90	0xbd8d47f9	-0.06898493
91	0xbe4a2c17	-0.19743381
92	0x3c9291a1	0.017891707
93	0x3ea4121a	0.3204506
94	0xbd0d25e4	-0.034459963
95	0xbe2ce02f	-0.16882394
96	0x3f90c533	1.131018
97	0xbe63ed8b	-0.22258584
98	0xbde598d7	-0.112107925
99	0xbe9ca973	-0.3059803
100	0xbea9a66d	-0.33134785
101	0x3d64d229	0.055864487
102	0x3ddac598	0.10682219
103	0xbe66cdcf	-0.22539447
104	0x3d93de05	0.07220081
105	0xbe5d318d	-0.21600933
106	0xbebcb3f0	-0.3685603
107	0xbc6f17ae	-0.014593048
108	0xbe8db452	-0.27676636
109	0xbe4e2fcf	-0.20135425
110	0x3ecd2f6a	0.40075237
111	0x3e08daa3	0.13364653
112	0x3bd8a2fe	0.006611227
113	0xbe203bdb	-0.15647833
114	0xbe02fcaa	-0.12791696
115	0xbdd791a3	-0.10525825
116	0xbd92144c	-0.071327776
117	0xbed3692b	-0.41291174
118	0xbe0b862c	-0.13625401
119	0xbe41dbf5	-0.18931563
120	0x3e3fc7f2	0.18728617
121	0xbe8c4726	-0.27398032
122	0x3d5262dc	0.05136381
123	0xbe23ffa3	-0.16015486
124	0xbe62970a	-0.2212793
125	0xbe3cea62	-0.18448785
126	0xbdf634aa	-0.120217636
127	0xbec55fb6	-0.38549584
128	0x3e87c168	0.26514745
129	0xbd80883b	-0.06275984
130	0x3deb1290	0.1147815
131	0x3e2de666	0.16982421
132	0xbe00074b	-0.12502782
133	0x3eb6d5cf	0.35709998
134	0xbd93ba32	-0.07213248
135	0xbdf84152	-0.12121834
136	0xbf105813	-0.5638439
137	0xbed2b137	-0.4115083
138	0x3db94b8c	0.090476125
139	0xbd8d78c6	-0.06907801
140	0x3ead4d95	0.33848253
141	0xbed3e41a	-0.41384965
142	0x3e191350	0.14948773
143	0xbe871acd	-0.26387635
144	0xbd2803b0	-0.04101914
145	0x3d87456e	0.066050395
146	0x3e293329	0.16523422
147	0x3d7c4253	0.06158669
148	0x3e937dfe	0.28807062
149	0xbe806184	-0.250744
150	0x3e2e0ec8	0.16997826
151	0xbe0aec69	-0.13566746
152	0xbe3857cb	-0.1800224
153	0xbde49b48	-0.1116243
154	0x3d9d4e61	0.07680965
155	0xbe6daa73	-0.23209552
156	0x3e1bf96c	0.15231866
157	0x3e4dcc56	0.20097479
158	0x3dd273e2	0.10276009
159	0xbe2f1210	-0.17096734
160	0x3edbde78	0.42943168
161	0x3d3ccedc	0.046095714
162	0x3e773ba0	0.24143839
163	0xbea1fd5f	-0.3163862
164	0x3db0c908	0.08632094
165	0xbd425128	-0.047440678
166	0xbf2f32e6	-0.6843704
167	0x3f9ddd95	1.2333246
168	0x3d9063aa	0.070502594
169	0xbe332912	-0.17496136
170	0xbe74e0c9	-0.23913874
171	0xbe09e50c	-0.1346628
172	0x3e9dc61a	0.30815202
173	0xbe8865b9	-0.26640108
174	0xbe3b61de	-0.18299052
175	0xbdddc71e	-0.10828994
176	0xbf378c12	-0.71698105
177	0x3e8f2499	0.2795761
178	0x3e7aa5c7	0.24477302
179	0xbe986d64	-0.29770958
180	0x3f0303be	0.51177585
181	0x3e9ac295	0.3022658
182	0x3b2a2c42	0.002596632
183	0x3dfea8b7	0.124345236
184	0x3e09db1f	0.13462494
185	0x3e2a2b94	0.16618186
186	0x3e2da766	0.16958389
187	0xbed7ff41	-0.4218693
188	0xbdab7e93	-0.083737515
189	0x3d0a91ae	0.033830337
190	0xbec1b7d1	-0.37835553
191	0x3dbe6c41	0.092979915
192	0xbe4d86db	-0.20070975
193	0x3e5b1f3d	0.21398635
194	0xbe171e51	-0.14757659
195	0xbd9100da	-0.070802405
196	0x3ec91309	0.39272335
197	0xbcfff3ed	-0.031244243
198	0x3d9bb2d9	0.07602472
199	0x3db57d2c	0.08861765
200	0xbe85fbfd	-0.26168814
201	0xbe84c961	-0.2593489
202	0x3e8c9119	0.2745445
203	0x3e0031ee	0.12519047
204	0xbd67bdf2	-0.05657763
205	0xbe433b35	-0.19065554
206	0xbf142e97	-0.5788359
207	0xbf24874b	-0.6426894
208	0xbdd31ac0	-0.103078365
209	0x3ddab578	0.10679144
210	0x3ec16fe1	0.3778067
211	0xbbcd5c40	-0.0062671006
212	0x3d8ce955	0.06880442
213	0xbd949f60	-0.07256961
214	0xbdbfb31a	-0.09360333
215	0x3e9c9f4a	0.30590278
216	0x3d853271	0.065037616
217	0x3ba6201c	0.0050697457
218	0x3e05f7d7	0.13082825
219	0xbdf6ac09	-0.12044532
220	0xbef80119	-0.48438337
221	0x3ed1ab63	0.4095107
222	0xbe4f624d	-0.20252343
223	0xbd12d346	-0.035846017
224	0xbe830835	-0.255922
225	0x3e58b8ab	0.21164195
226	0x3f36b699	0.7137237
227	0x3e9ae86d	0.30255452
228	0xbe61ca16	-0.22049746
229	0xbe9fcb48	-0.3120978
230	0xbf011b01	-0.5043183
231	0x3e9e3041	0.3089619
232	0xbdb3643a	-0.08759351
233	0x3ea320db	0.31861004
234	0xbdfafbe0	-0.122550726
235	0x3da3e945	0.08003477
236	0x3db95a53	0.09050431
237	0xbefc2031	-0.4924331
238	0xbe8ab803	-0.27093515
239	0xbe9770e5	-0.2957832
240	0x3ec526b9	0.38506106
241	0xbe3c6edc	-0.18401664
242	0x3dc8e03b	0.098083936
243	0xbde9e77b	-0.114211045
244	0xbdbf37bf	-0.093368046
245	0xbe63e9f3	-0.22257213
246	0xbf18b818	-0.59655905
247	0x3de669b4	0.1125063
248	0xbdc07981	-0.09398175
249	0x3e47e807	0.19522105
250	0x3ec61e02	0.3869477
251	0xbf603ad2	-0.8758975
252	0x3d8e960c	0.06962213
253	0x3d1dea8a	0.038553752
254	0xbd00f824	-0.031486645
255	0xbe9a22e4	-0.30104744

a2c_network.actor_mlp.0.bias f4 [128]
0	0xbed363f9	-0.4128721
1	0xbe557ed9	-0.2084917
2	0x3dc8a449	0.0979696
3	0xbcd315bd	-0.025767202
4	0xbe06d472	-0.13166979
5	0x3d8884d2	0.066659585
6	0xbdc3f5fd	-0.09568403
7	0xbd7e4426	-0.06207671
8	0x3eac40a4	0.33643067
9	0x3e3d41b2	0.18482092
10	0x3df94d98	0.12173003
11	0xbd2c7a10	-0.042108595
12	0x3dffc44c	0.124886125
13	0x3db096b6	0.08622496
14	0xbd973f43	-0.07385113
15	0xbeb35092	-0.35022408
16	0xbd8454b9	-0.06461472
17	0xbe44750e	-0.19185278
18	0xbe2dbdd1	-0.1696694
19	0x3d8352d8	0.064122856
20	0x3e75ad0c	0.23991793
21	0x3d612bf8	0.054973572
22	0xbd9dae74	-0.0769929
23	0xbd638fa5	-0.055556912
24	0xbc81d074	-0.015846469
25	0x3e366b23	0.17814307
26	0xbdecd7b2	-0.11564578
27	0xbe0b14f6	-0.13582215
28	0x3c591554	0.013249714
29	0x3de4f03d	0.11178634
30	0xbb67af71	-0.0035352374
31	0xbe37bea3	-0.17943816
32	0x3eb94eae	0.3619284
33	0xbe2430a4	-0.1603418
34	0xbe4fef8c	-0.20306224
35	0x3d0b7653	0.03404839
36	0x3e598135	0.21240695
37	0xbd9a1c6f	-0.075249545
38	0x3e2fa1f7	0.17151628
39	0x3d1852c6	0.037188314
40	0x3cf8e613	0.030383145
41	0xbcdac2d7	-0.026704235
42	0x3d5a316b	0.053269785
43	0xbb81c146	-0.0039598076
44	0x3dfc71ad	0.123263694
45	0xbd1161e3	-0.035493743
46	0x3d350f54	0.04420407
47	0x3e57a297	0.21058117
48	0xbc92fb78	-0.017942175
49	0xbda0f6e9	-0.078595944
50	0x3d6f140d	0.05836873
51	0xbe449731	-0.191983
52	0xbdee1718	-0.116254985
53	0x3cbfb0d2	0.023399744
54	0xbdcf0d3e	-0.101099476
55	0x3c58c781	0.013231159
56	0xbb82d748	-0.0039929487
57	0x3e1ae61a	0.1512684
58	0xbdc3c55c	-0.09559128
59	0x3d6c2040	0.057647943
60	0x3e97a2a8	0.29616284
61	0x3c8dc7eb	0.017307242
62	0xbd84809b	-0.06469842
63	0x3e35a452	0.17738464
64	0x3cff2561	0.031145753
65	0xbde4854c	-0.11158237
66	0x3cfd3c89	0.030912654
67	0xbc20462a	-0.009782353
68	0xbd2179a5	-0.03942265
69	0xbd0a5e45	-0.03378131
70	0xbde06ae5	-0.109578885
71	0xbc0ba71a	-0.008523727
72	0x3dae9594	0.085246235
73	0x3d9bd9f6	0.07609932
74	0x3c9288dc	0.017887525
75	0xbd2c2b39	-0.042033408
76	0x3d0731f3	0.03300662
77	0x3cae306f	0.02126333
78	0xbd55eded	-0.052228857
79	0x3d78caab	0.060740154
80	0x3d145bff	0.036220547
81	0xbe2b6b41	-0.16740133
82	0x3ce0197b	0.0273559
83	0x3d8b452e	0.06800304
84	0xbe2c6f0b	-0.16839235
85	0xbcebddf0	-0.028792351
86	0xbe0a2f5e	-0.13494632
87	0x3d82997b	0.0637693
88	0xbd551c7f	-0.05202913
89	0xbd66a9cb	-0.05631427
90	0xbdd224fe	-0.10260962
91	0x3d3a4360	0.04547441
92	0x3e35bfe4	0.17748982
93	0xbcd55c98	-0.026045129
94	0x3e545f81	0.20739557
95	0x3e25fe81	0.16210367
96	0x3d7c1c48	0.06155041
97	0xbc5ffd90	-0.013671294
98	0xbd9f5a60	-0.077809095
99	0xbe005a42	-0.1253443
100	0x3d4259d4	0.047448948
101	0xbdab4670	-0.08363044
102	0x3ea971fe	0.33094782
103	0xbcb70099	-0.022339152
104	0x3d070ca5	0.032971043
105	0xbe0d2f42	-0.13787559
106	0x3e0ccae1	0.13749267
107	0xbc43fd9f	-0.011962323
108	0xbe10f0fb	-0.14154427
109	0xbe5d37dc	-0.2160334
110	0x3e184a3c	0.14872068
111	0x3e07779e	0.13229224
112	0xbe25cfd4	-0.16192561
113	0xbe2cb8fb	-0.1686744
114	0x3e8fe5e9	0.28105095
115	0xbdf17788	-0.11790377
116	0x3d2bd29e	0.041948907
117	0xbe2249d7	-0.1584848
118	0x3c974d24	0.0184694
119	0x3e2e3ee6	0.17016181
120	0x3ce02b17	0.027364297
121	0xbc077b32	-0.008269118
122	0xbdc1e32a	-0.09467156
123	0xbe294b76	-0.16532692
124	0x3e023b17	0.12717853
125	0x3da06c25	0.07833127
126	0xbda82915	-0.08210961
127	0xbc92a8bf	-0.01790273

a2c_network.actor_mlp.2.weight f4 [128, 128]
0	0x3e2e5633	0.1702507
1	0xbf075bf2	-0.5287467
2	0x3b854063	0.0040665134
3	0xbbe23678	-0.006903466
4	0xbecd5a7b	-0.40108094
5	0xbe6441e9	-0.22290768
6	0xbefcc01e	-0.49365324
7	0x3ea02440	0.31277657
8	0xbec8bc14	-0.39205992
9	0xbe94775c	-0.28997314
10	0x3ecfb1c6	0.40565318
11	0xbd901627	-0.07035475
12	0x3e5ad17a	0.21368971
13	0x3c7dae73	0.0154834865
14	0xbe7e851e	-0.24855468
15	0xbe9c817a	-0.30567533
16	0x3f0ddf16	0.5541853
17	0x3e804cae	0.25058502
18	0xbf434962	-0.7628385
19	0x3d8f09d1	0.06984294
20	0xbca1f800	-0.019771576
21	0xbd5146b4	-0.05109282
22	0x3e881a51	0.26582578
23	0xbe23e4d3	-0.16005258
24	0x3e1ec73a	0.15505686
25	0xbdf42057	-0.11920231
26	0xbe27aa53	-0.16373567
27	0x3ca9f834	0.020748235
28	0x3ee3ac79	0.44467524
29	0x3eca79ec	0.39546144
30	0x3e600183	0.21875577
31	0x3d732723	0.059363496
32	0x3d12e39e	0.035861604
33	0x3ef19ef7	0.47191593
34	0xbef239fb	-0.4730986
35	0xbe7a9447	-0.24470626
36	0xbeaa112b	-0.33216223
37	0x3c17f4f0	0.009274706
38	0xbd0af609	-0.033926044
39	0x3ea26e8b	0.31724963
40	0x3e6b7941	0.22995473
41	0x3e6f63ed	0.23377962
42	0xbe94ff93	-0.29101238
43	0xbd71438f	-0.05890232
44	0x3f340b73	0.7032997
45	0x3e96d2ee	0.29457802
46	0x3e61bbaa	0.22044244
47	0x3d81e198	0.06341857
48	0xbf289074	-0.6584542
49	0xbe194543	-0.14967827
50	0x3e019476	0.1265429
51	0xbf473cd7	-0.7782721
52	0xbed01b13	-0.40645656
53	0x3d7837ca	0.06060008
54	0xbdd03d89	-0.10167987
55	0xbcebb60e	-0.028773334
56	0x3e569229	0.20954193
57	0x3f1a9253	0.60379523
58	0xbd552e77	-0.052046265
59	0x3b181c32	0.0023210165
60	0x3eebc237	0.46046612
61	0xbefaada7	-0.4896061
62	0x3db089bf	0.08620023
63	0x3e745f77	0.23864542
64	0xbed3c4d6	-0.4136111
65	0xbe6cfafc	-0.23142618
66	0xbdd5fa9b	-0.1044819
67	0x3d984922	0.07435824
68	0x3d3254d5	0.043537933
69	0xbd639120	-0.055558324
70	0xbe69b2d8	-0.2282213
71	0xbf0447ff	-0.5167236
72	0xbf482f01	-0.7819672
73	0xbe0f41c7	-0.13989936
74	0xbf618fe9	-0.88110214
75	0xbd907b31	-0.07054747
76	0xbe46d779	-0.19418134
77	0x3e351231	0.1768272
78	0xbebfe98c	-0.3748287
79	0x3f407b5e	0.75188243
80	0x3dcb9cf6	0.09942047
81	0xbd1ef53c	-0.038808092
82	0xbe94b0af	-0.2904105
83	0x3dee5a7c	0.11638352
84	0xbee792bd	-0.4522914
85	0xbea17c20	-0.31540012
86	0xbeb4ea1c	-0.3533486
87	0xbe072d76	-0.13200936
88	0xbf3e9a85	-0.7445453
89	0xbe2f30ab	-0.17108409
90	0x3de8a5fb	0.11359783
91	0x3f0cd372	0.5501014
92	0x3f3150f8	0.69264174
93	0x3e93e18e	0.28883022
94	0x3ed09d06	0.407448
95	0x3eac9ea6	0.3371479
96	0x3d8083b4	0.062751204
97	0x3ef82b91	0.4847074
98	0x3d6a3053	0.05717499
99	0xbe44fdbd	-0.19237418
100	0xbc876c94	-0.016531266
101	0x3e4866fd	0.19570537
102	0xbdbf376d	-0.093367435
103	0xbf1adb50	-0.60490894
104	0x3eb262ab	0.34840903
105	0xbe09140d	-0.13386555
106	0x3f20d410	0.6282358
107	0xbe02b0ba	-0.12762728
108	0x3c5e2d0a	0.013560543
109	0x3e466a84	0.1937657
110	0xbc69b52f	-0.014264389
111	0x3f01c327	0.50688404
112	0x3df4a3b4	0.119452864
113	0x3eb566fa	0.35430127
114	0x3e8b95f6	0.2726285
115	0x3e5c368d	0.21505184
116	0x3e7d70df	0.24750088
117	0xbe98c388	-0.29836679
118	0x3cd13424	0.025537558
119	0x3ea9fdf9	0.33201578
120	0xbea5a100	-0.32349396
121	0xbedbf417	-0.42959663
122	0x3e8763a4	0.26443207
123	0x3e8390fd	0.25696555
124	0x3ee1ed9f	0.44126603
125	0x3eb74d14	0.35800993
126	0x3eb43096	0.35193318
127	0xbda370a3	-0.07980468
128	0x3cde41de	0.027131017
129	0x3c93e382	0.01805282
130	0xbca93c3c	-0.020658605
131	0xbdc524a3	-0.096261285
132	0xbcfc7936	-0.030819517
133	0xbc141849	-0.009038993
134	0xbd070427	-0.032962944
135	0x3e1dd9ea	0.15415159
136	0x3d82a9fa	0.06380077
137	0x3d894f6d	0.067046024
138	0x3ceb3c47	0.028715266
139	0x3d8845ac	0.06653914
140	0xbd84f515	-0.06492058
141	0xbd2a1533	-0.041524123
142	0xbd1c2f49	-0.038131032
143	0x3cc7ec1b	0.024404576
144	0x3d13a05c	0.036041602
145	0x3bba7efe	0.005691408
146	0x3cdb132f	0.026742546
147	0x3c9ed796	0.019389909
148	0xbd5204db	-0.05127416
149	0xbda8dabe	-0.08244847
150	0xbd36ab2e	-0.044596843
151	0xbd741688	-0.0595918
152	0x3c5aad7a	0.013347024
153	0x3dace128	0.08441383
154	0x3dabec78	0.08394712
155	0xbd57a601	-0.052648548
156	0x3d510ab9	0.051035617
157	0xbd2b16c3	-0.041769754
158	0x3c63fe14	0.013915557
159	0x3d1e1093	0.038590025
160	0xbb161416	-0.0022900156
161	0xbcb84c1a	-0.022497226
162	0xbd262661	-0.040563945
163	0x3d8d8dc1	0.06911803
164	0xbdaf8517	-0.08570307
165	0xbccdc017	-0.02511601
166	0xbc511559	-0.012761437
167	0xbd95684b	-0.07295283
168	0xbbf78bb3	-0.0075544952
169	0x3d9f20ac	0.077699035
170	0xbdbf8b4d	-0.093527414
171	0x3c884b2b	0.016637405
172	0xbd76f2a2	-0.060289986
173	0xbe035904	-0.12826926
174	0xbdb71210	-0.08938992
175	0x3b1b544e	0.0023701373
176	0xbdb20241	-0.08691836
177	0x3d70df9f	0.05880701
178	0xbd511e0f	-0.051054057
179	0xbd23d78b	-0.04000048
180	0x3cf389f8	0.029728875
181	0x3d1dc069	0.038513575
182	0xbdbcb70f	-0.09214603
183	0x3d8eab50	0.06966269
184	0x3d9166b2	0.07099666
185	0xbda95b35	-0.082693495
186	0x3dd49b77	0.10381215
187	0x3d8fd4e1	0.07023025
188	0xbd4fa437	-0.050693717
189	0x3c56b2fd	0.013104198
190	0xbdc56b7b	-0.09639641
191	0x3baafcc2	0.0052181194
192	0xbd8e78ef	-0.0695666
193	0x3dd1ba30	0.102405906
194	0xbdea6bf3	-0.11446371
195	0xbd37b6e2	-0.044852145
196	0x3d51d3fe	0.051227562
197	0x3e05f27a	0.13080779
198	0xbd02f3e3	-0.03197087
199	0x3c24434f	0.010025813
200	0xbc874f3a	-0.01651727
201	0xbbe4f1ff	-0.006986856
202	0xbd83a95c	-0.06428787
203	0xbcfc35cf	-0.030787377
204	0x3d11cc8d	0.035595465
205	0xbcb5ea87	-0.022206558
206	0x3d715975	0.058923203
207	0xbcf1f17b	-0.029534092
208	0xbd7e79e9	-0.06212798
209	0x3b4aab24	0.0030924762
210	0x3de77661	0.11301876
211	0x3bff9859	0.0078001437
212	0xbde44ade	-0.11147092
213	0xbd6e0c38	-0.05811712
214	0x3b35b626	0.0027726977
215	0x3cf5a10e	0.029984023
216	0x3cd650bf	0.02616155
217	0xbd24f71b	-0.04027472
218	0x3d577458	0.05260119
219	0xbd8750d1	-0.066072114
220	0x3d2d800c	0.042358443
221	0x3dad255d	0.08454392
222	0x3c38cfe2	0.011280032
223	0xbdd2f5be	-0.10300778
224	0xbd2b36c3	-0.04180027
225	0x3e20c267	0.15699159
226	0xbd4a82ef	-0.049441274
227	0xbd1d8c55	-0.03846391
228	0xbd76b5ce	-0.060231976
229	0x3b7748bb	0.003773256
230	0x3d40152e	0.0468952
231	0x3d81736e	0.063208446
232	0xbcf959dc	-0.030438356
233	0x3d70664d	0.05869131
234	0xbd99f1cd	-0.07516823
235	0x3d38f4fc	0.04515551
236	0x3ca4cf39	0.020118343
237	0xbe40b418	-0.188187
238	0x3dc23b90	0.09484017
239	0xbcde085e	-0.0271036
240	0x3cc31667	0.023814393
241	0xbba358cd	-0.004984951
242	0xbc1f5381	-0.009724499
243	0xbd2deb29	-0.042460594
244	0x3d76f149	0.0602887
245	0xbdac440c	-0.084114164
246	0x3cef6dab	0.029227098
247	0xbdda7199	-0.10666198
248	0x3c667724	0.014066491
249	0xbddff53c	-0.109354466
250	0x3e0a7510	0.13521218
251	0xbd6a15d2	-0.057149716
252	0x3a6ff4f0	0.0009153625
253	0xba5d80e0	-0.0008449685
254	0x3c748bfe	0.014925955
255	0x3d33276f	0.04373878

a2c_network.actor_mlp.2.bias f4 [128]
0	0xbd8a3ec1	-0.067502506
1	0xbcd6a3e7	-0.026201202
2	0x3ed82a3f	0.4221973
3	0xbca71ca1	-0.020399394
4	0xbd9d8c87	-0.07692819
5	0x3d4d40c1	0.050110582
6	0x3e39717e	0.181097
7	0xbe350159	-0.17676295
8	0x3e085713	0.13314466
9	0xbcf4bb45	-0.029874453
10	0xbca06c78	-0.019582972
11	0xbdd1c537	-0.10242694
12	0x3e6a3a1b	0.22873728
13	0xbe70ced9	-0.23516406
14	0xbc85cce8	-0.016333058
15	0x3d904f42	0.07046367
16	0x3e3a6471	0.18202378
17	0x3d0e8c7a	0.034801938
18	0xbd8df0c9	-0.06930692
19	0xbe4612f4	-0.19343168
20	0x3cc550ad	0.02408632
21	0x3c8bc3d9	0.01706116
22	0xbc18a8c6	-0.0093175825
23	0x3c4a2f62	0.0123403985
24	0xbe248703	-0.16067128
25	0xbeeb521b	-0.4596108
26	0xbe2b51dc	-0.16730446
27	0x3dc9fa1d	0.098621584
28	0xbd445d3b	-0.047940474
29	0xbebf77c1	-0.37396052
30	0x3d46bb6a	0.048518576
31	0xbcd315fc	-0.025767319
32	0xbcfe33df	-0.031030593
33	0x3d94731e	0.07248519
34	0xbd9ec9ab	-0.07753309
35	0x3ed6acf1	0.4192882
36	0x3d1fd2ef	0.03901952
37	0xbdccdcfd	-0.10003088
38	0x3cb2c54e	0.021822598
39	0x3d70f560	0.058827758
40	0x3dc6c01a	0.09704609
41	0xbdf25ab9	-0.1183371
42	0xbe6c511c	-0.23077816
43	0x3d8bf238	0.06833309
44	0x3e17ce85	0.14824875
45	0x3d4e90e1	0.050431136
46	0x3d60250d	0.054722834
47	0x3c272cda	0.010203565
48	0x3e30e6b6	0.17275509
49	0xbd36cad4	-0.044627026
50	0x3d3e9629	0.046529923
51	0xbe2fe334	-0.17176515
52	0x3b5e88a2	0.0033955951
53	0xbd2d6616	-0.042333685
54	0x3e070d89	0.13188757
55	0x3dd85c73	0.10564508
56	0xbdf93190	-0.121676564
57	0x3d277db9	0.040891383
58	0xbd0908a1	-0.033455495
59	0x3ee4bdc4	0.4467603
60	0xbe0435ab	-0.12911098
61	0xbd42d220	-0.047563672
62	0x3c3b4c66	0.011431789
63	0x3d64294d	0.05570345
64	0xbd3460b7	-0.044037547
65	0x3c235680	0.009969354
66	0xbd2c250f	-0.04202753
67	0x3ea16558	0.31522632
68	0xbd079cf5	-0.03310867
69	0x3e2b3f16	0.16723284
70	0xbf2b5b63	-0.6693632
71	0x3dea0649	0.1142698
72	0x3f0f4fe4	0.5598128
73	0xbd2000f2	-0.0390634
74	0x3d8fa029	0.0701297
75	0xbe08f368	-0.13374102
76	0xbd72742e	-0.05919283
77	0xbcb9a069	-0.022659497
78	0xbbc53beb	-0.0060191057
79	0x3d22a136	0.039704524
80	0x3d5f1e90	0.054472506
81	0x3d5bf663	0.05370177
82	0xbd440a3e	-0.04786133
83	0xbc1731a5	-0.009228145
84	0xbded4189	-0.115847655
85	0x3d549942	0.05190397
86	0x3c865776	0.016399126
87	0x3e00cad7	0.12577377
88	0xbdab9201	-0.083774574
89	0xbe628c47	-0.22123824
90	0xbe02d35b	-0.12775938
91	0xbdd3890f	-0.10328876
92	0x3df1fe65	0.118161
93	0xbd0c6036	-0.03427144
94	0xbe8cf57c	-0.2753104
95	0xbc00d44f	-0.007863118
96	0xbec474e2	-0.38370425
97	0x3cc39f27	0.0238796
98	0x3b87ad63	0.0041405424
99	0x3d4bc200	0.04974556
100	0xbde86944	-0.11348203
101	0x3e158308	0.14600766
102	0xbe111993	-0.14169912
103	0x3d03101f	0.031997796
104	0xbcce8584	-0.02521015
105	0xbdb86455	-0.09003512
106	0xbe40bdbd	-0.1882238
107	0x3e3180ba	0.17334262
108	0x3d263ce5	0.040585417
109	0x3b8f83b8	0.004379716
110	0xbd3c5efa	-0.045989014
111	0xbd8071bf	-0.06271695
112	0x3d72f393	0.05931432
113	0x3de5c458	0.1121909
114	0xbe5665d4	-0.20937282
115	0xbe070481	-0.13185312
116	0x3d2cf5e3	0.042226683
117	0x3db23ca1	0.0870297
118	0x3d0f28eb	0.03495113
119	0x3d3d6b9f	0.046245214
120	0x3d9e15b8	0.07718986
121	0x3cd94d25	0.026526043
122	0xbd32e64c	-0.04367666
123	0x3d9c0cdf	0.076196425
124	0x3d3e4a0d	0.04645734
125	0x3d0eb290	0.03483826
126	0x3e751c57	0.23936592
127	0x3e0f97cf	0.14022754

a2c_network.value.weight f4 [1, 128]
0	0xbdb8b2b1	-0.09018458
1	0x3d05849a	0.03259716
2	0x3d94317a	0.072359994
3	0x3d2bb27b	0.04191826
4	0x3c4ef6dd	0.012632099
5	0x3c8ca23f	0.017167209
6	0xbe6f3b70	-0.23362517
7	0x3d0db86c	0.034599707
8	0x3cd96f7c	0.026542418
9	0x3c3af37a	0.011410588
10	0x3c8e34f9	0.017359244
11	0x3d41411c	0.047181234
12	0x3c2999bc	0.010351595
13	0xbd2dd28c	-0.04243712
14	0x3c89db84	0.016828306
15	0xbe070e20	-0.13188982
16	0xba1c25e0	-0.00059565715
17	0xba48d2ab	-0.00076607865
18	0xba87017f	-0.0010300128
19	0x3dc82c70	0.09774101
20	0x3d575a87	0.052576568
21	0xbc7fad6f	-0.015605315
22	0x3bbfcd76	0.0058533503
23	0xbcbb98c4	-0.022899993
24	0x3cc5ec39	0.024160491
25	0xbe65be81	-0.22435953
26	0xbeb726a6	-0.35771674
27	0xbe487959	-0.1957754
28	0x3c3fd66d	0.011708838
29	0xbc9f80e8	-0.019470647
30	0x3d9e88ac	0.07740912
31	0xbd120b35	-0.03565522
32	0x3e06de6a	0.13170782
33	0xbbbacc0b	-0.0057005933
34	0xbc5d6512	-0.013512867
35	0x3e0e2a2b	0.13883273
36	0xbbfd9c31	-0.0077395667
37	0x3db1b287	0.086766295
38	0xbba32d3e	-0.0049797585
39	0xbc92d1ec	-0.017922364
40	0xbd24e856	-0.040260635
41	0xbcb7eeab	-0.022452673
42	0xbdb5e520	-0.08881593
43	0x3c87e49d	0.016588503
44	0xbc39e3a1	-0.011345775
45	0xbc033c57	-0.008009992
46	0xbc0311d0	-0.007999852
47	0x3ccf5561	0.025309267
48	0xbdeaedb7	-0.11471122
49	0x3d0edce0	0.03487861
50	0xbcef1b2c	-0.029187761
51	0xbc983774	-0.01858113
52	0xbc21b2c0	-0.0098692775
53	0x3dc07ae7	0.09398442
54	0xbd9d4c0c	-0.076805204
55	0x3c02c0ac	0.007980507
56	0x3cf277d2	0.02959815
57	0xbc339c81	-0.010962606
58	0x3be64993	0.0070278137
59	0xbdcba264	-0.09943083
60	0x3dcb67cb	0.09931906
61	0xbb857cb3	-0.004073703
62	0x3d1e799c	0.038690194
63	0x3c79e672	0.015252696
64	0x3c0198bd	0.007909951
65	0xbbf21949	-0.007388268
66	0xbb4d5b83	-0.0031335063
67	0x3d3030a3	0.043015134
68	0x3c043f6b	0.008071761
69	0xbddfefcb	-0.10934409
70	0xbe3fa992	-0.1871703
71	0xbe523c37	-0.20530783
72	0x3e35235e	0.17689273
73	0x3c332c88	0.01093591
74	0x3c998f83	0.01874519
75	0x3c97b14d	0.01851716
76	0x3ccf2d28	0.025290087
77	0x3d8f008d	0.06982527
78	0x3c09e0f4	0.008415449
79	0xbc26a923	-0.010172161
80	0xbd2ea0de	-0.042633884
81	0xbc8f0047	-0.017456187
82	0xbd358f2f	-0.044326004
83	0x3de5c64c	0.11219463
84	0x3c9bc2b0	0.019013733
85	0xbc897038	-0.016777143
86	0xbc015c6a	-0.007895568
87	0xbd43ac4d	-0.04777174
88	0x3c8b24a0	0.016985238
89	0x3ea105e8	0.3144982
90	0xbcc97e67	-0.024596406
91	0x3d50987f	0.05092668
92	0xbd6c8250	-0.057741463
93	0x3d62f1c1	0.055406336
94	0xbcd0c661	-0.02548522
95	0xbc1b9f9a	-0.009498501
96	0xbe91a291	-0.2844434
97	0xbc1d7c27	-0.00961212
98	0x3cdd1b32	0.026990507
99	0x3bd97f31	0.006637477
100	0x3dca7c15	0.09886948
101	0xbd0b8172	-0.034058996
102	0xbb36f7b3	-0.0027918636
103	0xbcc7a557	-0.024370832
104	0x3b848583	0.004044236
105	0x3cfd18b7	0.030895574
106	0x3c6e137b	0.014531012
107	0xbc9fbf1f	-0.019500313
108	0x3cb638d6	0.022243898
109	0xbcd58478	-0.026064143
110	0xbc465a51	-0.012106494
111	0x3cbc22b6	0.02296577
112	0xbc0746b4	-0.008256603
113	0xbc40b03d	-0.0117607685
114	0xbd6f5ff9	-0.058441136
115	0x3d302b68	0.043010145
116	0xbc528e81	-0.012851358
117	0xbcd29a6c	-0.0257084
118	0xbd8244bb	-0.063607655
119	0xbc8ce6a8	-0.01719983
120	0xbda18a35	-0.07887689
121	0x3c594ca0	0.013262898
122	0x3c03c062	0.008041473
123	0xbc748f12	-0.014926689
124	0x3b917a89	0.004439656
125	0x3c5d3fd5	0.013503988
126	0x3e09d416	0.1345981
127	0x3dd78a04	0.10524371

a2c_network.mu.weight f4 [2, 128]
0	0x3e7f5e81	0.24938394
1	0x3b38140c	0.002808812
2	0x3e210066	0.15722808
3	0x3d9b2377	0.07575124
4	0x3ab70b36	0.0013965133
5	0x3d395802	0.045249946
6	0x376b6a7b	1.4031883e-05
7	0x3dda1e71	0.106503375
8	0xbda4eed5	-0.08053366
9	0xbabfa25f	-0.0014620534
10	0x3a65ca0a	0.0008765763
11	0xba88d404	-0.0010439162
12	0xbe0fb195	-0.14032586
13	0xbd30c8ba	-0.043160178
14	0xbac1dd64	-0.0014790711
15	0xbb413880	-0.002948314
16	0xbd9d983d	-0.07695053
17	0x38b03df0	8.403871e-05
18	0x3d7acca7	0.061230328
19	0xbb19ca27	-0.002346644
20	0xbdd3682e	-0.10322605
21	0xb8dee781	-0.00010628906
22	0xbaac51d4	-0.0013146945
23	0xbaf382e1	-0.0018578434
24	0x3b01c3dd	0.0019800582
25	0xbe8cb0b3	-0.2747856
26	0x3c6a27e2	0.014291735
27	0x3d22dfaa	0.039764084
28	0xbdf089ad	-0.117450096
29	0xbdc7d7a9	-0.09757931
30	0xbb468830	-0.0030293576
31	0xbaa06b31	-0.0012238977
32	0x3d7db7c6	0.061942838
33	0xba62543b	-0.0008633767
34	0xbcd29c6e	-0.025709357
35	0xbbd6b5fe	-0.006552457
36	0xbad4b182	-0.0016227218
37	0xbb0529fd	-0.0020319216
38	0xbad2e3ed	-0.0016089656
39	0x3e184331	0.14869381
40	0x394cc170	0.00019527017
41	0x3ac74604	0.0015203361
42	0x3e221db1	0.15831639
43	0x3d0dce33	0.034620475
44	0x3b44f62b	0.0030053954
45	0xb89f6105	-7.599782e-05
46	0xba84f954	-0.0010145106
47	0xb9b42d9e	-0.00034366263
48	0xbafbbf7f	-0.001920685
49	0xbab319ab	-0.0013664266
50	0x3b9c1031	0.0047626724
51	0xbe3cbb7c	-0.18430895
52	0x3b946e8a	0.004529779
53	0xbc6a65ec	-0.014306527
54	0x3b218ee0	0.002465181
55	0x3bba7471	0.0056901504
56	0xb90b02e5	-0.00013257151
57	0x38e8534d	0.00011078138
58	0x3b659dbd	0.0035036646
59	0xbde003f8	-0.10938257
60	0x3b921d88	0.004459087
61	0xbc10df0c	-0.008842241
62	0x3bedc7c8	0.007256482
63	0x3c9a2479	0.01881622
64	0xbc266824	-0.010156665
65	0x3a36e4e0	0.0006976854
66	0x3d2aa7ad	0.041663814
67	0x3e7ec2de	0.24879023
68	0x3af338c1	0.0018556343
69	0xb9e20923	-0.00043112886
70	0x3e195ae1	0.14976074
71	0x3d014a62	0.031565078
72	0x3d3b169b	0.045675855
73	0xb7dc1da2	-2.6239843e-05
74	0x3e1a3983	0.15061001
75	0xba1bceb5	-0.00059435825
76	0x3a7424b9	0.00093133334
77	0xbb863d49	-0.004096661
78	0xbb2c8bec	-0.0026328517
79	0x3c95b412	0.01827434
80	0x3ced253a	0.028948415
81	0x398126c5	0.00024633683
82	0xbcd2616a	-0.025681216
83	0x3c72d623	0.014821562
84	0x39b8ea5b	0.00035269823
85	0xbab8a3b0	-0.0014086869
86	0xb980b673	-0.00024549998
87	0xbb1d2af8	-0.002398191
88	0x3ad4c5bd	0.0016233247
89	0xbc12629f	-0.008934646
90	0x3d9f2ebf	0.07772588
91	0x3bd7067c	0.0065620523
92	0x3ae3d7ce	0.001738304
93	0xbbf6e4b5	-0.007534588
94	0x3cf28f8c	0.029609464
95	0x3da91ced	0.0825747
96	0x3c9f6519	0.019457387
97	0xbac45d38	-0.0014981395
98	0x3afb7441	0.0019184427
99	0x3a36f720	0.00069795735
100	0x3c019e79	0.007911318
101	0xbd1627c3	-0.036659013
102	0x3daf28fc	0.08552739
103	0x3867c6a8	5.5259705e-05
104	0x38c2ded8	9.292149e-05
105	0xbb36e6e8	-0.0027908627
106	0x3de80a94	0.113301426
107	0x3c9fe66a	0.01951905
108	0xba7ae310	-0.0009570578
109	0x3dcfc1dd	0.10144398
110	0xbce985e5	-0.028506229
111	0x3b5ad210	0.0033389367
112	0x3a9d525a	0.0012002692
113	0xbc8046ec	-0.015658818
114	0xbdd94946	-0.10609679
115	0x3ae5eb42	0.0017541426
116	0xbd0fc863	-0.035103213
117	0xbdbcd354	-0.09219995
118	0xbe17ea50	-0.14835477
119	0x3ab01a95	0.0013435656
120	0x3ca23584	0.019800909
121	0xbaca1b70	-0.0015419554
122	0xbbeac770	-0.007164888
123	0xbdd826b5	-0.10554258
124	0x3d7e28ad	0.06205051
125	0xb997ddda	-0.00028966257
126	0xbb1349f8	-0.0022474509
127	0x3b0da6e5	0.002161437
128	0x3d730f06	0.0593405
129	0xbadfb15b	-0.0017066406
130	0x3e2cb6f2	0.16866663
131	0xbb240f41	-0.0025033506
132	0x3a95d54c	0.0011431365
133	0xbdcb778c	-0.09934911
134	0xbbc8c18c	-0.006126588
135	0x3e96ef94	0.2947966
136	0x3d10d42e	0.0353586
137	0xbad111df	-0.001595076
138	0xbae60a00	-0.0017550588
139	0x3af90294	0.0018997961
140	0x3db2b736	0.08726351
141	0xbe31ec62	-0.17375329
142	0xbb11ae5e	-0.0022229175
143	0x387099da	5.7363744e-05
144	0x3d446d7c	0.047955975
145	0x3ae013bc	0.0017095725
146	0x3e927fd1	0.2861314
147	0x3b479244	0.0030452171
148	0xbd0ef68a	-0.034903087
149	0xbb8bc350	-0.0042652264
150	0x398d4ac6	0.00026949326
151	0xba8f8634	-0.001095003
152	0xba2faf7a	-0.0006701868
153	0x3cb0365d	0.021510297
154	0x3d826279	0.063664384
155	0xbc5ef72e	-0.013608737
156	0x3c8fe493	0.017565047
157	0xbcb82fdf	-0.022483764
158	0x3b3baf3e	0.0028638388
159	0xbac9e660	-0.001540374
160	0xbc2c354b	-0.010510753
161	0x3b50beb1	0.0031851942
162	0xbd79da66	-0.060999297
163	0xbeb965b3	-0.36210403
164	0x38faf0e8	0.00011965801
165	0x3a911a2b	0.0011070421
166	0xb8bfe405	-9.150062e-05
167	0x3ca3b9e1	0.019986095
168	0xb943cd65	-0.00018673165
169	0xbd5c2847	-0.05374935
170	0x3e4b9c8a	0.19883934
171	0x3e0759a8	0.13217795
172	0x3a469d86	0.00075765734
173	0x3af18e74	0.0018429295
174	0xbb5d8d45	-0.0033806127
175	0x3b2fbbb1	0.0026814754
176	0xb9f20990	-0.00046164962
177	0x3acf83da	0.0015832142
178	0xbab05251	-0.0013452267
179	0x3e6852ec	0.22687882
180	0xba0bd3ec	-0.0005334008
181	0x3e267679	0.16256131
182	0xbb328e27	-0.0027245374
183	0xbbaf631c	-0.005352391
184	0x3a462cfe	0.0007559805
185	0x38468564	4.733111e-05
186	0x3b468295	0.0030290235
187	0x3d286e07	0.041120555
188	0x3bc565d0	0.0060241
189	0xbc493aa4	-0.012282047
190	0x3d439a1e	0.0477544
191	0x3c1e0754	0.009645302
192	0x3deefae7	0.116689496
193	0xba6d620c	-0.00090554426
194	0x3c770f3f	0.015079319
195	0x3d8c736a	0.06857951
196	0x3a37c7fe	0.0007010697
197	0xbb695ac8	-0.0035607088
198	0x3e3d223e	0.18470094
199	0xbc3b944d	-0.011448932
200	0x3e8b1f0a	0.27172118
201	0x3ad8417f	0.0016499012
202	0x3e1fc14e	0.15601084
203	0xb7c2fa84	-2.3243258e-05
204	0x3b411199	0.0029459952
205	0x3ca75afd	0.020429129
206	0xbb3c559a	-0.0028737546
207	0xbdb05466	-0.08609848
208	0xbd8265d3	-0.06367078
209	0x3a50d55d	0.0007966364
210	0xbc3955a4	-0.011311922
211	0xba91ca46	-0.0011122904
212	0xbb5ad25c	-0.0033389544
213	0x3b0126f9	0.0019707067
214	0xbb244cf5	-0.0025070284
215	0x3ae0f2ac	0.0017162166
216	0xbb28994f	-0.0025726145
217	0x3c10b6b3	0.008832621
218	0x3d723eb4	0.05914183
219	0x3b5f1298	0.0034038182
220	0x3a512a2b	0.0007979001
221	0xbcf5565c	-0.029948406
222	0xbd020f03	-0.031752598
223	0xbe44d783	-0.19222836
224	0xbd89a957	-0.06721752
225	0x3b869178	0.0041066967
226	0x3a2326e6	0.0006223753
227	0x3ab906e5	0.0014116435
228	0x3c15e97e	0.009149907
229	0x3e03d856	0.12875494
230	0xbe47ac86	-0.19499406
231	0xbb5e580a	-0.0033926987
232	0xbbaa14d1	-0.00519047
233	0x3abf2d7b	0.0014585698
234	0xbcf62f91	-0.030051978
235	0xbe1b506e	-0.151674
236	0x3baf4ea9	0.005349953
237	0xbc9ec14c	-0.01937928
238	0x3e688111	0.22705485
239	0xb8e6caa7	-0.000110050016
240	0x3a716002	0.00092077267
241	0xbc557968	-0.013029434
242	0xbb8e6647	-0.0043456885
243	0xbad7a442	-0.0016452151
244	0xbd764ff4	-0.060134843
245	0xbdce1922	-0.100633875
246	0xbda23aa3	-0.0792134
247	0x3ab012bc	0.0013433318
248	0x3c35cdf9	0.011096471
249	0x3a0b5c28	0.00053161616
250	0xbb132a9c	-0.0022455817
251	0xb845d715	-4.716877e-05
252	0xbe522635	-0.20522387
253	0xba973acd	-0.001153791
254	0xbbcee08e	-0.00631339
255	0xbdb6e44d	-0.08930264

a2c_network.mu.bias f4 [2]
0	0xbddbbfcf	-0.10729944
1	0xbcec67b7	-0.028858049

exp_avg f4 [2]
0	0xb92c5bd0	-0.00016437401
1	0x3971a532	0.00023045091

exp_avg_sq f4 [2]
0	0x37ab68d7	2.0433608e-05
1	0x37b319a3	2.13504e-05

exp_avg f4 [128, 10]
0	0xb9eabe9f	-0.00044773982
1	0x399ed171	0.00030292154
2	0x390488da	0.00012639482
3	0x3aa26b7e	0.0012391654
4	0x3a7b3f34	0.0009584308
5	0x00000000	0.0
6	0xb90a7fc1	-0.00013208298
7	0x3a654f46	0.00087474694
8	0x00000000	0.0
9	0x00000000	0.0
10	0xb6b04f15	-5.254415e-06
11	0x39a8c531	0.00032190376
12	0xba1ea1c9	-0.00060513295
13	0xba0314b8	-0.0005000341
14	0xb9e0256b	-0.00042752488
15	0x00000000	0.0
16	0xb818e698	-3.645438e-05
17	0x387a7bb7	5.9719863e-05
18	0x00000000	0.0
19	0x00000000	0.0
20	0x3a319d53	0.00067754573
21	0xba715608	-0.000920624
22	0xba890a93	-0.0010455422
23	0xb9a45624	-0.00031344697
24	0xb9c0a89f	-0.00036746726
25	0x00000000	0.0
26	0x396e315e	0.0002271584
27	0x38bb50a8	8.931878e-05
28	0x00000000	0.0
29	0x00000000	0.0
30	0xba16b36f	-0.00057487836
31	0x3972c2fd	0.00023151557
32	0xba706237	-0.00091699086
33	0x3aa3ff43	0.0012511987
34	0xbae0ef63	-0.0017161187
35	0x00000000	0.0
36	0xb8905acd	-6.883368e-05
37	0x3a2e01f3	0.00066378637
38	0x00000000	0.0
39	0x00000000	0.0
40	0x365ffb1b	3.3375752e-06
41	0x39072505	0.00012888394
42	0x3a8b6509	0.0010634969
43	0xb8db3a6c	-0.00010453616
44	0x3a82f983	0.0009992573
45	0x00000000	0.0
46	0x38bf73d9	9.129168e-05
47	0xb8190eff	-3.649201e-05
48	0x00000000	0.0
49	0x00000000	0.0
50	0x38b5e1a5	8.672782e-05
51	0xb929e48c	-0.00016202236
52	0xb9dc3b65	-0.00042005922
53	0xba87e2fb	-0.0010367328
54	0xb81ae5a0	-3.6930316e-05
55	0x00000000	0.0
56	0xb91615f0	-0.00014313287
57	0xba0eebbb	-0.00054519967
58	0x00000000	0.0
59	0x00000000	0.0
60	0xb99852e7	-0.00029053466
61	0x3a9b35ab	0.0011841556
62	0x3a9ffc44	0.0012205918
63	0xb99b5e76	-0.00029634283
64	0xb88425f3	-6.301319e-05
65	0x00000000	0.0
66	0x39bd2c45	0.00036081873
67	0xb96d205c	-0.00022614136
68	0x00000000	0.0
69	0x00000000	0.0
70	0xba1b21cd	-0.00059178175
71	0xb9ecfcda	-0.00045201817
72	0xb82b640f	-4.0862764e-05
73	0x3ac89cfa	0.0015305572
74	0xba1a4939	-0.0005885545
75	0x00000000	0.0
76	0x396ac196	0.00022388095
77	0x3a552a1c	0.000813158
78	0x00000000	0.0
79	0x00000000	0.0
80	0x3a0e9d7e	0.0005440338
81	0xba2a7212	-0.0006501983
82	0xba945952	-0.0011318123
83	0xbb62b1d6	-0.0034590862
84	0xba367088	-0.00069595175
85	0x00000000	0.0
86	0x392c7c42	0.00016449488
87	0xba6fa943	-0.00091423484
88	0x00000000	0.0
89	0x00000000	0.0
90	0x38b705fc	8.727235e-05
91	0x38c003d6	9.155988e-05
92	0x3aa301c5	0.001243644
93	0xba406334	-0.0007339001
94	0x37299bce	1.0109461e-05
95	0x00000000	0.0
96	0x3a158608	0.0005703871
97	0xb95cda08	-0.00021062058
98	0x00000000	0.0
99	0x00000000	0.0
100	0x3976ee12	0.00023549076
101	0xb9c151e9	-0.00036872856
102	0xba962e09	-0.0011457811
103	0xb9bd0592	-0.0003605304
104	0xb8b67efc	-8.702089e-05
105	0x00000000	0.0
106	0xb890341e	-6.876163e-05
107	0xb9592737	-0.00020709341
108	0x00000000	0.0
109	0x00000000	0.0
110	0xb9e0b037	-0.000428559
111	0x3a710240	0.00091937557
112	0xb8828305	-6.223287e-05
113	0x39f0101b	0.00045788367
114	0xb9095dff	-0.00013100354
115	0x00000000	0.0
116	0xb9a3fb40	-0.0003127698
117	0xb755d484	-1.27452695e-05
118	0x00000000	0.0
119	0x00000000	0.0
120	0xb9a793f1	-0.00031962947
121	0x39938c1c	0.00028142415
122	0x396bebc9	0.00022499183
123	0x3a4d9c5a	0.00078434276
124	0xba3d631b	-0.00072245457
125	0x00000000	0.0
126	0x37c129c6	2.3026845e-05
127	0x38cf06da	9.8718054e-05
128	0x00000000	0.0
129	0x00000000	0.0
130	0xb6f23008	-7.2177536e-06
131	0x38a44bf4	7.834277e-05
132	0x38bf68c3	9.127103e-05
133	0xb8f0a924	-0.00011475597
134	0xb94f3d9d	-0.00019764011
135	0x00000000	0.0
136	0x396d94d3	0.00022657523
137	0xb9a30076	-0.00031090126
138	0x00000000	0.0
139	0x00000000	0.0
140	0x3a2fad8a	0.00067015796
141	0x3952d2cc	0.00020105689
142	0x3a5af10d	0.00083519594
143	0x3a2f8dc2	0.0006696844
144	0xb9aa3978	-0.00032467744
145	0x00000000	0.0
146	0x38d4a817	0.00010140257
147	0x39d2a4b7	0.00040177043
148	0x00000000	0.0
149	0x00000000	0.0
150	0x39e3ed49	0.00043473605
151	0x3a42b2c6	0.0007427152
152	0xb968469c	-0.00022151548
153	0x3a077a93	0.0005168106
154	0x398f821e	0.0002737203
155	0x00000000	0.0
156	0xba34499a	-0.00068774226
157	0xb8bc6465	-8.9832385e-05
158	0x00000000	0.0
159	0x00000000	0.0
160	0xb904d9c8	-0.00012669631
161	0xba784738	-0.00094710616
162	0xb8fcbada	-0.000120511
163	0x3ad6fc48	0.001640209
164	0xba40b11c	-0.000735061
165	0x00000000	0.0
166	0x38d394cf	0.00010088982
167	0x39fb708b	0.00047958302
168	0x00000000	0.0
169	0x00000000	0.0
170	0x3a3f6556	0.0007301172
171	0xb945ed4d	-0.00018875785
172	0xbaa60f9b	-0.0012669446
173	0x3ad4747a	0.0016209029
174	0x39335368	0.00017101842
175	0x00000000	0.0
176	0xba220a01	-0.00061813
177	0x3a65b9df	0.00087633537
178	0x00000000	0.0
179	0x00000000	0.0
180	0xb9abd1e8	-0.00032772054
181	0x3a449fa7	0.00075005967
182	0x391f868a	0.00015213541
183	0xba6f1d6e	-0.0009121512
184	0x3abca882	0.0014393481
185	0x00000000	0.0
186	0xb9d5ae42	-0.00040756358
187	0xb9bcf9d8	-0.00036044302
188	0x00000000	0.0
189	0x00000000	0.0
190	0x394c96f0	0.00019511185
191	0xba2d1b83	-0.0006603526
192	0xba700874	-0.0009156533
193	0xb92b07ba	-0.00016310709
194	0xb8d918b2	-0.00010351966
195	0x00000000	0.0
196	0xb9277ae7	-0.00015972146
197	0x391eb965	0.00015137119
198	0x00000000	0.0
199	0x00000000	0.0
200	0x39aecbeb	0.00033339797
201	0x39437b49	0.00018642576
202	0xba1c3c84	-0.0005959945
203	0xba36f8b3	-0.0006979808
204	0x3720ddbf	9.588372e-06
205	0x00000000	0.0
206	0xb906bfbf	-0.00012850667
207	0xb9a91fda	-0.00032257923
208	0x00000000	0.0
209	0x00000000	0.0
210	0xba86153f	-0.001022972
211	0xb98b40bc	-0.00026560377
212	0xb8f7d2dd	-0.00011817154
213	0xba37bd69	-0.00070091203
214	0xbaa61f62	-0.0012674148
215	0x00000000	0.0
216	0x385f61cd	5.3258427e-05
217	0xb9182afb	-0.00014511861
218	0x00000000	0.0
219	0x00000000	0.0
220	0xb9a9ba97	-0.00032373212
221	0xb9bf1db4	-0.0003645249
222	0xba5d7d5a	-0.000844916
223	0xba8ed0b1	-0.0010895935
224	0xb9a1a08e	-0.00030827936
225	0x00000000	0.0
226	0x39425b44	0.00018535281
227	0x39e409d5	0.00043494874
228	0x00000000	0.0
229	0x00000000	0.0
230	0x39b01947	0.0003358817
231	0xb896ae66	-7.1850416e-05
232	0xbadfad0d	-0.0017065123
233	0xbabac13c	-0.0014248262
234	0x386e3680	5.679438e-05
235	0x00000000	0.0
236	0xba3ffd22	-0.00073237915
237	0xba3a0186	-0.0007095564
238	0x00000000	0.0
239	0x00000000	0.0
240	0xb96fe1c8	-0.00022876926
241	0xb7f8acd8	-2.964439e-05
242	0x37dbb103	2.6189262e-05
243	0x3a4d6304	0.0007834884
244	0xb9d52ee1	-0.00040661453
245	0x00000000	0.0
246	0xb8c7b90d	-9.523528e-05
247	0x3997a6d9	0.00028925276
248	0x00000000	0.0
249	0x00000000	0.0
250	0xb940f669	-0.00018402342
251	0x399e4259	0.0003018554
252	0x37a27ade	1.936912e-05
253	0xb80afa92	-3.3135126e-05
254	0xba3fe9b8	-0.00073208986
255	0x00000000	0.0

exp_avg_sq f4 [128, 10]
0	0x381365ef	3.5142464e-05
1	0x372e0b25	1.0373803e-05
2	0x383e930e	4.5436485e-05
3	0x382eefc3	4.170813e-05
4	0x38bacc96	8.907278e-05
5	0x00000000	0.0
6	0x372822a3	1.0021645e-05
7	0x3723b82a	9.758436e-06
8	0x00000000	0.0
9	0x00000000	0.0
10	0x36542565	3.1612228e-06
11	0x3609115b	2.0424693e-06
12	0x371cebee	9.353256e-06
13	0x372cd79a	1.0302198e-05
14	0x374e4ec4	1.2296896e-05
15	0x00000000	0.0
16	0x361d358d	2.3425994e-06
17	0x3692a66e	4.370514e-06
18	0x00000000	0.0
19	0x00000000	0.0
20	0x37056137	7.950052e-06
21	0x36edb2f8	7.083985e-06
22	0x37ce218a	2.4572731e-05
23	0x37e73982	2.7564125e-05
24	0x37d1d622	2.5014455e-05
25	0x00000000	0.0
26	0x36cef08a	6.167281e-06
27	0x36e6b54b	6.8756394e-06
28	0x00000000	0.0
29	0x00000000	0.0
30	0x38928846	6.9872054e-05
31	0x37826ce3	1.5547912e-05
32	0x37dcbe2f	2.6314605e-05
33	0x381527ee	3.5561556e-05
34	0x3933c448	0.0001714389
35	0x00000000	0.0
36	0x369793de	4.5173647e-06
37	0x3710cc42	8.630626e-06
38	0x00000000	0.0
39	0x00000000	0.0
40	0x364cd1e1	3.0520534e-06
41	0x360a5feb	2.0619434e-06
42	0x37dc1dc4	2.6239904e-05
43	0x37c1a9e6	2.3086508e-05
44	0x3723b003	9.756538e-06
45	0x00000000	0.0
46	0x3624ed7c	2.4576138e-06
47	0x3643aa3d	2.9156356e-06
48	0x00000000	0.0
49	0x00000000	0.0
50	0x37468f91	1.1835146e-05
51	0x3713b81d	8.80475e-06
52	0x382bb43d	4.0937437e-05
53	0x38154399	3.5587324e-05
54	0x3829bfd5	4.0471397e-05
55	0x00000000	0.0
56	0x36a9d2c3	5.0611284e-06
57	0x36b30575	5.335251e-06
58	0x00000000	0.0
59	0x00000000	0.0
60	0x37740512	1.4544714e-05
61	0x3774c76d	1.4589966e-05
62	0x395d5d8c	0.00021111051
63	0x3964d133	0.00021821707
64	0x386560ad	5.468789e-05
65	0x00000000	0.0
66	0x37a0d804	1.9174076e-05
67	0x3836aaef	4.3551376e-05
68	0x00000000	0.0
69	0x00000000	0.0
70	0x388a85d1	6.605278e-05
71	0x37b24c3b	2.1254751e-05
72	0x38689d77	5.545976e-05
73	0x386aec1c	5.600984e-05
74	0x390c05a8	0.00013353548
75	0x00000000	0.0
76	0x36e2841b	6.750704e-06
77	0x3743e191	1.16754245e-05
78	0x00000000	0.0
79	0x00000000	0.0
80	0x3970cadb	0.00022963753
81	0x3883db62	6.28743e-05
82	0x3929e2ac	0.00016201538
83	0x39596194	0.00020731083
84	0x3a09fe46	0.0005264025
85	0x00000000	0.0
86	0x377f5c45	1.5220668e-05
87	0x380d03e9	3.362066e-05
88	0x00000000	0.0
89	0x00000000	0.0
90	0x3883c4b4	6.2832056e-05
91	0x37b0fa18	2.1097294e-05
92	0x3762e5f9	1.3524194e-05
93	0x37fa8702	2.986519e-05
94	0x392280f2	0.0001549756
95	0x00000000	0.0
96	0x3645dd87	2.9484233e-06
97	0x372aea47	1.0187337e-05
98	0x00000000	0.0
99	0x00000000	0.0
100	0x371f68a1	9.501499e-06
101	0x36571ab6	3.2053044e-06
102	0x3888fb49	6.531791e-05
103	0x386d3035	5.65501e-05
104	0x380012c4	3.0535055e-05
105	0x00000000	0.0
106	0x369cc650	4.672249e-06
107	0x36bb4898	5.5814853e-06
108	0x00000000	0.0
109	0x00000000	0.0
110	0x3784ab74	1.5815465e-05
111	0x36ba36bb	5.5496034e-06
112	0x36ffb660	7.6208235e-06
113	0x3705047f	7.928465e-06
114	0x383b7bd4	4.46996e-05
115	0x00000000	0.0
116	0x3622636d	2.4197755e-06
117	0x3649825a	3.0027209e-06
118	0x00000000	0.0
119	0x00000000	0.0
120	0x3695b023	4.461051e-06
121	0x35ff5823	1.9024632e-06
122	0x35ff5741	1.9024375e-06
123	0x35e141ee	1.6782994e-06
124	0x37251939	9.840639e-06
125	0x00000000	0.0
126	0x351f08a7	5.9244707e-07
127	0x3572d955	9.0468285e-07
128	0x00000000	0.0
129	0x00000000	0.0
130	0x378e7165	1.6980523e-05
131	0x3641b107	2.8862285e-06
132	0x37870831	1.6097069e-05
133	0x379147e5	1.7318825e-05
134	0x38373206	4.3677188e-05
135	0x00000000	0.0
136	0x35c77598	1.486088e-06
137	0x364ebf88	3.0807878e-06
138	0x00000000	0.0
139	0x00000000	0.0
140	0x36f762b8	7.372666e-06
141	0x3618ea77	2.2786242e-06
142	0x38c8d824	9.5770025e-05
143	0x38c4bb0e	9.38085e-05
144	0x37d9f6b9	2.5983305e-05
145	0x00000000	0.0
146	0x36e9c8e1	6.9673265e-06
147	0x3738f75b	1.1024847e-05
148	0x00000000	0.0
149	0x00000000	0.0
150	0x3751cf96	1.2505703e-05
151	0x36972515	4.5044676e-06
152	0x383aefdd	4.4569246e-05
153	0x384d31f8	4.8922346e-05
154	0x37d45548	2.5312082e-05
155	0x00000000	0.0
156	0x36d8131f	6.4395276e-06
157	0x370aa399	8.2635315e-06
158	0x00000000	0.0
159	0x00000000	0.0
160	0x38ee8678	0.00011373771
161	0x384c3178	4.868346e-05
162	0x393e5c41	0.00018154179
163	0x394d37f2	0.00019571165
164	0x399ec2da	0.00030281284
165	0x00000000	0.0
166	0x376b5d01	1.4028746e-05
167	0x37c33c67	2.3273938e-05
168	0x00000000	0.0
169	0x00000000	0.0
170	0x385e1cfc	5.295592e-05
171	0x37ca108d	2.4087984e-05
172	0x388996f4	6.560786e-05
173	0x38eed925	0.00011389171
174	0x38f722ee	0.00011784384
175	0x00000000	0.0
176	0x37803b75	1.5286476e-05
177	0x38099343	3.2800493e-05
178	0x00000000	0.0
179	0x00000000	0.0
180	0x381f1146	3.792464e-05
181	0x378a1769	1.6461783e-05
182	0x391f0a89	0.00015167346
183	0x39210954	0.00015357631
184	0x38ff16e7	0.000121636134
185	0x00000000	0.0
186	0x37adaaf7	2.0702819e-05
187	0x38144ee9	3.535944e-05
188	0x00000000	0.0
189	0x00000000	0.0
190	0x370171e0	7.715513e-06
191	0x370adc99	8.276803e-06
192	0x37c85dd0	2.3885543e-05
193	0x37dcfb8c	2.634318e-05
194	0x3805e455	3.192232e-05
195	0x00000000	0.0
196	0x36bd6923	5.6448785e-06
197	0x36d9d691	6.492083e-06
198	0x00000000	0.0
199	0x00000000	0.0
200	0x384978a7	4.80345e-05
201	0x370fded4	8.575345e-06
202	0x3800fb29	3.075149e-05
203	0x380f0928	3.4102384e-05
204	0x3906b860	0.00012847921
205	0x00000000	0.0
206	0x365ca283	3.287715e-06
207	0x3700465f	7.645779e-06
208	0x00000000	0.0
209	0x00000000	0.0
210	0x36a0976d	4.786e-06
211	0x36f236e7	7.2185535e-06
212	0x37808cc4	1.5324338e-05
213	0x37cd85ee	2.450027e-05
214	0x3796f361	1.7994726e-05
215	0x00000000	0.0
216	0x37064918	8.004041e-06
217	0x373e48f8	1.1341872e-05
218	0x00000000	0.0
219	0x00000000	0.0
220	0x38b0b5f4	8.4262254e-05
221	0x37ce19ea	2.456918e-05
222	0x3856e628	5.1235926e-05
223	0x386a514d	5.5865665e-05
224	0x39708f34	0.00022941531
225	0x00000000	0.0
226	0x3749cac2	1.2027742e-05
227	0x37994af9	1.8273933e-05
228	0x00000000	0.0
229	0x00000000	0.0
230	0x381ab4fa	3.688501e-05
231	0x3780a085	1.5333537e-05
232	0x37f27870	2.8904731e-05
233	0x3807e280	3.2397453e-05
234	0x38d24b35	0.00010027589
235	0x00000000	0.0
236	0x36ca156a	6.022562e-06
237	0x37091ff1	8.173273e-06
238	0x00000000	0.0
239	0x00000000	0.0
240	0x3800c85b	3.0704174e-05
241	0x3790f954	1.728224e-05
242	0x3827ac75	3.9976516e-05
243	0x386555b1	5.467766e-05
244	0x38ab19ec	8.158744e-05
245	0x00000000	0.0
246	0x36d2b110	6.2791005e-06
247	0x36f98234	7.435936e-06
248	0x00000000	0.0
249	0x00000000	0.0
250	0x3819c937	3.666544e-05
251	0x375ed9c2	1.3282932e-05
252	0x38b18e45	8.4665175e-05
253	0x38cb59fb	9.6965545e-05
254	0x38ba5c42	8.8863555e-05
255	0x00000000	0.0

exp_avg f4 [128]
0	0x3a920655	0.0011140803
1	0xba721518	-0.00092347106
2	0x398599ba	0.00025482272
3	0xba85d9f0	-0.0010212045
4	0xb9532e80	-0.0002013985
5	0xba051f69	-0.0005078228
6	0xb8f9f4d1	-0.00011918846
7	0x3926ed0e	0.00015919303
8	0xb9cd8e24	-0.0003920655
9	0xbac347f2	-0.0014898761
10	0x3a116f2e	0.0005547878
11	0xb866774c	-5.4947377e-05
12	0x392cb2d8	0.00016469823
13	0x3a2d7a58	0.0006617657
14	0xb99f524e	-0.00030388165
15	0xba0fca1c	-0.0005485134
16	0xb99d43d5	-0.00029995912
17	0x3a300bdf	0.0006715636
18	0x39fd9635	0.00048367833
19	0xba07e48c	-0.00051838974
20	0x3a8faf4b	0.0010962276
21	0x38ef977d	0.00011424625
22	0xbaeae419	-0.0017920762
23	0x39cf6a63	0.0003956138
24	0x3a3d7518	0.0007227226
25	0xb9179877	-0.0001445728
26	0x39bb2742	0.0003569667
27	0x39e2c793	0.00043254773
28	0x39ce8f56	0.00039398175
29	0x395775ee	0.0002054793
30	0x393507a0	0.00017264346
31	0xbaa2e610	-0.0012428183
32	0x3a5366e2	0.0008064342
33	0xba833cff	-0.0010012685
34	0xb998e66b	-0.00029163374
35	0x38070c93	3.219822e-05
36	0xba426e15	-0.0007416916
37	0xb9765468	-0.00023491832
38	0x39c17c7a	0.0003690457
39	0x3aa08b7f	0.0012248604
40	0x39a817fd	0.0003206133
41	0x3a192365	0.0005841761
42	0x39bf0ab4	0.00036438333
43	0x38afe497	8.3872284e-05
44	0x3a537395	0.00080662343
45	0xba97b314	-0.0011573755
46	0x3a51f6a5	0.000800947
47	0x3a3479b3	0.00068845897
48	0xba2e9148	-0.0006659222
49	0x38d97421	0.00010368997
50	0x39c1c855	0.00036961088
51	0xb9a821d0	-0.0003206865
52	0x39275da9	0.00015961252
53	0x3a89ecf0	0.0010522883
54	0xba393406	-0.0007064942
55	0xba5d2e5c	-0.0008437389
56	0x39bad658	0.00035636383
57	0xb8494d6f	-4.799425e-05
58	0x3a1fd389	0.000609689
59	0x398a6416	0.0002639598
60	0x3a3ac7d4	0.00071251136
61	0xb98d2273	-0.00026919282
62	0x382ae5be	4.0745123e-05
63	0x389fcc0c	7.6197175e-05
64	0x389c2493	7.445472e-05
65	0x398d434d	0.0002694376
66	0xba790d5e	-0.0009500588
67	0x39ce42be	0.0003934111
68	0x39391bd9	0.00017653349
69	0xb98c2ef9	-0.00026737878
70	0xb9eaa505	-0.00044754907
71	0x3b085e31	0.0020808096
72	0x39a88678	0.00032143644
73	0x3a26987f	0.0006355121
74	0x3a265dcb	0.00063463737
75	0xb9e797d4	-0.00044172874
76	0x39aa9cf5	0.0003254187
77	0x3940f84b	0.00018403043
78	0xba047ca0	-0.0005053971
79	0x3a3fe0b1	0.00073195534
80	0xba8a8cd4	-0.0010570535
81	0xb9c4ee32	-0.00037561503
82	0xb999b9c5	-0.00029320843
83	0x398ea58b	0.0002720769
84	0xba6db72b	-0.00090681267
85	0xba7d70ad	-0.0009667974
86	0xba2e80bc	-0.0006656756
87	0xb9a50ca6	-0.00031480676
88	0xb869d297	-5.5747656e-05
89	0xb91de920	-0.00015059533
90	0x3a785343	0.0009472856
91	0x3a49bf46	0.00076960435
92	0xba00354b	-0.0004890754
93	0xb93787bb	-0.00017502804
94	0x39b66f92	0.00034796871
95	0x399e75c6	0.00030223856
96	0xba2099a6	-0.0006126411
97	0xb87a8db3	-5.9736612e-05
98	0x3a235f60	0.00062321685
99	0x3ac69d67	0.0015153111
100	0x3748c1c6	1.1966045e-05
101	0x390b2ee8	0.00013273547
102	0xba3ae847	-0.0007129949
103	0xb8db0198	-0.000104430306
104	0xbaadf422	-0.001327161
105	0x3991f9b9	0.00027842613
106	0x3913e58e	0.00014104528
107	0x388b1b3c	6.633109e-05
108	0xba7771b2	-0.0009439244
109	0xb9cc9821	-0.00039023257
110	0xba39c0f5	-0.0007085943
111	0xbb2ac502	-0.0026057367
112	0xba2ee1b6	-0.0006671207
113	0xb9db079b	-0.00041776602
114	0x39acc33b	0.00032951855
115	0xbaea8d22	-0.0017894844
116	0x3a49349f	0.00076753827
117	0xb8e4a5de	-0.000109027824
118	0x38f4a1f5	0.000116649935
119	0x3919b2c5	0.00014657814
120	0xb9648e73	-0.00021796841
121	0xbac8baaa	-0.0015314419
122	0xbad640d5	-0.0016346226
123	0x3a47019f	0.0007591489
124	0x3a0f8b3a	0.00054757635
125	0xba4121ca	-0.00073674007
126	0x3a888d55	0.0010418097
127	0xbaa4a4b3	-0.0012561291
