kingfisher_rl/config/USV_Virtual_GoToXY.pth (torch, 235019 bytes, 30 tensors)

value_mean_std.running_mean f8 [1]
0	0x400ec01a843cb9a8	3.8438005763084284

value_mean_std.running_var f8 [1]
0	0x4036d79ae8ac9da0	22.842207471983443

value_mean_std.count f8 []
0	0x412b300200000000	890881.0

running_mean_std.running_mean_std.state.running_mean f8 [11]
0	0x3ff07d5c0b91f14f	1.0306053592640472
1	0x3fc171cd40bbc50c	0.13628545437635642
2	0xbfc16621af3a03a8	-0.13592930847155782
3	0x3fe069f88b4d0d12	0.5129358978960303
4	0x3fb37a2c4beaeada	0.07608296254594951
5	0x4010962b6f8af881	4.146650069100475
6	0x0000000000000000	0.0
7	0x0000000000000000	0.0
8	0x0000000000000000	0.0
9	0x0000000000000000	0.0
10	0x0000000000000000	0.0

running_mean_std.running_mean_std.state.running_var f8 [11]
0	0x3fd3874859d0bdbc	0.30513199587855033
1	0x3fdafd235a836c5a	0.42170032347866526
2	0x3fd4bae83494134f	0.3239079011403207
3	0x3fd984a7c4640aab	0.39872163943088407
4	0x3fd56e4338e2c274	0.33485489421131054
5	0x401adaecdb3baedd	6.713794160383
6	0x3ec2d5073be0554f	2.244966224483148e-06
7	0x3ec2d5073be0554f	2.244966224483148e-06
8	0x3ec2d5073be0554f	2.244966224483148e-06
9	0x3ec2d5073be0554f	2.244966224483148e-06
10	0x3ec2d5073be0554f	2.244966224483148e-06

running_mean_std.running_mean_std.state.count f8 []
0	0x411b300400000000	445441.0

a2c_network.sigma f4 [2]
0	0xc007e689	-2.1234457
1	0xc0134ceb	-2.3015697

a2c_network.actor_mlp.0.weight f4 [128, 11]
0	0x3da9d916	0.08293359
1	0x3e99470c	0.29937017
2	0x3e75615f	0.23962925
3	0x3e6fa97d	0.23404498
4	0xbe82021f	-0.25392243
5	0x3d96dd2d	0.07366405
6	0xbe1650ba	-0.14679232
7	0x3e355277	0.17707239
8	0x3e88164f	0.2657952
9	0xbe628186	-0.22119722
10	0x3e862e5e	0.2620725
11	0x3d64335a	0.055713035
12	0xbe1faa47	-0.155923
13	0x3ec4b619	0.3842018
14	0x3f0fad26	0.5612358
15	0x3e818213	0.2529455
16	0x3dc33b09	0.095327444
17	0x3d368ae8	0.044566065
18	0xbe1022be	-0.14075753
19	0x3d9d6604	0.076854736
20	0xbe0e4058	-0.13891733
21	0xbd10d4b3	-0.035359096
22	0x3a5c04e1	0.0008393061
23	0xbca7e4bb	-0.02049481
24	0xbe85350b	-0.2601703
25	0x3dab4db6	0.083644316
26	0x3e1b3398	0.151564
27	0xbe8a950e	-0.27066845
28	0x3ce91fe0	0.028457582
29	0xbe9878c7	-0.29779646
30	0x3e8b6a98	0.27229762
31	0xbe8322ba	-0.25612432
32	0x3e6e5c93	0.23277502
33	0x3dbfb963	0.093615316
34	0xbc3297cc	-0.010900449
35	0x3e36937c	0.17829698
36	0xbc77308e	-0.01508726
37	0x3e996daf	0.29966494
38	0xbd78c14d	-0.06073122
39	0xbdc2bdcf	-0.09508859
40	0x3da5e930	0.081011176
41	0xbda773b7	-0.08176368
42	0x3e01f053	0.12689333
43	0x3e89d40f	0.269196
44	0x3e2c1f9c	0.16808933
45	0x3dd5ddce	0.104426965
46	0x3e4bfdb8	0.19921005
47	0x3bbc53e6	0.005747306
48	0xbd720834	-0.059089854
49	0xbdcaa1b7	-0.09894126
50	0xbe98d0e1	-0.29846862
51	0xbdee9367	-0.116492085
52	0xbe6cd105	-0.2312661
53	0x3e7d56e5	0.24740179
54	0x3db1dba5	0.08684472
55	0x3ea03b16	0.3129508
56	0x3d7732bc	0.06035112
57	0x3f08738b	0.53301305
58	0x3ebcdf42	0.36889082
59	0xbe4bd8c7	-0.19906913
60	0x3d5a84d2	0.053349324
61	0xbe52bb8f	-0.2057936
62	0x3dbe67e8	0.09297162
63	0xbdd4a788	-0.103835166
64	0x3dbd35e9	0.09238798
65	0xbd80a65e	-0.06281732
66	0x3e15ec61	0.14640953
67	0xbe2bbaae	-0.16770431
68	0xbe9ad9f8	-0.30244422
69	0xbe8e757c	-0.27824008
70	0x3f0b394d	0.5438431
71	0x3e0ef745	0.13961513
72	0x3e948bdb	0.2901295
73	0xbe7ecd55	-0.24883015
74	0xbe991ea4	-0.2990619
75	0xbe718d8e	-0.23589155
76	0xbe4fb0ef	-0.20282339
77	0x3e1a2495	0.15053017
78	0x3dd98cec	0.10622582
79	0x3f451b3a	0.7699467
80	0xbd9f7ec7	-0.07787853
81	0xbd8f9088	-0.07009989
82	0x3db7dad4	0.08977285
83	0xbdf99827	-0.12187224
84	0x3e3b62e4	0.18299443
85	0xbd928832	-0.071548834
86	0x3e309e29	0.17247833
87	0xbe6fe314	-0.23426467
88	0xbda1e9fa	-0.079059556
89	0x3cb2a937	0.021809204
90	0xbdd3cb88	-0.10341555
91	0x3ceb3721	0.028712811
92	0x3ef5670b	0.47930178
93	0x3e4d98a7	0.20077763
94	0xbe5fe543	-0.218648
95	0xbe24d49e	-0.16096732
96	0x3e8d5aae	0.27608246
97	0xbdd05ceb	-0.10173973
98	0xbddae985	-0.106890716
99	0xbe6a95af	-0.22908662
100	0xbd212f9c	-0.039352044
101	0xbd799bfa	-0.060939766
102	0x3cd94cd8	0.0265259
103	0xbefbe8dd	-0.49201098
104	0x3d175e4c	0.036955163
105	0xbe52e659	-0.20595683
106	0xbe82f861	-0.25580123
107	0xbe2a040a	-0.16603103
108	0xbe871c1d	-0.26388636
109	0xbe449763	-0.19198374
110	0x3f04e32b	0.5190913
111	0x3dde9b26	0.10869436
112	0x3e94e15d	0.2907819
113	0xbecf3688	-0.40471292
114	0xbf0b99c5	-0.5453151
115	0x3d9cf8b6	0.07664625
116	0x3d411de9	0.047147665
117	0xbe87d639	-0.26530626
118	0xbe0507f1	-0.1299131
119	0xbe38d666	-0.18050537
120	0x3a5b09e0	0.00083556585
121	0x3dad594f	0.084643
122	0x3c815532	0.015787695
123	0xbf2b78e6	-0.6698135
124	0xbe8d4da3	-0.27598295
125	0xbe0721d5	-0.131965
126	0xbcb02439	-0.021501647
127	0xbe73b048	-0.23797715
128	0x3e817013	0.25280818
129	0xbd7519e8	-0.05983916
130	0x3e84d29e	0.25941938
131	0x3dc06684	0.09394553
132	0xbe28a3e6	-0.16468772
133	0x3eaf005e	0.34179968
134	0x3d836b32	0.0641693
135	0xbe6f7ad9	-0.23386706
136	0xbeb29696	-0.34880513
137	0xbed5b200	-0.41737366
138	0x3db0ac05	0.0862656
139	0xbd86e357	-0.065863304
140	0x3df067b9	0.117385335
141	0xbe7d60bd	-0.24743934
142	0x3e653926	0.22385082
143	0xbe6aca16	-0.22928652
144	0xbd038128	-0.032105595
145	0xbe96d71b	-0.29460987
146	0x3e1efaa7	0.15525304
147	0x3f38122a	0.71902716
148	0x3eb03e57	0.34422562
149	0xbe74d015	-0.23907502
150	0x3d9b6741	0.075880535
151	0xbe04cce5	-0.12968786
152	0xbd075611	-0.033041064
153	0xbe671833	-0.22567825
154	0x3d85c7cf	0.06532251
155	0xbe29e662	-0.1659179
156	0x3e4d2f03	0.20037465
157	0x3e405809	0.18783583
158	0x3e1c4396	0.15260157
159	0xbe09f94e	-0.13474008
160	0x3e8c517d	0.2740592
161	0x3d87b1e0	0.06625724
162	0x3d1ede87	0.038786437
163	0xbe880aec	-0.26570833
164	0x3e019bd3	0.12657098
165	0x3d11d2e7	0.035601523
166	0x3c92b724	0.017909594
167	0x3e7c7d19	0.24657096
168	0x3d57622c	0.05258386
169	0xbf6d68f4	-0.9273827
170	0xbe02fcc1	-0.1279173
171	0xbc6be953	-0.014398891
172	0x3e2c6489	0.16835226
173	0xbd9dca79	-0.07704634
174	0xbe3029e4	-0.1720348
175	0xbdd374f4	-0.103250414
176	0xbd789695	-0.06069048
177	0x3e919906	0.2843706
178	0x3e51d4e4	0.20491368
179	0xbef0d312	-0.47036034
180	0x3e594ec4	0.21221453
181	0x3ec1a96b	0.37824568
182	0x3d5ff0a7	0.054672863
183	0xbddbe7c0	-0.10737562
184	0x3e2125fd	0.15737148
185	0x3e22403e	0.15844819
186	0x3de6e5f6	0.1127433
187	0xbd0aabd4	-0.033855274
188	0xbd0a71a2	-0.033799775
189	0xbd875988	-0.066088736
190	0xbdb64919	-0.08900661
191	0xbca132d6	-0.01967756
192	0x3e92ca51	0.2866998
193	0x3e84ab35	0.2591187
194	0xbcf48586	-0.029848825
195	0xbd8a4158	-0.067507446
196	0x3b902bb4	0.004399741
197	0xbc937a6c	-0.018002711
198	0xbcb5b5a3	-0.022181338
199	0x3d154174	0.036439374
200	0xbefa714b	-0.4891456
201	0xbe805011	-0.25061086
202	0x3f09c4ff	0.5381622
203	0x3e911b2a	0.28341037
204	0xbc75b3a4	-0.014996443
205	0xbe3a254e	-0.18178293
206	0xbe3ce4b3	-0.18446617
207	0xbe8a486f	-0.27008387
208	0xbdc947be	-0.09828137
209	0x3e39cace	0.1814377
210	0x3ea95cb3	0.33078536
211	0x3e84de8e	0.25951046
212	0xbed44f95	-0.41466966
213	0xbeb3fb4e	-0.35152668
214	0x3c7bc928	0.015367784
215	0x3e95555c	0.29166687
216	0x3d32a68f	0.043615874
217	0xbd9fe9c7	-0.07808261
218	0x3dff779a	0.12473984
219	0xbdeb314a	-0.114840105
220	0xbd614614	-0.054998472
221	0x3e7c80ab	0.24658458
222	0x3bbad30b	0.005701428
223	0xbd4b239f	-0.049594518
224	0xbf8bb093	-1.0913261
225	0xbb892659	-0.0041854796
226	0x3e69eafb	0.22843544
227	0x3de10b87	0.10988527
228	0xbe574821	-0.21023609
229	0xbe985b90	-0.29757357
230	0xbe7ac221	-0.24488117
231	0x3e27b84e	0.163789
232	0x3e96075a	0.29302484
233	0x3e487f7f	0.19579886
234	0xbd943061	-0.0723579
235	0xbd961aad	-0.07329307
236	0x3dc06ece	0.09396134
237	0xbe6acdef	-0.2293012
238	0xbe844360	-0.25832653
239	0xbe9064b1	-0.2820182
240	0x3dfcc771	0.12342728
241	0xbe1795d0	-0.14803243
242	0xbd5bf7a2	-0.053702958
243	0xbdcbd5a4	-0.09952858
244	0xbe166c5a	-0.1468977
245	0xbe95c28b	-0.29249987
246	0xbec96606	-0.3933565
247	0x3e5333f1	0.20625283
248	0xbdb78471	-0.08960808
249	0x3e3e9a6e	0.18613598
250	0xbdc6190f	-0.09672748
251	0xbe627cb5	-0.22117884
252	0xbd59e680	-0.053198338
253	0xbeacf6c5	-0.3378202
254	0xbe8facc4	-0.28061497
255	0xbdf67b6b	-0.12035259

a2c_network.actor_mlp.0.bias f4 [128]
0	0x3e07dc19	0.13267554
1	0x3e845296	0.25844258
2	0x3f19f9ac	0.60146594
3	0xbec8b6fe	-0.39202112
4	0xbe91e118	-0.28492045
5	0xbe0c6c43	-0.13713174
6	0xbe8225a9	-0.25419357
7	0x3b98d60e	0.004664189
8	0x3da9c48c	0.082894415
9	0x3e1c3561	0.15254737
10	0x3e1d1492	0.15339878
11	0xbdc2b132	-0.095064536
12	0x3cdaf12a	0.026726324
13	0xbd4c5803	-0.049888622
14	0xbea23491	-0.3168073
15	0xbceb2e73	-0.028708672
16	0xbae6266c	-0.0017559058
17	0x3e4aaf3f	0.19793414
18	0x3c91c812	0.017795596
19	0x3e41ca89	0.18924917
20	0xbd9cdfc2	-0.07659866
21	0xbe3cda00	-0.18442535
22	0x3e2354c4	0.15950304
23	0x3e3c7d89	0.18407263
24	0xbe4b90d1	-0.19879462
25	0x3e9a2d96	0.30112904
26	0x3e890b55	0.26766458
27	0x3ec20546	0.37894648
28	0x3d40433f	0.04693913
29	0x3defb167	0.11703759
30	0x3ebb0eba	0.36534673
31	0xbe065052	-0.13116577
32	0xbdffa371	-0.12482346
33	0xbcdc9e72	-0.026931021
34	0x3e3f67d4	0.18691951
35	0xbe2c6802	-0.16836551
36	0xbc94ed41	-0.018179538
37	0xbe61ac43	-0.22038369
38	0x3e88451e	0.26615232
39	0x3ce49d22	0.027906958
40	0xbe490ccb	-0.19633786
41	0xbec091fe	-0.37611383
42	0x3d9ebd48	0.07750946
43	0x3e82f05d	0.25574008
44	0x3eac7f38	0.3369081
45	0x3e33b86e	0.17550823
46	0x3e45b84f	0.1930859
47	0x3cf710e5	0.030159423
48	0x3dc09174	0.09402743
49	0x3d5f2449	0.054477964
50	0xbebe0928	-0.3711636
51	0xbd34b2cd	-0.04411583
52	0x3e6500f5	0.22363646
53	0x3e13456e	0.14381954
54	0x3e4c5387	0.19953738
55	0xbd10d21d	-0.03535663
56	0xbe88c75a	-0.26714593
57	0x3e739833	0.23788528
58	0x3df48007	0.11938482
59	0xbe9aa5fe	-0.30204767
60	0x3e422556	0.18959555
61	0x3e11640b	0.1419832
62	0xbea9dd60	-0.33176708
63	0xbe87485b	-0.2642239
64	0xbf055422	-0.520815
65	0xbe0d8162	-0.13818887
66	0x3e370814	0.17874175
67	0xbe6ae6f4	-0.22939664
68	0x3ee79237	0.4522874
69	0x3c8d6f12	0.017264877
70	0x3ea7c1f3	0.3276516
71	0x3e7ffa73	0.24997883
72	0x3d8d6082	0.06903173
73	0xbe5cd1bf	-0.21564387
74	0xbe86665c	-0.2624997
75	0x3d93bc45	0.07213644
76	0x3d596e53	0.05308373
77	0xbd593f6e	-0.053039007
78	0xbd64768d	-0.05577712
79	0x3d65bf49	0.056090627
80	0xbe142a6f	-0.14469312
81	0xbe0b80fd	-0.13623424
82	0xbd85b3b2	-0.06528415
83	0xbdf8c2a2	-0.12146498
84	0xbea7abf4	-0.32748377
85	0x3edc890e	0.43073314
86	0x3ed8be3f	0.42332646
87	0x3e8b42b3	0.27199325
88	0xbcd7d22d	-0.026345337
89	0x3f0d83bb	0.5527913
90	0x3ece70b5	0.40320364
91	0x3eb15802	0.34637457
92	0x3d9477a0	0.07249379
93	0x3ef60ce0	0.48056698
94	0xbe311f98	-0.17297208
95	0xbccb75a2	-0.024836365
96	0x3e876d41	0.26450542
97	0xbeb64528	-0.35599637
98	0x3e7c5a97	0.24643932
99	0x3db7a3b0	0.08966768
100	0x3ec1fee4	0.3788978
101	0xbdb747bc	-0.08949229
102	0x3f2f864a	0.68564284
103	0x3e2ccda9	0.16875328
104	0x3ea2641e	0.31717008
105	0x3dae9e83	0.085263275
106	0x3ecbf81e	0.39837736
107	0xbe11d5a1	-0.14241649
108	0x3ea084f4	0.31351435
109	0xbea87609	-0.32902554
110	0xbea58607	-0.32328817
111	0xbd7c55c1	-0.06160522
112	0xbdae2cb6	-0.08504622
113	0x3e097d2a	0.13426653
114	0xbe810e08	-0.25206017
115	0x3dabcbf7	0.083885126
116	0x3d5cd6e1	0.053915862
117	0x3cbc25a9	0.022967177
118	0x3f006aa4	0.5016272
119	0x3d10ec02	0.035381325
120	0xbe843ffd	-0.2583007
121	0xb8c3f315	-9.343602e-05
122	0x3e70246c	0.23451394
123	0x3e5d0aca	0.21586147
124	0x3e991931	0.29902032
125	0xbe4231e2	-0.18964341
126	0x3ebbf4f1	0.36710313
127	0x3ec8f381	0.3924828

a2c_network.actor_mlp.2.weight f4 [128, 128]
0	0xbdd15d04	-0.102228194
1	0x3f201d6b	0.6254489
2	0x3d41c701	0.047308926
3	0x3dfd4863	0.12367322
4	0x3e7c6a79	0.24649991
5	0x3dca3e8d	0.09875212
6	0xbd67f20e	-0.056627326
7	0x3ec0bf6e	0.3764605
8	0xbce2fc89	-0.027708309
9	0xbe9cc208	-0.30616784
10	0xbe3a3959	-0.18185939
11	0xbeef2698	-0.46709132
12	0x3d6912ad	0.056902576
13	0x3d2c0cd3	0.042004418
14	0x3eddbf08	0.43309808
15	0xbe1a1293	-0.15046148
16	0xbe33451b	-0.1750683
17	0xbeaaffbb	-0.33398232
18	0xbeb432fc	-0.35195148
19	0xbec51ea9	-0.38499954
20	0xbf06b42e	-0.5261868
21	0xbe45e54f	-0.19325756
22	0xbeff29e5	-0.4983665
23	0xbd88058d	-0.06641684
24	0xbc35bcdd	-0.011092392
25	0x3e0d7b7d	0.13816638
26	0x3edf9ece	0.43675846
27	0xbece5b10	-0.4030385
28	0x3ebb3c3b	0.3656939
29	0x3f035bb2	0.5131179
30	0x3e109838	0.14120567
31	0xbf24f39d	-0.64434224
32	0x3df1d81b	0.11808797
33	0xbe6d4658	-0.23171365
34	0x3ee378e7	0.4442818
35	0x3eb9f8b7	0.36322567
36	0xbebdcac6	-0.37068766
37	0xbeb8ec16	-0.3611762
38	0xbecf0ac1	-0.40437892
39	0x3de1d420	0.11026788
40	0x3e93cb4c	0.2886604
41	0x3e4b35be	0.1984472
42	0x3d5a1e3f	0.0532515
43	0x3ce4dd90	0.02793768
44	0x3ebb0ff2	0.36535603
45	0x3f1842c4	0.59476876
46	0x3d9d3e27	0.0767787
47	0x3de9c0a3	0.11413696
48	0xbee1495a	-0.44001275
49	0x3c40ccba	0.011767561
50	0x3e612177	0.21985422
51	0xbd16ac28	-0.036785275
52	0x3e7f6185	0.24939544
53	0xbe1403d8	-0.14454591
54	0x3de1314e	0.10995732
55	0x3e91f6e6	0.2850868
56	0x3ec4868c	0.383839
57	0xbdba5922	-0.09099032
58	0x3d52eb78	0.05149409
59	0xbecf78c8	-0.40521836
60	0xbeca8474	-0.3955418
61	0x3e73e5e6	0.23818168
62	0xbe9b58f0	-0.3034129
63	0x3f5f7621	0.87289625
64	0xbe273ce8	-0.16331828
65	0x3ede6938	0.4343965
66	0x3c4427ae	0.011972351
67	0x3e6229da	0.22086278
68	0x3e748147	0.2387744
69	0x3ddbc307	0.10730558
70	0xbe6e67c8	-0.23281777
71	0xbf0a84e8	-0.5410905
72	0x3ea73c1d	0.3266305
73	0xbd261d4a	-0.040555276
74	0xbe7b5365	-0.24543531
75	0xbe727ed8	-0.236812
76	0xbeb6cc88	-0.3570292
77	0x3e8d9912	0.27655846
78	0x3ea9fffa	0.33203107
79	0x3e01450c	0.12623996
80	0xbcdb0b04	-0.026738651
81	0x3e81420f	0.2524571
82	0x3db0de3e	0.08636139
83	0xbe2c29bc	-0.16812795
84	0xbe372eba	-0.17888919
85	0xbdad8fbd	-0.084746815
86	0xbc564e1b	-0.013080145
87	0x3d236a30	0.03989619
88	0x3eb18ebf	0.3467922
89	0x3e49fa32	0.19724348
90	0x3e959944	0.29218495
91	0xbe84736f	-0.2586932
92	0xbe23f566	-0.16011581
93	0x3ea8902e	0.329225
94	0x3ef18e99	0.47179106
95	0xbf018c4e	-0.5060471
96	0xbf1b241b	-0.6060197
97	0x3dad11b3	0.084506415
98	0xbebecaec	-0.37264192
99	0xbf302f02	-0.6882173
100	0xbdbb6e37	-0.09151881
101	0x3e40cdf8	0.18828571
102	0x3ea42470	0.3205905
103	0xbd42ab75	-0.047526795
104	0xbe97ff43	-0.29686937
105	0x3e813272	0.252338
106	0xbe08c373	-0.13355808
107	0x3e9a29b0	0.3010993
108	0x3e47e3bb	0.19520466
109	0xbebb0ddc	-0.3653401
110	0xbd8293bd	-0.06375835
111	0xbf137d06	-0.57612646
112	0x3e357719	0.17721213
113	0xbf0c8af8	-0.5489955
114	0x3e86e592	0.26347023
115	0xbe09802d	-0.13427801
116	0x3ed977c4	0.42474186
117	0xbe0ee456	-0.13954291
118	0x3e95f618	0.29289317
119	0x3eeecb08	0.46639276
120	0x3da12ad2	0.078694955
121	0xbebd3b49	-0.36959293
122	0xbe8a2e99	-0.26988676
123	0xbca9f4aa	-0.020746548
124	0xbe57a4af	-0.21058916
125	0xbea72ea0	-0.3265276
126	0xbe9d69e2	-0.30744845
127	0xbd4db1ef	-0.05021852
128	0xbd886f99	-0.066619106
129	0xbbc7ae2d	-0.0060937614
130	0xbc8f66a8	-0.017505005
131	0x3d233591	0.039846007
132	0xbb292a8a	-0.0025812709
133	0xbc3b0531	-0.011414812
134	0xbd3b38c0	-0.045708418
135	0x3c9abf8c	0.018890165
136	0xbd1612ea	-0.03663913
137	0x3ceb26d2	0.028705034
138	0x3cb424d0	0.02199021
139	0x3d92bbeb	0.07164749
140	0xb8f788a2	-0.00011803328
141	0xbd63f670	-0.055654943
142	0x3d4d41c1	0.050111536
143	0xbd8f8f97	-0.070098095
144	0xbd5c5366	-0.053790472
145	0xbc801d45	-0.015638957
146	0x3d8b5578	0.06803411
147	0x3d57ce05	0.05268671
148	0x3ce48d82	0.027899507
149	0x3ce1f79d	0.027583892
150	0xbdb9e6e9	-0.09077246
151	0xbc875710	-0.016521007
152	0xbdaa3ecb	-0.08312758
153	0xbc70eb1c	-0.014704492
154	0xbdc5c65c	-0.09656975
155	0xbc7f6bae	-0.015589638
156	0x3c415393	0.011799711
157	0x3d8db47d	0.06919191
158	0xbca30f41	-0.019904735
159	0xbd15a3c4	-0.036533132
160	0x3d173fc4	0.036926046
161	0x3aec770c	0.001804085
162	0xbc48800d	-0.012237561
163	0xbd018bea	-0.031627573
164	0xbd4ac0ab	-0.04950015
165	0x3bc87bca	0.0061182724
166	0x3dcfdb23	0.10149219
167	0xbcd5d37c	-0.02610182
168	0x3d1e82b8	0.038698882
169	0x3d43ae07	0.047773387
170	0x3d8dd314	0.069250256
171	0xbd1f28f6	-0.038857423
172	0x3c57f11f	0.013180046
173	0x3d04f58f	0.032460745
174	0x3d853228	0.06503707
175	0x3dc1a573	0.09455385
176	0xbca95eb4	-0.02067504
177	0x3d7222ab	0.059115093
178	0x3d28b06f	0.041183885
179	0xbd7173ae	-0.05894821
180	0xbcb19620	-0.02167803
181	0xbcd6afee	-0.026206937
182	0x3d885c97	0.06658285
183	0xbd52714d	-0.051377583
184	0xbc56d1a9	-0.01311151
185	0x3d587363	0.052844416
186	0xbdba211a	-0.09088345
187	0xbd2a71bb	-0.041612368
188	0xbd5f01ac	-0.054444954
189	0x3d8f2f8c	0.06991491
190	0x3d6df6c8	0.058096677
191	0xbdc5f66f	-0.09666144
192	0x3aa95918	0.0012920229
193	0xbca94742	-0.020663861
194	0xbaabecb0	-0.0013116803
195	0x3d27dcd5	0.040982086
196	0x3c70c271	0.014694796
197	0xbd3b242a	-0.045688786
198	0x3c9ca7e8	0.019123033
199	0x3bf3274b	0.0074204556
200	0x3c92c99f	0.017918406
201	0xbca4a12d	-0.020096386
202	0xbd974f3f	-0.07388162
203	0x3db01ebf	0.08599614
204	0xbcacb4d4	-0.02108232
205	0x3d04f74c	0.032462403
206	0xbdaef943	-0.08543637
207	0x3a454ecf	0.0007526697
208	0x3dbafcb7	0.09130233
209	0x3cfc0c53	0.030767595
210	0x3b93d7fe	0.0045118323
211	0x3dcdbe44	0.10046056
212	0x3bca8bf2	0.0061812336
213	0xb798619e	-1.8165269e-05
214	0x3dd56355	0.10419337
215	0x3e19d129	0.15021195
216	0xbd00b1ed	-0.031419683
217	0x3d869263	0.0657089
218	0x3d84c44d	0.06482754
219	0xbd13e7de	-0.036109798
220	0x3d578b34	0.05262299
221	0xbd3690b9	-0.044571612
222	0x3c59727c	0.013271924
223	0x3def6778	0.11689657
224	0xbd5b08ef	-0.053475317
225	0xbd8886c1	-0.06666327
226	0xbd7452ab	-0.05964915
227	0xbc424415	-0.011857052
228	0xbd8dcf42	-0.06924297
229	0xbd230b5e	-0.039805762
230	0x38933860	7.020007e-05
231	0x3d540c2c	0.05176942
232	0x3da5332a	0.080663994
233	0x3d798b6c	0.06092398
234	0x3d36a74d	0.044593144
235	0xbd8213b1	-0.06351412
236	0xbdae268b	-0.08503445
237	0x39ecda0f	0.00045175894
238	0x3d5b1ee3	0.053496253
239	0x3c69d0c4	0.014270965
240	0xbc2c6d68	-0.010524131
241	0xbd1c6885	-0.038185615
242	0xbd654c7e	-0.05598115
243	0xbda7e76c	-0.08198437
244	0x3d6f7c0f	0.05846792
245	0x3c621020	0.01379779
246	0xbd9fa182	-0.07794477
247	0x3b749d17	0.0037325078
248	0x3b75e0c5	0.0037518006
249	0x3c18bc0c	0.009322178
250	0x3d034f41	0.032058004
251	0x3d8ae5d9	0.06782121
252	0xbd4ee692	-0.050512858
253	0xbd5bda0f	-0.053674754
254	0xbc8232eb	-0.01589342
255	0xbd97c2ec	-0.07410225

a2c_network.actor_mlp.2.bias f4 [128]
0	0x3e9cbf07	0.30614492
1	0x3cbec377	0.023286564
2	0xbd1f59b6	-0.038903914
3	0xbda5d346	-0.08096938
4	0x3d3603e3	0.0444373
5	0xbdc5a63b	-0.096508466
6	0x3cd2efff	0.025749205
7	0x3da16134	0.07879868
8	0xbccb6c77	-0.024831994
9	0x3dc6c72a	0.09705956
10	0xbdd623bc	-0.104560345
11	0xbe026fd1	-0.12737967
12	0x3df864f6	0.12128632
13	0x3d9bd403	0.076087974
14	0xbd918bdc	-0.07106754
15	0x3e17a51f	0.14809082
16	0x3da58749	0.08082444
17	0xbd9d9cf2	-0.076959506
18	0x3d89cd92	0.067286626
19	0x3d3b3528	0.04570499
20	0x3dbef8d3	0.09324803
21	0x3dcd1882	0.1001444
22	0x3e195fbb	0.14977925
23	0x3dc64f30	0.096830726
24	0x3d92f619	0.07175846
25	0xbdaa7071	-0.08322228
26	0xbe14179f	-0.14462136
27	0xbe415ef2	-0.18883875
28	0xbe84d91d	-0.25946894
29	0x3d9f4dc8	0.077785075
30	0x3cbc4fc2	0.02298725
31	0x3dba21b5	0.0908846
32	0x3d603838	0.054741114
33	0x3e0ce5ca	0.13759533
34	0xbdd736c7	-0.10508495
35	0xbdaae2d7	-0.083440475
36	0xbe07f81b	-0.13278238
37	0xbf07872b	-0.52940625
38	0xbde9eb10	-0.11421788
39	0xbd71dedd	-0.05905043
40	0x3c0ffb73	0.0087879775
41	0x3da3563c	0.07975432
42	0xbcf7209e	-0.03016692
43	0x3d709fa1	0.058745984
44	0xbd538f02	-0.051650055
45	0xbd30df8d	-0.043181945
46	0x3c9f042c	0.019411169
47	0xbdcde1cc	-0.10052833
48	0xbf052f3e	-0.5202521
49	0x3cc716ac	0.024302803
50	0x3e038780	0.12844658
51	0xbdac1e57	-0.08404224
52	0xbd6a2277	-0.057161774
53	0xbe21ee59	-0.15813579
54	0x3d81a0cd	0.063294984
55	0xbd4d6ba9	-0.0501515
56	0x3e4ffb98	0.20310819
57	0xbec0ea64	-0.37678826
58	0xbdcf4f87	-0.101225905
59	0x3e65a81a	0.22427407
60	0x3d5bb5c0	0.053640127
61	0xbee8e6bf	-0.45488545
62	0x3de6758d	0.1125289
63	0xbd763be8	-0.060115725
64	0x3df61bbc	0.12017009
65	0x3b00d429	0.0019657707
66	0xbdaba34e	-0.08380757
67	0x3dd7b220	0.105320215
68	0xbed31566	-0.41227263
69	0xbd7e37c3	-0.062064897
70	0xbe87f4ef	-0.26554057
71	0xbd9304c0	-0.0717864
72	0x3da81b70	0.08208358
73	0x3e65ce21	0.22441913
74	0x3cd13066	0.025535773
75	0xbf0347a9	-0.5128122
76	0x3ead2fa0	0.33825397
77	0xbd2d06bb	-0.042242747
78	0xbf195c82	-0.5990678
79	0xbcde92cb	-0.027169606
80	0x3ebe046d	0.37112752
81	0xbdc49279	-0.0959825
82	0xbbe7194c	-0.007052576
83	0x3e1eb0ad	0.15497084
84	0xbde54544	-0.11194852
85	0xbda36da7	-0.07979899
86	0x3d63f378	0.05565211
87	0x3dfc574e	0.123213395
88	0xbd928ba9	-0.07155544
89	0x3ded544d	0.11588345
90	0xbd9c04f4	-0.07618132
91	0x3d88c731	0.06678618
92	0xbe5f0c7a	-0.21782103
93	0x3e93f903	0.28900918
94	0x3d344bc1	0.044017557
95	0xbd614ad1	-0.05500299
96	0x3d2fa41c	0.042881116
97	0x3e66fd91	0.22557665
98	0x3c1cb8e6	0.009565568
99	0xbe7097b2	-0.23495367
100	0xbdca899e	-0.0988953
101	0x3dfa5d4a	0.12224825
102	0xbd02c3a9	-0.031924877
103	0xbdbbca5f	-0.091694586
104	0xbdcc1017	-0.099640064
105	0xbda05a35	-0.078297056
106	0x3e480a95	0.19535287
107	0xbd1b8de3	-0.03797711
108	0xbea30df0	-0.3184657
109	0x3e5d249b	0.21595995
110	0x3e3ad0c1	0.18243696
111	0xbe1077d0	-0.14108205
112	0x3e90f475	0.28311506
113	0xbdb12a89	-0.08650691
114	0x3daf860d	0.0857049
115	0x3dc67b36	0.09691469
116	0xbd6a3fa0	-0.057189584
117	0xbcbe9079	-0.02326225
118	0x3bd798fe	0.0065795174
119	0xbd935537	-0.07193988
120	0x3d0c68c4	0.0342796
121	0xbd64c5cb	-0.055852693
122	0xbcb450c6	-0.022011172
123	0x3d4a26f3	0.04935355
124	0x3d9f6846	0.077835605
125	0x3d455fd9	0.04818711
126	0xbda616f1	-0.081098445
127	0x3e8cf0f2	0.27527577

a2c_network.value.weight f4 [1, 128]
0	0xba61f766	-0.0008619934
1	0xbceaeb8a	-0.028676767
2	0xbbb9546e	-0.0056558168
3	0xbdaba0fe	-0.08380316
4	0x3d5354dc	0.0515946
5	0x3d1e395b	0.038628917
6	0xbd393f3b	-0.045226317
7	0xbc8e47e3	-0.017368263
8	0xbce6103d	-0.028083915
9	0xbc9daf04	-0.019248493
10	0xbe0972b9	-0.1342267
11	0xbd182243	-0.03714205
12	0xbe045a97	-0.12925182
13	0x3d11a707	0.03555968
14	0xbd380ff4	-0.04493709
15	0x3db21c0f	0.08696758
16	0x3e02be46	0.12767896
17	0x3d5e5f28	0.054289967
18	0xbc597bd3	-0.013274151
19	0x3c3e6237	0.011620096
20	0x3db3333d	0.08750007
21	0xbdfecc40	-0.12441301
22	0x3c9fba88	0.019498125
23	0xbdf09792	-0.1174766
24	0x3dc4a183	0.096011184
25	0xbc941e76	-0.018080931
26	0xbd249891	-0.04018456
27	0xbc9161d2	-0.01774684
28	0x3b2ee528	0.002668688
29	0x3dae8aa3	0.085225366
30	0xbc8529c3	-0.016255265
31	0x3ca9fbf7	0.020750029
32	0x3d2f3451	0.042774502
33	0xbd24558d	-0.04012065
34	0x3e63c129	0.22241654
35	0x3cfe7d89	0.03106572
36	0xbc8d94d7	-0.017282886
37	0xbda26ebd	-0.07931278
38	0xbb9efab6	-0.0048516644
39	0xbd8f6009	-0.07000739
40	0x3ccc75f4	0.024958588
41	0x3cbe52f7	0.02323292
42	0x3bd76668	0.006573487
43	0x3db121d3	0.086490296
44	0x3c4f0d0b	0.012637387
45	0x3c872185	0.016495476
46	0xbcabc7d0	-0.020969301
47	0x3d1cf1a3	0.03831638
48	0x3ce10c3b	0.027471652
49	0x3d62bd7f	0.0553565
50	0xbd78716e	-0.06065505
51	0x3d3e8da4	0.046521798
52	0x3c6d40fc	0.0144808255
53	0xbc8e40d1	-0.017364891
54	0xbbd63997	-0.006537627
55	0x3c1d9b98	0.009619616
56	0x3e472377	0.19447123
57	0xbccfd8a2	-0.025371853
58	0x3dad2b03	0.084554695
59	0x3baa6de2	0.0052010873
60	0x3d187ed8	0.037230343
61	0xbd5098cb	-0.050926965
62	0x3daab46b	0.08335193
63	0x3d33fd12	0.04394252
64	0x3b433fc3	0.0029792644
65	0xbbaa6a2f	-0.0052006464
66	0xbd7b3bd2	-0.061336346
67	0x3d4bc408	0.049747497
68	0xbe9b79de	-0.30366415
69	0xbbdfd5b5	-0.006830896
70	0xbdc745f0	-0.097301364
71	0x3cbbaeb0	0.022910446
72	0xbb5f6f1f	-0.0034093333
73	0x3d93e09b	0.072205745
74	0x3d3ef5e5	0.046621222
75	0xbbd4c5ec	-0.0064933207
76	0x3c74924f	0.014927461
77	0x3c56934c	0.013096642
78	0x3c907da9	0.017638044
79	0x3d23c8ed	0.03998654
80	0x3b2e53b1	0.0026600177
81	0x3ce2da2b	0.027691921
82	0xbd4d514f	-0.05012637
83	0xbc81ea36	-0.01585875
84	0xbd7f3949	-0.06231049
85	0x3d70ac61	0.058758143
86	0xbcbcf237	-0.023064716
87	0x3d37bf95	0.04486044
88	0xbe41cda6	-0.18926105
89	0xbc0fdf58	-0.008781277
90	0xbc225b43	-0.009909454
91	0x3bdee6b4	0.0068024043
92	0x3cffc2ce	0.03122082
93	0xba9dd718	-0.0012042252
94	0x3ccd58ba	0.025066722
95	0x3d35d2d5	0.04439052
96	0x3ce574a8	0.028009728
97	0x3c23f076	0.010006061
98	0x3d803f3b	0.0626206
99	0x3de9b95e	0.11412309
100	0x3c80e057	0.015731974
101	0x3d6d2667	0.05789795
102	0xbe1a179c	-0.15048069
103	0x3cd563fc	0.026048653
104	0x3b35eb63	0.002775871
105	0x3d7a579c	0.061118707
106	0xbbacfdbb	-0.0052792705
107	0xbc8c5ef4	-0.01713512
108	0x3cb38d5c	0.021917991
109	0x38b68872	8.703851e-05
110	0xbca8337c	-0.020532362
111	0x3b801c99	0.003909659
112	0x3e774ef3	0.2415121
113	0x3d5381d2	0.05163748
114	0xbd0dea99	-0.034647558
115	0xbc5eb8a4	-0.013593826
116	0x3caf35d7	0.021387978
117	0xbca2d50d	-0.019876981
118	0x3df67ed8	0.12035912
119	0x3d8f0f57	0.06985348
120	0x3c3e325a	0.011608684
121	0xbc63dd63	-0.013907763
122	0x3aa2e679	0.0012428305
123	0xb89a557b	-7.359214e-05
124	0x3c829f0e	0.015944984
125	0xbd809f11	-0.062803395
126	0x3ce5cd41	0.028051974
127	0xbc3f5243	-0.011677328

a2c_network.mu.weight f4 [2, 128]
0	0x3e5aad00	0.21355057
1	0x3afb2c38	0.0019162958
2	0xbb9bf6ec	-0.00475966
3	0x3b10b8ec	0.0022082878
4	0xbb5e3237	-0.0033904442
5	0xbc1b9dd5	-0.009498079
6	0xb9d33850	-0.00040287012
7	0xbad5fbcf	-0.0016325655
8	0xbd271e0e	-0.040800147
9	0x3b4b5f8c	0.0031032292
10	0xbbb0b600	-0.00539279
11	0xbce14ba2	-0.027501885
12	0x3bcd0d75	0.0062577077
13	0xb9d4aa57	-0.00040562704
14	0x3953915a	0.00020176676
15	0x3cf24780	0.02957511
16	0x3b8a2d95	0.0042168596
17	0xbabd1cb1	-0.0014428106
18	0xbb48d8de	-0.003064684
19	0x3b6a3519	0.0035737215
20	0x38c3378d	9.308672e-05
21	0xbba0b044	-0.004903825
22	0x3bd4ba1f	0.006491914
23	0x3bd675f7	0.006544824
24	0xbba414dd	-0.00500737
25	0xbb8882e8	-0.004165996
26	0xbbdcde3e	-0.0067403605
27	0xbdaf5823	-0.085617326
28	0x3e73977d	0.23788257
29	0xbb4f1a76	-0.0031601465
30	0xbe63e9dd	-0.2225718
31	0xbba39ec4	-0.0049932916
32	0x3b9e46fe	0.0048302403
33	0x3b742afd	0.0037257068
34	0xbd1b6aac	-0.037943527
35	0xbe04cf99	-0.12969817
36	0xb93a5522	-0.00017770057
37	0x3e8452b6	0.25844353
38	0xbb023273	-0.0019866496
39	0x3b3a76f1	0.0028452242
40	0xbd95fee8	-0.0732401
41	0x3db04419	0.086067386
42	0xbb339fc4	-0.002740846
43	0xbbe220f7	-0.0069009024
44	0x3e09f0f9	0.1347083
45	0xbac297ee	-0.0014846304
46	0xbbcfa204	-0.0063364524
47	0xbb2d881d	-0.0026478835
48	0xbe2103d4	-0.15724117
49	0xbd3cab1e	-0.046061628
50	0x3a4b334a	0.0007751478
51	0xb9ce1cad	-0.00039312747
52	0xbb9e658c	-0.0048338827
53	0xba8b22db	-0.0010615246
54	0x3cdcbf62	0.026946727
55	0x3af34950	0.0018561278
56	0x3caaed42	0.020865086
57	0xbe7a73a3	-0.24458174
58	0xbaeb2fa6	-0.0017943277
59	0xbd103a6c	-0.035211965
60	0xba46c8dd	-0.00075830315
61	0x3d4f71b6	0.050645553
62	0xbb146e22	-0.0022648652
63	0xbb49cb74	-0.0030791434
64	0x3e42c882	0.190218
65	0x3e2adb8a	0.1668531
66	0xbc6dc7d6	-0.014512977
67	0x3b7916a4	0.003800788
68	0xbd2e455c	-0.042546615
69	0xbbce4490	-0.0062947944
70	0xbde26854	-0.11055055
71	0xbb067df1	-0.0020521844
72	0x3d93385a	0.071884826
73	0xbe44dd6e	-0.19225094
74	0xbaefdbf0	-0.0018299799
75	0x3ea46fe3	0.32116613
76	0xbd926f26	-0.07150106
77	0xba5ae22c	-0.0008349742
78	0xbe5c2c7d	-0.21501346
79	0x3a06b3f9	0.00051385124
80	0x3e09c697	0.13454662
81	0xbba6686f	-0.0050783674
82	0x3e276463	0.16346888
83	0x3a70a274	0.0009179481
84	0xbac22add	-0.00148138
85	0x3be5496f	0.0069972794
86	0x3b15d69b	0.002286351
87	0x3b4fbbca	0.0031697624
88	0x3ad498e3	0.001621988
89	0xbab2fc09	-0.0013655435
90	0x3a9105c0	0.0011064336
91	0xbbebdf0a	-0.007198219
92	0xbda1fc24	-0.0790942
93	0x3e508840	0.20364475
94	0x3bc65b7a	0.0060533853
95	0xba3d0659	-0.00072107237
96	0xb870224d	-5.7252404e-05
97	0x3dec1ba7	0.11528712
98	0x3b7987c6	0.0038075312
99	0x3e61e911	0.22061564
100	0x3ae69ef5	0.001759498
101	0x3971159c	0.00022991601
102	0xbb0e781e	-0.0021739076
103	0xbb0b621a	-0.002126819
104	0x3c726794	0.014795203
105	0xbb23eed5	-0.002501418
106	0xbdd81ed4	-0.10552755
107	0xbb9c3132	-0.0047666067
108	0x3d764ead	0.060133625
109	0xbd15d569	-0.036580477
110	0xbc5c6edb	-0.013454164
111	0x3e4f504f	0.20245479
112	0xbd0a29e9	-0.033731375
113	0xbbe20c78	-0.006898459
114	0x3c18d496	0.009328028
115	0x3ba6d737	0.0050915736
116	0x3c1c85d2	0.00955339
117	0xbbe7b138	-0.0070706867
118	0xbb86a800	-0.0041093826
119	0xbabf6cab	-0.0014604529
120	0xbb8a6580	-0.0042235255
121	0xba9f0a0c	-0.0012133732
122	0x3dd1cb48	0.10243851
123	0x3d966146	0.07342772
124	0xb830b0bc	-4.2126267e-05
125	0x3d1a71db	0.037706237
126	0x3bab4f86	0.005227986
127	0x3d0b4abf	0.03400683
128	0x3e31a7cc	0.17349166
129	0x3ae1be91	0.0017222931
130	0xbb528427	-0.0032122226
131	0xbba63701	-0.005072475
132	0xbad28554	-0.0016061463
133	0xbbda2a22	-0.0066578547
134	0x3b9cae21	0.0047815
135	0x3b2f402e	0.0026741135
136	0xbca8fc60	-0.020628154
137	0x3a1fb928	0.0006092959
138	0x3b0aa3b2	0.00211547
139	0xbd0069b2	-0.0313508
140	0x3ba06bf6	0.0048956824
141	0x3a808463	0.0009805079
142	0x3c092782	0.008371236
143	0xbb5be6ba	-0.0033554272
144	0x3c2e9cc4	0.010657493
145	0xba4eb5e3	-0.00078853796
146	0x3bef8ba2	0.0073103467
147	0x3b0d0639	0.0021518602
148	0x3b12f15b	0.002242169
149	0xbb04eb06	-0.0020281686
150	0x3a237c9d	0.00062365254
151	0x3b7d794c	0.0038677035
152	0x3b2afa7b	0.002608924
153	0xbb246bd5	-0.0025088687
154	0x3cf6f09f	0.030144034
155	0x3e0bf419	0.13667335
156	0x3db1aea2	0.08675887
157	0x3ab6f180	0.0013957471
158	0x3e5da727	0.21645795
159	0x3c0e6c6a	0.00869284
160	0x3a2de18e	0.00066330365
161	0x3b5a308d	0.0033293099
162	0xbbe9fb9e	-0.007140591
163	0xbca94665	-0.02066345
164	0xbb0cde1c	-0.0021494692
165	0x3ea4a21b	0.32154927
166	0x3b1c29f5	0.002382872
167	0x3a574f17	0.00082133844
168	0xbe414bd8	-0.18876588
169	0x3dd9422c	0.106083244
170	0xbb4a6553	-0.0030883148
171	0x3ba4fd61	0.005035088
172	0x3d23a035	0.039947707
173	0x3b6f8ded	0.00365531
174	0xbb22aba3	-0.0024821542
175	0xbaeb540d	-0.0017954126
176	0x3d5f7fe5	0.05456533
177	0x3e09e6a3	0.13466887
178	0xbbab7a2b	-0.0052330694
179	0xbd7e2083	-0.062042724
180	0x3b701531	0.0036633725
181	0xba2879fd	-0.0006426869
182	0xbdb22eef	-0.08700358
183	0xba485587	-0.0007642139
184	0xbc6f387d	-0.01460087
185	0x3da70843	0.08155873
186	0xbb0c991b	-0.0021453563
187	0xbc5dfa20	-0.013548404
188	0x3a09c550	0.0005255537
189	0xbebc9b11	-0.36837056
190	0xbb5428db	-0.0032372985
191	0x3bfcca4b	0.007714545
192	0x3e5126df	0.20424984
193	0x3e23d6e4	0.15999943
194	0xbbc11691	-0.0058925827
195	0xbae5ceb4	-0.0017532916
196	0x3d0ccba2	0.034373887
197	0xbb7a6c76	-0.003821162
198	0x3d335a7b	0.04378746
199	0xbb3fb801	-0.0029253962
200	0x3bb9d816	0.0056715114
201	0x3e62b037	0.22137533
202	0x3bb6fa22	0.0055840174
203	0x3c08ebbd	0.008356986
204	0x3e21387d	0.15744205
205	0xbb0bf7f8	-0.0021357518
206	0xbd822040	-0.063538074
207	0xb96c1c3b	-0.0002251723
208	0x3ee30da4	0.44346344
209	0x380de592	3.3830824e-05
210	0xbd30570e	-0.04305177
211	0x3b4fc155	0.0031700928
212	0xbb403c74	-0.0029332908
213	0xba7d904c	-0.0009672686
214	0xb8cc3c41	-9.738701e-05
215	0x3bb272ce	0.0054458147
216	0xbb231658	-0.0024885144
217	0x3bea84fb	0.007156966
218	0xbb00a417	-0.0019629055
219	0x3c8df9fc	0.017331116
220	0xbdea5e4c	-0.11443767
221	0x3d754fc4	0.059890524
222	0xbb17387a	-0.0023074434
223	0xbadedddc	-0.0017003375
224	0xbab72e22	-0.0013975541
225	0xbd17c17d	-0.03704976
226	0xbbcade63	-0.0061910613
227	0x3d2e4dbc	0.042554602
228	0xbaa9c62e	-0.0012952739
229	0xba8cd4e3	-0.0010744598
230	0x3b166271	0.002294686
231	0xbb6051f1	-0.0034228528
232	0x3e6e0047	0.23242293
233	0x3b14ea24	0.0022722567
234	0xbdf64335	-0.120245375
235	0xbb875ae8	-0.00413071
236	0xbe5dd0f0	-0.21661735
237	0x3e85f077	0.26160023
238	0xbd09aaa0	-0.033609986
239	0x3bca902b	0.006181737
240	0x3d09e1de	0.03366267
241	0x3b362f0a	0.0027799034
242	0x3b9c9507	0.0047785076
243	0xbae3dba2	-0.0017384181
244	0x3aab7366	0.0013080656
245	0xbb1f5cdb	-0.002431682
246	0x3b88e049	0.0041771275
247	0xba7e1f8c	-0.0009694032
248	0xbb0c4000	-0.0021400452
249	0x3ba0835d	0.004898472
250	0xbe45ddac	-0.19322842
251	0xbdaba5f6	-0.08381264
252	0x3b5d5469	0.0033772236
253	0x3d2c993f	0.042138334
254	0x3b039aad	0.0020081208
255	0x3e5a1eb1	0.2130077

a2c_network.mu.bias f4 [2]
0	0x3e0ea53f	0.13930224
1	0xbd117156	-0.035508476

exp_avg f4 [2]
0	0x3bd6a5fb	0.006550548
1	0x3c019717	0.007909558

exp_avg_sq f4 [2]
0	0x397323b4	0.00023187586
1	0x396c18cd	0.00022515953

exp_avg f4 [128, 11]
0	0xba9185f2	-0.0011102541
1	0x382c75ab	4.1117582e-05
2	0x3a50d5e2	0.00079664413
3	0x3a437658	0.0007456294
4	0xba112353	-0.0005536575
5	0xba2c7847	-0.0006579202
6	0x00000000	0.0
7	0x00000000	0.0
8	0x00000000	0.0
9	0x00000000	0.0
10	0x00000000	0.0
11	0xbaa41fab	-0.0012521645
12	0x3abd95c5	0.001446419
13	0x38f21638	0.00011543598
14	0x3a0e6765	0.0005432277
15	0x3a32a9ea	0.00068154803
16	0xbb897410	-0.004194744
17	0x00000000	0.0
18	0x00000000	0.0
19	0x00000000	0.0
20	0x00000000	0.0
21	0x00000000	0.0
22	0xb9daebac	-0.0004175579
23	0x3af7c731	0.0018903968
24	0xbae195dc	-0.0017210799
25	0x3a401f85	0.00073289155
26	0x3a9ac52a	0.0011808027
27	0xbb07b7e5	-0.0020708975
28	0x00000000	0.0
29	0x00000000	0.0
30	0x00000000	0.0
31	0x00000000	0.0
32	0x00000000	0.0
33	0xba31c931	-0.0006781994
34	0xba5adfe9	-0.0008349405
35	0xb981d37a	-0.0002476236
36	0xb724f7c2	-9.832847e-06
37	0xbad8f7ea	-0.0016553376
38	0x3957339b	0.00020523222
39	0x00000000	0.0
40	0x00000000	0.0
41	0x00000000	0.0
42	0x00000000	0.0
43	0x00000000	0.0
44	0xbacd4624	-0.0015661162
45	0xbac063f5	-0.0014678227
46	0x3a507174	0.0007951476
47	0xba82ecd9	-0.0009988799
48	0xba5a8267	-0.00083354715
49	0x3ad6b712	0.0016381464
50	0x00000000	0.0
51	0x00000000	0.0
52	0x00000000	0.0
53	0x00000000	0.0
54	0x00000000	0.0
55	0x3a0197cf	0.0004943581
56	0x3b19f869	0.0023494011
57	0xba15f431	-0.0005720286
58	0x3ad7b9a0	0.0016458519
59	0xb9a649de	-0.00031717023
60	0xbbc2db3d	-0.0059465454
61	0x00000000	0.0
62	0x00000000	0.0
63	0x00000000	0.0
64	0x00000000	0.0
65	0x00000000	0.0
66	0xbb86b5d1	-0.0041110297
67	0xbb111f58	-0.0022143926
68	0xbb0b43a4	-0.0021250034
69	0xbb5f3ffb	-0.0034065235
70	0xbaed582d	-0.0018107943
71	0xba0f3ae8	-0.0005463795
72	0x00000000	0.0
73	0x00000000	0.0
74	0x00000000	0.0
75	0x00000000	0.0
76	0x00000000	0.0
77	0x3ac76c59	0.0015214785
78	0x3b11a1a3	0.0022221587
79	0xba104212	-0.00055030093
80	0x3b00abd1	0.001963366
81	0xba487c4e	-0.00076479174
82	0xbb7277bb	-0.0036997634
83	0x00000000	0.0
84	0x00000000	0.0
85	0x00000000	0.0
86	0x00000000	0.0
87	0x00000000	0.0
88	0xbb36fcd2	-0.0027921689
89	0x399b0efe	0.00029575074
90	0xbaf73603	-0.0018860701
91	0xba4736d0	-0.0007599415
92	0xb9ab0f15	-0.000326269
93	0xbb067450	-0.0020516105
94	0x00000000	0.0
95	0x00000000	0.0
96	0x00000000	0.0
97	0x00000000	0.0
98	0x00000000	0.0
99	0x3b117317	0.0022193843
100	0xb9886f0e	-0.00026022684
101	0x3a99e75c	0.0011741924
102	0x3a6a83af	0.0008946014
103	0x3a0ccf3f	0.0005371458
104	0x3a918245	0.0011101445
105	0x00000000	0.0
106	0x00000000	0.0
107	0x00000000	0.0
108	0x00000000	0.0
109	0x00000000	0.0
110	0x3a220758	0.0006180904
111	0x3b4d596c	0.0031333817
112	0xbab2c845	-0.0013640007
113	0x3b3489c5	0.0027547937
114	0x3a4f596b	0.00079097477
115	0xbbd2312c	-0.006414553
116	0x00000000	0.0
117	0x00000000	0.0
118	0x00000000	0.0
119	0x00000000	0.0
120	0x00000000	0.0
121	0xba337bf0	-0.0006846776
122	0xbb3fbd99	-0.0029257296
123	0xb840c640	-4.5961002e-05
124	0xbab0e851	-0.001349697
125	0xb450a35b	-1.9430938e-07
126	0x3b524d0d	0.0032089383
127	0x00000000	0.0
128	0x00000000	0.0
129	0x00000000	0.0
130	0x00000000	0.0
131	0x00000000	0.0
132	0xb968da67	-0.00022206605
133	0xba0f7906	-0.0005473051
134	0x3a505e8b	0.00079486583
135	0xb99bae50	-0.00029693777
136	0xba9b177d	-0.0011832562
137	0x3ba291fd	0.004961251
138	0x00000000	0.0
139	0x00000000	0.0
140	0x00000000	0.0
141	0x00000000	0.0
142	0x00000000	0.0
143	0xbb544b45	-0.0032393497
144	0xbb16da10	-0.002301816
145	0xba7a621d	-0.0009551363
146	0xbb731a47	-0.003709452
147	0xb922263e	-0.0001546377
148	0x39865194	0.00025619252
149	0x00000000	0.0
150	0x00000000	0.0
151	0x00000000	0.0
152	0x00000000	0.0
153	0x00000000	0.0
154	0xb9a95682	-0.00032298645
155	0x3a152e44	0.0005690793
156	0xb9c721c4	-0.00037981395
157	0xb9f15356	-0.00046029192
158	0xb8a7ac94	-7.995326e-05
159	0xba8bac81	-0.0010656269
160	0x00000000	0.0
161	0x00000000	0.0
162	0x00000000	0.0
163	0x00000000	0.0
164	0x00000000	0.0
165	0x3bcf624e	0.0063288575
166	0x3a8a6ab6	0.0010560367
167	0x3b1f7d0b	0.0024336006
168	0x3b6b515c	0.0035906648
169	0x3a9dd381	0.0012041182
170	0xb8a32cb1	-7.78077e-05
171	0x00000000	0.0
172	0x00000000	0.0
173	0x00000000	0.0
174	0x00000000	0.0
175	0x00000000	0.0
176	0x3a3b38ae	0.000714193
177	0xb9239235	-0.00015599358
178	0xba11f100	-0.0005567223
179	0xb9580b27	-0.0002060352
180	0xbaf2313f	-0.0018477811
181	0x39529fda	0.0002008671
182	0x00000000	0.0
183	0x00000000	0.0
184	0x00000000	0.0
185	0x00000000	0.0
186	0x00000000	0.0
187	0x3ae7ebeb	0.001769421
188	0x39fc7ed0	0.00048159668
189	0xb9ba2c35	-0.0003550962
190	0x3a856bd8	0.0010179235
191	0x39884716	0.00025992905
192	0xba9b82f9	-0.0011864594
193	0x00000000	0.0
194	0x00000000	0.0
195	0x00000000	0.0
196	0x00000000	0.0
197	0x00000000	0.0
198	0xbbbc17d4	-0.005740145
199	0xbb8b3eae	-0.0042494154
200	0xbaabccba	-0.0013107278
201	0xbba4612a	-0.0050164657
202	0xb9a439a0	-0.00031323452
203	0x3a917ed9	0.0011100426
204	0x00000000	0.0
205	0x00000000	0.0
206	0x00000000	0.0
207	0x00000000	0.0
208	0x00000000	0.0
209	0x3a4e7aa5	0.0007876552
210	0x3a2a3fde	0.00064945023
211	0x39a46337	0.00031354438
212	0x3b320f0e	0.0027169618
213	0xba913219	-0.0011077552
214	0x3a98af73	0.0011648968
215	0x00000000	0.0
216	0x00000000	0.0
217	0x00000000	0.0
218	0x00000000	0.0
219	0x00000000	0.0
220	0x3ae1e204	0.0017233496
221	0xbb2d6e23	-0.0026463352
222	0x3b0ff7fa	0.0021967874
223	0x3aaacad1	0.0013030415
224	0xba18ed46	-0.00058336963
225	0x3b5df0fc	0.0033865562
226	0x00000000	0.0
227	0x00000000	0.0
228	0x00000000	0.0
229	0x00000000	0.0
230	0x00000000	0.0
231	0xba2d0272	-0.00065997906
232	0xbaa6681f	-0.0012695825
233	0x3a8527c3	0.0010158945
234	0xb9992021	-0.00029206372
235	0xbac03e8f	-0.0014667081
236	0x3a683dfb	0.00088593335
237	0x00000000	0.0
238	0x00000000	0.0
239	0x00000000	0.0
240	0x00000000	0.0
241	0x00000000	0.0
242	0x3b2ab9b4	0.002605063
243	0xb8f60888	-0.00011731783
244	0x38ab4dea	8.168428e-05
245	0x3acd2518	0.0015651314
246	0x398f3403	0.00027313837
247	0xb90b28c3	-0.00013271258
248	0x00000000	0.0
249	0x00000000	0.0
250	0x00000000	0.0
251	0x00000000	0.0
252	0x00000000	0.0
253	0x3ab0e322	0.0013495425
254	0xba1fba03	-0.00060930866
255	0x3ab1c57f	0.0013562887

exp_avg_sq f4 [128, 11]
0	0x38273b37	3.987105e-05
1	0x37ffc009	3.0487792e-05
2	0x377302a5	1.4484544e-05
3	0x37c0cfbc	2.2984917e-05
4	0x378da59b	1.6885626e-05
5	0x3844db24	4.6934132e-05
6	0x00000000	0.0
7	0x00000000	0.0
8	0x00000000	0.0
9	0x00000000	0.0
10	0x00000000	0.0
11	0x38e1bf89	0.00010764512
12	0x38efd5cf	0.00011436233
13	0x385279c8	5.018132e-05
14	0x385c9bb9	5.2597115e-05
15	0x384f4d66	4.942473e-05
16	0x39139354	0.00014073896
17	0x00000000	0.0
18	0x00000000	0.0
19	0x00000000	0.0
20	0x00000000	0.0
21	0x00000000	0.0
22	0x3843cf5c	4.668474e-05
23	0x37cc419d	2.4349249e-05
24	0x37d846b5	2.5782132e-05
25	0x3826d223	3.977319e-05
26	0x37a9c153	2.0236394e-05
27	0x38290e6b	4.0306168e-05
28	0x00000000	0.0
29	0x00000000	0.0
30	0x00000000	0.0
31	0x00000000	0.0
32	0x00000000	0.0
33	0x39933b81	0.0002808236
34	0x3988a4b9	0.0002606267
35	0x386c5f53	5.6355562e-05
36	0x38d7754f	0.00010273849
37	0x38992401	7.302315e-05
38	0x39a7a1e2	0.00031973334
39	0x00000000	0.0
40	0x00000000	0.0
41	0x00000000	0.0
42	0x00000000	0.0
43	0x00000000	0.0
44	0x390d9322	0.00013501619
45	0x38f955fa	0.000118892596
46	0x37cf66ee	2.4724253e-05
47	0x384ff604	4.9581766e-05
48	0x38303500	4.201103e-05
49	0x391f580d	0.00015196223
50	0x00000000	0.0
51	0x00000000	0.0
52	0x00000000	0.0
53	0x00000000	0.0
54	0x00000000	0.0
55	0x39bacd32	0.00035629567
56	0x39ba3149	0.00035513405
57	0x38638f3f	5.4254426e-05
58	0x38c8e86f	9.580037e-05
59	0x38ff723e	0.00012180627
60	0x39f90273	0.00047494806
61	0x00000000	0.0
62	0x00000000	0.0
63	0x00000000	0.0
64	0x00000000	0.0
65	0x00000000	0.0
66	0x396289d8	0.0002160439
67	0x3902e0c6	0.00012481501
68	0x3867f0f6	5.5299104e-05
69	0x38daa851	0.000104264014
70	0x3886eb0e	6.4334e-05
71	0x39370640	0.00017454568
72	0x00000000	0.0
73	0x00000000	0.0
74	0x00000000	0.0
75	0x00000000	0.0
76	0x00000000	0.0
77	0x3984a58d	0.00025300347
78	0x3980db77	0.00024577577
79	0x381e1c0e	3.7696263e-05
80	0x38a44eec	7.83483e-05
81	0x38c67388	9.462895e-05
82	0x39b45380	0.00034394488
83	0x00000000	0.0
84	0x00000000	0.0
85	0x00000000	0.0
86	0x00000000	0.0
87	0x00000000	0.0
88	0x39119dfb	0.0001388713
89	0x38e443af	0.00010884494
90	0x3896e48f	7.19513e-05
91	0x38b4abd1	8.615072e-05
92	0x38053247	3.1756495e-05
93	0x38e72e1a	0.000110235254
94	0x00000000	0.0
95	0x00000000	0.0
96	0x00000000	0.0
97	0x00000000	0.0
98	0x00000000	0.0
99	0x388dc594	6.760206e-05
100	0x3890efc3	6.911114e-05
101	0x38137fd0	3.5166566e-05
102	0x380a9a8f	3.3045708e-05
103	0x379452dd	1.7681561e-05
104	0x38a249c9	7.7385055e-05
105	0x00000000	0.0
106	0x00000000	0.0
107	0x00000000	0.0
108	0x00000000	0.0
109	0x00000000	0.0
110	0x3a125fcb	0.0005583732
111	0x3a13ae3e	0.0005633569
112	0x3933d9ad	0.00017151861
113	0x3943a406	0.00018657753
114	0x3980b66e	0.00024549983
115	0x3a5e6e59	0.0008485071
116	0x00000000	0.0
117	0x00000000	0.0
118	0x00000000	0.0
119	0x00000000	0.0
120	0x00000000	0.0
121	0x399650a2	0.00028670306
122	0x398dcc0c	0.00027045642
123	0x384ccf44	4.883042e-05
124	0x38c3bc97	9.333452e-05
125	0x38adb67f	8.2832754e-05
126	0x39b19275	0.0003386919
127	0x00000000	0.0
128	0x00000000	0.0
129	0x00000000	0.0
130	0x00000000	0.0
131	0x00000000	0.0
132	0x38e56c72	0.000109397704
133	0x38bcf1f8	9.009609e-05
134	0x3849d105	4.81168e-05
135	0x385f974b	5.3308246e-05
136	0x383e4a8c	4.5368957e-05
137	0x38ed290b	0.000113086855
138	0x00000000	0.0
139	0x00000000	0.0
140	0x00000000	0.0
141	0x00000000	0.0
142	0x00000000	0.0
143	0x39d02b6f	0.00039705212
144	0x39b46b5f	0.00034412273
145	0x392d905a	0.00016552341
146	0x39261cb7	0.00015841691
147	0x391a1007	0.00014692555
148	0x39de7873	0.0004243288
149	0x00000000	0.0
150	0x00000000	0.0
151	0x00000000	0.0
152	0x00000000	0.0
153	0x00000000	0.0
154	0x39125507	0.0001395532
155	0x39143b71	0.00014136524
156	0x380fc241	3.427477e-05
157	0x383f63fb	4.5631063e-05
158	0x3813ace9	3.5208566e-05
159	0x392f3327	0.00016708356
160	0x00000000	0.0
161	0x00000000	0.0
162	0x00000000	0.0
163	0x00000000	0.0
164	0x00000000	0.0
165	0x39cbedd8	0.00038896385
166	0x39aee15e	0.00033355778
167	0x393ae282	0.00017822723
168	0x3956d413	0.00020487634
169	0x38866622	6.408642e-05
170	0x39b318fc	0.00034160155
171	0x00000000	0.0
172	0x00000000	0.0
173	0x00000000	0.0
174	0x00000000	0.0
175	0x00000000	0.0
176	0x380b54c1	3.3219116e-05
177	0x37f429a4	2.9106457e-05
178	0x378b9a77	1.664202e-05
179	0x37a041e5	1.910417e-05
180	0x37b07e30	2.1039596e-05
181	0x38224bb6	3.869432e-05
182	0x00000000	0.0
183	0x00000000	0.0
184	0x00000000	0.0
185	0x00000000	0.0
186	0x00000000	0.0
187	0x3825871a	3.946489e-05
188	0x381b5f56	3.704367e-05
189	0x37973f3c	1.8030049e-05
190	0x379d0c57	1.8721605e-05
191	0x3757c88b	1.2861691e-05
192	0x38310827	4.220768e-05
193	0x00000000	0.0
194	0x00000000	0.0
195	0x00000000	0.0
196	0x00000000	0.0
197	0x00000000	0.0
198	0x3a6fb38b	0.00091438805
199	0x3a3f3051	0.00072932715
200	0x3977b825	0.00023624355
201	0x39a8fe25	0.0003223281
202	0x3997e422	0.00028970937
203	0x3a69bf74	0.00089167734
204	0x00000000	0.0
205	0x00000000	0.0
206	0x00000000	0.0
207	0x00000000	0.0
208	0x00000000	0.0
209	0x3921e279	0.00015438524
210	0x391bd471	0.00014861092
211	0x39058f9e	0.0001273737
212	0x38bd69aa	9.031904e-05
213	0x389e5053	7.548989e-05
214	0x394d09bc	0.0001955395
215	0x00000000	0.0
216	0x00000000	0.0
217	0x00000000	0.0
218	0x00000000	0.0
219	0x00000000	0.0
220	0x3929411f	0.00016141355
221	0x393c7220	0.00017971592
222	0x38d207c3	0.00010015026
223	0x38cd2af1	9.78316e-05
224	0x378d698f	1.6857664e-05
225	0x392baf42	0.0001637312
226	0x00000000	0.0
227	0x00000000	0.0
228	0x00000000	0.0
229	0x00000000	0.0
230	0x00000000	0.0
231	0x38544bb6	5.061525e-05
232	0x38298931	4.042051e-05
233	0x378a8b43	1.651573e-05
234	0x37da8acf	2.6052263e-05
235	0x37915739	1.7325963e-05
236	0x386a77bf	5.590147e-05
237	0x00000000	0.0
238	0x00000000	0.0
239	0x00000000	0.0
240	0x00000000	0.0
241	0x00000000	0.0
242	0x38381583	4.3889053e-05
243	0x386266f3	5.3978478e-05
244	0x380cc265	3.3559645e-05
245	0x37ca39f0	2.4107256e-05
246	0x3741d18f	1.1552488e-05
247	0x3868baac	5.5486962e-05
248	0x00000000	0.0
249	0x00000000	0.0
250	0x00000000	0.0
251	0x00000000	0.0
252	0x00000000	0.0
253	0x3941e78a	0.0001849217
254	0x3906f8ca	0.00012871917
255	0x38801b3f	6.1085906e-05

exp_avg f4 [128]
0	0xba7f92c2	-0.00097493466
1	0x3955f939	0.00020406106
2	0xbaebee3b	-0.0018000075
3	0xbaa49e01	-0.0012559296
4	0xbb12e724	-0.0022415603
5	0xb9791741	-0.00023755153
6	0x3acbc972	0.0015547706
7	0x3ab2a7c9	0.0013630326
8	0x3a1a95a2	0.0005896931
9	0x3b076f21	0.0020665603
10	0x3bb5ec4a	0.0055518495
11	0x3a04a250	0.0005059587
12	0x39dc7e06	0.00042055565
13	0xba136300	-0.0005622357
14	0xbb15ba3a	-0.0022846595
15	0x3ace0539	0.0015718109
16	0x3b517b99	0.003196454
17	0x3b62e5f9	0.0034621938
18	0x3ac23b23	0.001481865
19	0x3b9754c1	0.0046182577
20	0x3abdc9bb	0.0014479676
21	0x3a61c4c9	0.0008612392
22	0x3b56c7d5	0.0032772918
23	0xbb1d298c	-0.0023981063
24	0xbac148b8	-0.0014746403
25	0xbabe4b93	-0.0014518372
26	0xba8c707a	-0.0010714673
27	0x3b00c770	0.0019650124
28	0xb9e2c844	-0.0004325529
29	0xbb39bbcc	-0.0028340695
30	0x3988dff8	0.0002610681
31	0x3b268634	0.002540958
32	0xbb1c058d	-0.002380702
33	0x3afa2020	0.001908306
34	0xbb3af675	-0.0028528247
35	0xbb613811	-0.0034365694
36	0x3b414a3e	0.0029493715
37	0x3aa96863	0.0012924786
38	0x3b59a16e	0.0033207792
39	0xba96374d	-0.0011460573
40	0xbb8dee97	-0.0043314206
41	0xbb1532e5	-0.0022765931
42	0x3a912d2e	0.0011076087
43	0x3adbd1ff	0.0016770958
44	0x3a902d9d	0.0010999922
45	0x3a0c3691	0.0005348707
46	0xbafd6153	-0.0019331373
47	0xba5a9de3	-0.0008339567
48	0x3b981f6b	0.004642417
49	0x38b7e63a	8.769003e-05
50	0xbb48dcc1	-0.0030649158
51	0x3a44ed18	0.00075121364
52	0x3a9958c2	0.0011699426
53	0x3b878c04	0.004136564
54	0x39ca50bc	0.00038588594
55	0xbb5841a2	-0.0032998105
56	0xbb26ddf5	-0.0025461887
57	0x3b19fc17	0.0023496205
58	0x3a2523ab	0.00062995654
59	0xbaf07bcf	-0.0018347445
60	0xb9d633a3	-0.00040855733
61	0x39d5acc2	0.0004075524
62	0xbae85b13	-0.0017727338
63	0xbb814007	-0.0039444
64	0x3a6224d0	0.00086267013
65	0xbb49b99a	-0.0030780793
66	0xbaf089d3	-0.0018351622
67	0x39d908ac	0.00041395926
68	0xbae87c28	-0.0017737197
69	0x39b1187f	0.00033778322
70	0xb79bb2d9	-1.8560722e-05
71	0x3b7cda29	0.0038582182
72	0x3a95cb65	0.0011428414
73	0xbaa441bd	-0.0012531799
74	0x3a16b4e3	0.0005749
75	0xb8c01620	-9.1593945e-05
76	0x3a7eddf4	0.00097224046
77	0xbb207643	-0.0024484552
78	0xbad6df56	-0.0016393464
79	0x3a6f1bcd	0.0009121269
80	0xba590d91	-0.00082799146
81	0xbad37451	-0.0016132687
82	0x3a05b4ff	0.0005100518
83	0x3a97dec5	0.0011586776
84	0xba99725a	-0.0011707053
85	0xb818c8e4	-3.6426718e-05
86	0xbaddfc54	-0.0016936162
87	0x38e88fbd	0.000110893954
88	0xbafa1cfe	-0.0019082127
89	0xb9c643a6	-0.00037815905
90	0x390bbb16	0.00013325768
91	0x3b2ee7b6	0.0026688403
92	0x3a986ae7	0.0011628539
93	0xbb07eeae	-0.002074163
94	0xba662a5b	-0.0008780115
95	0x3b4e7bc1	0.0031506869
96	0x3b595939	0.0033164753
97	0xba232ec6	-0.00062249263
98	0xba90d9f5	-0.0011051284
99	0x3b6099d8	0.0034271386
100	0xb9da1121	-0.00041592962
101	0xb8b08b7c	-8.418315e-05
102	0x3b942b47	0.0045217606
103	0xb9dcc346	-0.0004210716
104	0x3aa1f7b6	0.0012357149
105	0x3a9c1483	0.0011907968
106	0x39925fa0	0.00027918536
107	0xbb5f8676	-0.0034107245
108	0xbb28fc1f	-0.0025785042
109	0x3aa6620d	0.0012694016
110	0x3a93679e	0.001124609
111	0x3b1201f2	0.0022278992
112	0xba18ddf6	-0.00058314146
113	0x3aee762d	0.0018193178
114	0xbb1eb205	-0.0024214995
115	0x3b231440	0.0024883896
116	0xba066923	-0.0005127361
117	0xba68eca2	-0.00088853587
118	0xbb0aec65	-0.002119803
119	0x3a2986d2	0.0006466928
120	0xba22bc7a	-0.0006207895
121	0x3b8346be	0.004006236
122	0x3b4ff6ed	0.0031732873
123	0x3a901daf	0.0010995175
124	0x3a793de5	0.0009507819
125	0xba6f9588	-0.00091394084
126	0x3b0d84c6	0.0021594032
127	0xb987effa	-0.00025928003
